ehr_ipnets/split_1/checkpoint.pt (torch, 70947 bytes, 12 tensors)

single_channel_interp.kernel f4 [37]
0	0xbecffe02	-0.4062348
1	0xbd8d96c8	-0.06913525
2	0x3dd4ea9a	0.10396309
3	0x3e279217	0.16364323
4	0x3e2a8b91	0.16654803
5	0xbedcd9d6	-0.43134946
6	0xbe0e9b4b	-0.13926427
7	0x3f757a91	0.95890146
8	0xbec2a962	-0.38019854
9	0x3deca7bb	0.115554295
10	0xbd0bdd55	-0.034146626
11	0xbeba9489	-0.36441448
12	0xbd679079	-0.056534264
13	0xbebcd143	-0.36878404
14	0xbb50bb3f	-0.0031849889
15	0xbeb313e3	-0.3497611
16	0x3e7a209a	0.24426499
17	0xbed11c9b	-0.40842137
18	0x3e32b784	0.17452818
19	0x3de83ee8	0.113401234
20	0x3e104873	0.14090137
21	0xbd999928	-0.07499915
22	0xbe3cc975	-0.18436225
23	0xbda5d10a	-0.08096512
24	0xbeaa0f8b	-0.33214983
25	0xbe91c391	-0.28469518
26	0x3c8c749f	0.017145453
27	0xbe9f988e	-0.31171077
28	0x3dc94c35	0.098289885
29	0x3e34ee22	0.17668965
30	0x3df6a356	0.120428726
31	0x3e38a675	0.18032248
32	0x3f6688d1	0.90052515
33	0x3ec1b9b9	0.37837008
34	0x3eb2a10d	0.34888497
35	0xbd03f7ce	-0.032218747
36	0x3e2a3a8d	0.16623898

cross_channel_interp.cross_channel_interp f4 [37, 37]
0	0x3f89bb06	1.07602
1	0x3cd9aa75	0.026570538
2	0x3c64bd7a	0.01396119
3	0xbd7eeb6e	-0.062236242
4	0xbddd3b15	-0.10802285
5	0x3bbd4ad2	0.0057767415
6	0xbcb35a68	-0.021893695
7	0x3e414d4a	0.1887714
8	0x3c5f1806	0.0136165675
9	0xbdccebe6	-0.100059316
10	0x3d84fd6e	0.064936504
11	0x3ba80e76	0.005128677
12	0x3d3220a8	0.043488175
13	0x3ccf278c	0.025287412
14	0xbd36935f	-0.044574138
15	0x3b05976c	0.0020384444
16	0x3cd5b485	0.026087055
17	0xbd329875	-0.043602426
18	0x3d5bb943	0.053643476
19	0xbb5ef4e2	-0.0034020473
20	0x3d799f87	0.060943153
21	0xbd70158d	-0.058614302
22	0xbcb8c4e4	-0.022554822
23	0xbba10f7a	-0.004915175
24	0x3d8c1aef	0.06841075
25	0xbba9d300	-0.005182624
26	0x3e139321	0.14411594
27	0xbc12a534	-0.00895052
28	0xbe3b8ee0	-0.18316221
29	0x391972f0	0.00014634035
30	0x3b048c41	0.00202252
31	0x3e1ccac2	0.15311721
32	0xbc732dd8	-0.014842473
33	0xbd49e2c2	-0.04928852
34	0xbd2e8bb8	-0.042613715
35	0xbd31d29c	-0.043413743
36	0x3d10709c	0.035263643
37	0x3d17f2c2	0.037096746
38	0x3f7c4d62	0.98555577
39	0x3dd1f2ec	0.10251412
40	0x3dac37b4	0.08409062
41	0xbd1d162d	-0.038351227
42	0x3e806905	0.25080124
43	0x3e04427b	0.12915985
44	0xbdfe0cfe	-0.12404822
45	0x3e17c5e4	0.14821583
46	0x3d837b60	0.06420016
47	0xbc1e75b1	-0.0096716145
48	0xbe2f6925	-0.17129953
49	0x3d0c37bb	0.034232836
50	0xbe3cbdaf	-0.18431734
51	0xbcd8f011	-0.02648166
52	0xbcb756a1	-0.022380175
53	0x3d9e0001	0.077148445
54	0x3cf34132	0.029694173
55	0xbe0a6d1e	-0.13518187
56	0x3ddb4a70	0.10707557
57	0x3e1dad90	0.1539824
58	0x3d46eb8e	0.048564486
59	0xbcaf430f	-0.02139428
60	0x3db854c4	0.09000543
61	0xbe53010a	-0.20605865
62	0xbe1d471e	-0.1535916
63	0xbd2f4aa8	-0.042795807
64	0x3e2c3bc2	0.16819671
65	0xbc83f442	-0.016107682
66	0xbd565e9a	-0.052336313
67	0xbd567e1c	-0.05236636
68	0x3cdb06cf	0.026736645
69	0x3cb7370b	0.022365114
70	0xbd07dc03	-0.033168804
71	0xbd09b1f9	-0.033616994
72	0x3dd85787	0.105635695
73	0xba8a18d0	-0.0010535959
74	0xbd67e053	-0.056610417
75	0x3db76258	0.089543045
76	0x3f5fa186	0.8735584
77	0x3f003931	0.5008727
78	0xbcbde18b	-0.023178836
79	0x3c16e214	0.009209175
80	0x3d217c45	0.039425153
81	0x3dcf4667	0.1012085
82	0x3ce9962a	0.028513987
83	0x3e1a4f5c	0.15069336
84	0x3d6d2413	0.05789573
85	0xbcf37baf	-0.029722063
86	0x3e083288	0.13300526
87	0x3d51c66e	0.051214628
88	0x3d44c887	0.0480428
89	0xbbf71c66	-0.007541227
90	0xbd1e2584	-0.038609996
91	0x3c450168	0.012024261
92	0x3d4de363	0.05026568
93	0x3cd992bb	0.026559224
94	0x3c96569c	0.018351845
95	0x3d879521	0.06620241
96	0xbc7a5a8a	-0.015280375
97	0x3da7b7c0	0.081893444
98	0x3cc4bfda	0.024017263
99	0xbd6bede4	-0.057599917
100	0xbd9776fe	-0.07395743
101	0xbd4627c2	-0.04837776
102	0xbd6e657a	-0.058202244
103	0x3bd4610e	0.0064812964
104	0x3d5d07d3	0.05396254
105	0x3d353dbc	0.044248328
106	0xbdc31dd7	-0.09527176
107	0x3d493d10	0.0491305
108	0xbd40a26b	-0.047029894
109	0x3cfb859e	0.030703362
110	0xbb9f05ce	-0.004852987
111	0x3b84e24d	0.0040552975
112	0x3d676d69	0.056500826
113	0x3ecc24c6	0.39871806
114	0x3f829aab	1.0203451
115	0xbdc51331	-0.09622801
116	0xbdacef46	-0.08444075
117	0x3d85c2a0	0.065312624
118	0x3dd522cf	0.1040703
119	0x3c6ff7b0	0.014646456
120	0x3e623edd	0.22094293
121	0xbd1c016f	-0.038087305
122	0x3b9f03ec	0.0048527624
123	0x3e0458af	0.12924455
124	0xbd2478db	-0.04015432
125	0xbb8d4ce3	-0.004312144
126	0x3b13b7e2	0.0022540023
127	0x3cfda694	0.03096322
128	0x3cb0ac4a	0.021566529
129	0x3ca2fddf	0.019896446
130	0xbd6f321f	-0.05839741
131	0x3c444503	0.011979344
132	0x3d35bd60	0.044370055
133	0xbd0a4515	-0.033757288
134	0x3e130aca	0.14359584
135	0x3dd05482	0.101723686
136	0xbd6f71ca	-0.058458127
137	0xbe02f8f3	-0.12790279
138	0xbd60d5b4	-0.054891303
139	0xbdf58339	-0.11987919
140	0x3d92da59	0.07170553
141	0x3df24559	0.11829633
142	0x3d1f0cba	0.038830496
143	0x3d148c57	0.03626665
144	0xbd9ea6f3	-0.07746687
145	0xbaa2381e	-0.0012376343
146	0xbd23d1de	-0.039995067
147	0x3c879a5c	0.016553096
148	0x3eaa0802	0.33209234
149	0xbe9ad22a	-0.30238467
150	0x3edbd4b8	0.4293573
151	0x3e6b2343	0.2296267
152	0x3f8f1dbb	1.1180948
153	0xbea1f5c6	-0.31632823
154	0xbe8fa46b	-0.28055128
155	0x3ea4d34b	0.32192454
156	0x3d8a67fb	0.06758114
157	0x3cb4cec3	0.022071248
158	0xbdb8a8b9	-0.09016556
159	0x3eba26df	0.3635778
160	0xbe79580e	-0.24349996
161	0x3ed57357	0.4168956
162	0xbe0a2977	-0.1349238
163	0x3d47ce42	0.048780687
164	0xbd7b7c48	-0.06139782
165	0xbeb920ac	-0.3615774
166	0x3d118b2e	0.035533123
167	0xbefa3a7a	-0.4887274
168	0x3ca642f5	0.0202956
169	0x3d3777d5	0.044792015
170	0x3d808845	0.06275991
171	0x3e813e90	0.25243044
172	0xbd0c141d	-0.03419887
173	0x3ebf84dd	0.37406054
174	0x3c85bb3f	0.016324637
175	0x3e091006	0.13385019
176	0x3e21452e	0.15749046
177	0x3eb1ebc5	0.3475019
178	0x3eab13e2	0.33413607
179	0x3e23dd4d	0.16002388
180	0x3d91c164	0.071169645
181	0xbd84c785	-0.06483368
182	0x3eaec0bc	0.3413142
183	0xbe9f4208	-0.31105065
184	0xbeb9fe9f	-0.36327073
185	0xbe8d465e	-0.27592748
186	0x3e2e3757	0.17013298
187	0xbe64e6f8	-0.22353733
188	0x3cb2a8f0	0.021809071
189	0xbe276249	-0.16346087
190	0x3f86a212	1.051821
191	0x3e8658ba	0.26239568
192	0xbef97577	-0.4872243
193	0x3f2f1e70	0.6840582
194	0xbe565ddb	-0.2093424
195	0x3dfa378d	0.12217627
196	0xbe7c9d2c	-0.24669331
197	0x3d50a263	0.050936114
198	0xbefe18c2	-0.49628264
199	0x3dc0c100	0.09411812
200	0xbd437022	-0.04771436
201	0x3eabc21c	0.3354653
202	0x3e49b704	0.19698721
203	0xbc6cdc1e	-0.014456777
204	0x3e828c1c	0.2549752
205	0x3ea84466	0.32864684
206	0xbe06fed7	-0.13183151
207	0xbbf4f0a1	-0.0074749743
208	0xbda7a490	-0.08185685
209	0xbdc1554d	-0.09440098
210	0xbdbcb1fb	-0.092136346
211	0xbdfa153a	-0.1221108
212	0xbec35ed5	-0.3815829
213	0xbe059acf	-0.13047336
214	0xbe924398	-0.28567195
215	0xbdcdec51	-0.100548394
216	0xbecabe8e	-0.39598507
217	0xbdec61c1	-0.115420826
218	0x3db3d966	0.087817
219	0xbe0ded78	-0.13860118
220	0x3e53ad05	0.2067147
221	0x3df2f41f	0.11862969
222	0xbd409b39	-0.04702303
223	0x3e9c5158	0.3053081
224	0xbe460421	-0.19337513
225	0x3dc5f156	0.09665172
226	0xbdf1f12d	-0.11813579
227	0x3ea50c5f	0.32236
228	0x3f58a5e0	0.84628105
229	0xbdaa2d46	-0.083094165
230	0x3e01bb46	0.12669095
231	0xba8e86b7	-0.0010873888
232	0x3da69253	0.08133378
233	0xbe9747ba	-0.2954691
234	0x3c8aeadc	0.016957693
235	0xbebcad4a	-0.3685096
236	0x3e050798	0.12991178
237	0x3e1951d1	0.14972617
238	0xbda0f51e	-0.078592524
239	0x3e486988	0.19571507
240	0x3cd0b736	0.025477987
241	0x3e87f975	0.26557508
242	0x3e5b57d2	0.2142022
243	0xbdef086c	-0.11671528
244	0xbd6fc9a8	-0.058541924
245	0xbe2f7f98	-0.17138517
246	0x3c849610	0.016184837
247	0xbec7b92e	-0.39008468
248	0xbdfaec8f	-0.12252151
249	0xbea577a8	-0.32317853
250	0xbc18dcf6	-0.009330025
251	0xbdce95ec	-0.10087189
252	0xbd98fd9d	-0.07470248
253	0xbdb02252	-0.08600296
254	0xbc927fdd	-0.017883236
255	0x3d90059e	0.070323214

demo_encoder.0.weight f4 [32, 8]
0	0x3eee03fd	0.46487418
1	0x3e3e27bb	0.18569843
2	0x3b439c60	0.0029847845
3	0x3d21836d	0.039431978
4	0xbe2f9ec8	-0.17150414
5	0xbe9d567b	-0.30730042
6	0x3e367939	0.1781968
7	0x3e723e21	0.23656513
8	0xbeb599f1	-0.3546901
9	0xbe2f28d2	-0.17105415
10	0xbddf3983	-0.10899641
11	0x3d180e16	0.03712281
12	0xbe4dfa27	-0.20114957
13	0x3cb17d56	0.02166621
14	0xbe0d0e01	-0.13774873
15	0x3f19e180	0.6010971
16	0x3eea68d5	0.45783105
17	0xbe4e1fdf	-0.20129345
18	0x3e26c58e	0.16286299
19	0xbea14d8d	-0.3150448
20	0x3dfbe2ba	0.12299104
21	0x3e478c4e	0.19487116
22	0x3edc1e1e	0.42991728
23	0x3e58fee5	0.21190985
24	0xbe992011	-0.29907277
25	0x3d9a01a0	0.07519841
26	0xbe2adbae	-0.16685364
27	0x3e579c56	0.21055731
28	0xbe9bd7d3	-0.30438098
29	0x3e15ef5e	0.14642093
30	0xbe8db635	-0.27678075
31	0x3ea27bb4	0.31735003
32	0xbed4893b	-0.4151095
33	0x3e14df38	0.14538276
34	0xbe8e572d	-0.27800885
35	0x3e34af65	0.17645033
36	0x3e49f175	0.19721015
37	0x3d339d36	0.0438511
38	0xbf0654f4	-0.5247338
39	0xbe903862	-0.28168017
40	0x3eb9b257	0.36268875
41	0xbe87e591	-0.26542333
42	0x3ed79940	0.42109108
43	0xbe95f5a5	-0.29288974
44	0xbe96e202	-0.29469305
45	0xbf02d721	-0.5110951
46	0x3e671cfa	0.22569647
47	0x3e76875a	0.2407507
48	0xbf06796f	-0.5252904
49	0x3d6a9da0	0.05727923
50	0xbe962512	-0.29325157
51	0xba11cba1	-0.0005561654
52	0xbe9f88eb	-0.31159148
53	0xbe964aee	-0.29354042
54	0x3c48713a	0.012234027
55	0xbde67838	-0.11253399
56	0x3d82f8a7	0.06395083
57	0x3e26ab4d	0.16276284
58	0x3d79cc0a	0.060985602
59	0x3eeca826	0.46222037
60	0x3e49dc19	0.19712867
61	0xbd15c640	-0.03656602
62	0x3e23990b	0.1597635
63	0x3ed806ac	0.4219259
64	0xbed23381	-0.4105492
65	0xbdf5b366	-0.11997108
66	0xbd6e6f48	-0.058211595
67	0x3deac4a8	0.114632905
68	0x3ef5c657	0.48002884
69	0xbeb60cf2	-0.3555675
70	0xbed59f12	-0.41722924
71	0x3deae2ff	0.11469077
72	0x3e28d6cf	0.16488193
73	0xbc8ef844	-0.017452367
74	0xbc774eb2	-0.015094446
75	0x3d0fa92f	0.035073455
76	0xbeb39b7b	-0.3507956
77	0xbf000007	-0.5000004
78	0x3f08cf16	0.5344099
79	0xbea8d464	-0.3297454
80	0xbea9e9c3	-0.3318616
81	0x3ec2db52	0.38057953
82	0xbd54495a	-0.051827766
83	0xbe9bfb7e	-0.3046531
84	0xbe53cc96	-0.20683512
85	0x3c330b08	0.010927923
86	0x3e8ed39f	0.2789583
87	0xbddbc5b3	-0.107310675
88	0x3e9aa752	0.3020578
89	0x3df6fac4	0.120595485
90	0x3defebe1	0.11714912
91	0x3da60765	0.08106879
92	0xbc1ba2e9	-0.00949929
93	0x3f2d28ee	0.6764058
94	0xbeb8c69d	-0.3608903
95	0xbde6eeef	-0.11276042
96	0x3e1a49a8	0.1506716
97	0x3dc49405	0.09598545
98	0x3e4c19fa	0.19931784
99	0x3edae642	0.42753798
100	0x3e885246	0.2662527
101	0x3dd459e3	0.10368707
102	0x3e4959f5	0.19663222
103	0x3e212ef3	0.15740566
104	0x3eb1b45d	0.3470792
105	0x3e9d7bf4	0.3075863
106	0x3e36b281	0.17841531
107	0xbc5b9aec	-0.0134036355
108	0xbdb84387	-0.08997255
109	0xbe810140	-0.25196266
110	0xbe1f610b	-0.15564363
111	0x3eb304c1	0.34964564
112	0x3ec0409b	0.3754929
113	0x3eaef158	0.34168506
114	0xbec9383a	-0.3930071
115	0xbd6fee71	-0.058577005
116	0x3ef4ee42	0.47838026
117	0xbef4a17a	-0.47779447
118	0xbf00155e	-0.50032604
119	0x3ee15e0d	0.44017068
120	0x3e8e6f66	0.27819365
121	0x3dbbc38a	0.091681555
122	0x3eaa3f45	0.33251396
123	0xbea0f216	-0.31434697
124	0x3e26e9cd	0.16300125
125	0x3de0be77	0.10973828
126	0x3cc83329	0.024438458
127	0x3ea633c9	0.32461384
128	0x3d0ffe93	0.03515489
129	0xbd8f4f2d	-0.069975235
130	0x3d8fce16	0.0702173
131	0xbd877168	-0.066134274
132	0xbdf648d8	-0.120256126
133	0x3e39c370	0.1814096
134	0x3e436948	0.1908313
135	0x3e9d24d3	0.30692157
136	0xbe920655	-0.28520456
137	0xbe4d1031	-0.20025708
138	0x3e3dc5d5	0.18532498
139	0xbdbb35b2	-0.09141101
140	0xbd902449	-0.07038171
141	0x3c7ac5fd	0.015305993
142	0xbeac35f7	-0.33634922
143	0x3dbff480	0.093728065
144	0xbc4fc3e5	-0.012680982
145	0xbd33ae71	-0.043867532
146	0x3d8f443f	0.06995439
147	0xbd23aa8f	-0.03995758
148	0x3e1c5d6c	0.15270013
149	0xb953f48c	-0.00020213629
150	0xbd98b729	-0.0745681
151	0xbe8b35fc	-0.27189624
152	0xbda79eae	-0.081845626
153	0x3e92810f	0.2861409
154	0x3dd09031	0.10183752
155	0xbe252a01	-0.16129304
156	0xbe81a0a7	-0.2531788
157	0x3ed3154a	0.4122718
158	0x3e97ce4c	0.2964958
159	0x3db1c2b5	0.086797155
160	0xbd84fef3	-0.0649394
161	0x3d9dc23c	0.07703063
162	0xbd61aefd	-0.055098522
163	0xbf0057e1	-0.5013409
164	0xbd072def	-0.03300279
165	0x3f12f7ca	0.57409346
166	0x3ea3a505	0.31961837
167	0xbf34cd4d	-0.70625764
168	0x3e322168	0.17395556
169	0xbc343be7	-0.01100061
170	0xbe771e31	-0.24132611
171	0xbdc0bd5d	-0.09411118
172	0x3f01186a	0.5042788
173	0xbeafd322	-0.3434077
174	0xbceb4321	-0.028718533
175	0xbedf968e	-0.43669552
176	0xbeafb3a5	-0.34316745
177	0x3eae561c	0.3405007
178	0x3e960e93	0.29307994
179	0x3dbbf275	0.091771044
180	0x3eb8ce84	0.3609506
181	0x3eb3c023	0.35107526
182	0xbec43bcd	-0.38326874
183	0x3d370c60	0.044689536
184	0x3eca19d0	0.39472818
185	0x3e971e60	0.29515362
186	0x3e268c8b	0.1626455
187	0xbd5fc6c4	-0.054632917
188	0x3e7ea25d	0.24866624
189	0x3e282211	0.16419245
190	0x3ed2cafc	0.4117049
191	0x3e537d4a	0.20653263
192	0xbea1cff7	-0.31603977
193	0xbcfbced4	-0.030738272
194	0x3e6acb5c	0.22929138
195	0x3dcb86ef	0.09937846
196	0xbed22126	-0.41040915
197	0x3ec1a6ce	0.37822574
198	0xbe2e7ce0	-0.17039824
199	0x3eb15271	0.3463321
200	0xbde5bf67	-0.11218148
201	0xbdcc8316	-0.0998594
202	0x3e7d42ab	0.24732463
203	0x3e7c0cfe	0.24614331
204	0x3de3d3b2	0.11124362
205	0x3f22e809	0.6363531
206	0xbe9f4fd6	-0.31115597
207	0xbe7d0575	-0.24709113
208	0xbce8b314	-0.028405704
209	0x3935a758	0.00017323846
210	0xbe5164f3	-0.20448665
211	0x3e55e7ea	0.2088925
212	0xbd501335	-0.050799567
213	0xbbf53164	-0.0074826945
214	0xbe6a5ab6	-0.22886166
215	0x3d97ea94	0.07417789
216	0x3dddfac4	0.10838845
217	0xbe0b9a7e	-0.13633153
218	0xbef017f7	-0.46893284
219	0xbea2c6b2	-0.31792217
220	0x3e6b69b7	0.22989546
221	0x3da889cc	0.08229408
222	0xbd136160	-0.035981536
223	0x3e908fd2	0.28234726
224	0x3e3d7d2e	0.18504784
225	0x3e9d0541	0.3066807
226	0xbde4a1d3	-0.11163678
227	0x3f0170cf	0.5056276
228	0x3cfc5ea7	0.030806853
229	0x3edbab4a	0.4290412
230	0xbeabd36b	-0.33559737
231	0xbe1ecb4e	-0.15507242
232	0x3de2e5da	0.11078997
233	0x3e48726b	0.19574897
234	0x3e5baa16	0.21451601
235	0xbe5b0aa1	-0.21390773
236	0xbea3fc6c	-0.3202852
237	0xbe8c4d16	-0.27402562
238	0xbe908658	-0.28227496
239	0x3f0f0991	0.5587397
240	0x3ec004c8	0.37503648
241	0xbe177493	-0.14790563
242	0x3e9a45df	0.30131432
243	0xbe442fe6	-0.19158897
244	0x3a8dc562	0.0010816271
245	0x3e036072	0.1282976
246	0xbdaba721	-0.08381487
247	0xbe120069	-0.14257969
248	0x3e801060	0.25012493
249	0xbd9a4e69	-0.07534487
250	0x3e21e6e8	0.1581074
251	0xbdd04777	-0.10169881
252	0xbe7b6d31	-0.24553372
253	0xbc1899d7	-0.009314022
254	0xbec15535	-0.3776032
255	0x3ee08d0b	0.43857607

demo_encoder.0.bias f4 [32]
0	0xbeb0c815	-0.3452765
1	0x3e70fff2	0.23535135
2	0x3e94c2f7	0.29054996
3	0x3ea26d2f	0.31723925
4	0x3da3dabd	0.080007054
5	0xbb9fb5ef	-0.004873983
6	0xbd85b52e	-0.06528698
7	0x3da0f0c3	0.07858422
8	0xbdee262d	-0.11628375
9	0x3e78a056	0.24279913
10	0xbeb17414	-0.34658873
11	0x3e660c37	0.22465597
12	0xbe159634	-0.14608079
13	0x3eb4e65f	0.3533201
14	0xbe4cbb3d	-0.199933
15	0xbe83755c	-0.25675476
16	0x3ea16d59	0.31528738
17	0x3ea8fc2f	0.330049
18	0xbe9c463c	-0.30522335
19	0x3e0a637c	0.13514513
20	0x3d66578c	0.056235835
21	0x3e18a522	0.14906743
22	0x3d966ae9	0.0734461
23	0xbdafb193	-0.085787915
24	0x3d357287	0.044298675
25	0xbe2dd075	-0.16974051
26	0xbe05bb3d	-0.13059707
27	0xbe440ce6	-0.19145545
28	0x3e4608f2	0.1933935
29	0x3e7c76eb	0.24654739
30	0x3e8da160	0.27662182
31	0xbe903c60	-0.28171062

demo_encoder.2.weight f4 [32, 32]
0	0xbdfd8582	-0.1237898
1	0x3e7539ac	0.23947781
2	0xbe56ce71	-0.20977189
3	0x3eb08e37	0.344835
4	0x3e126ea5	0.1430002
5	0xbe2df251	-0.16986968
6	0x3deb9496	0.1150295
7	0x3bef700d	0.0073070587
8	0xbe181c2c	-0.14854497
9	0xbe956c2b	-0.29184088
10	0x3bf42338	0.0074504875
11	0x3db10961	0.08644367
12	0x3e024dc0	0.12724972
13	0x3ccadf2f	0.024764625
14	0x3e32e83a	0.174714
15	0xbe1a12f5	-0.15046294
16	0x3cb23604	0.021754272
17	0x3e859a58	0.26094317
18	0xbd050466	-0.032474898
19	0x3e524fe3	0.20538287
20	0xbe126203	-0.14295201
21	0xbdf9a07c	-0.12188813
22	0x3eb9849c	0.36233985
23	0xbea18585	-0.3154718
24	0x3e09b1be	0.1344671
25	0x3e31dcda	0.17369404
26	0x3db29009	0.08718879
27	0x3efe9fdc	0.49731338
28	0x3d076030	0.033050716
29	0xbd826058	-0.06366032
30	0xbeb019db	-0.34394726
31	0xbd32a3d1	-0.04361326
32	0xbe44d8bf	-0.19223307
33	0x3e9209e8	0.28523183
34	0x3ca9b184	0.020714529
35	0x3e0cedbf	0.13762568
36	0xbdb6508a	-0.0890208
37	0xbe815f6b	-0.2526811
38	0x3d3b998a	0.045800723
39	0xbe18b94c	-0.14914435
40	0xbed1690f	-0.40900466
41	0xbe7c4054	-0.24633914
42	0x3e75c7d4	0.2400201
43	0x3e5d8684	0.21633345
44	0xbce59aaa	-0.028027851
45	0x3d0b71fa	0.034044243
46	0x3eeb18a2	0.4591723
47	0x3e1a36e4	0.15060002
48	0x3dee10de	0.11624311
49	0x3dd139ca	0.102161005
50	0x3de9260c	0.1138421
51	0xbd77b7e5	-0.06047811
52	0xbd92e7b2	-0.071730986
53	0xbced0a8c	-0.028935693
54	0xbd04ea4f	-0.032450017
55	0xbdcc4824	-0.09974697
56	0x3e8c481b	0.27398762
57	0x3e32cbb0	0.17460513
58	0xbd96e7c3	-0.07368424
59	0x3e88b033	0.2669693
60	0x3e7b477d	0.2453899
61	0x3d4db345	0.050219793
62	0xbdb7db38	-0.089773595
63	0x3dabeee7	0.083951764
64	0x3e83935a	0.25698358
65	0x3eaf3edc	0.34227645
66	0xbda5827f	-0.08081531
67	0x3e019444	0.12654215
68	0x3ea457d8	0.3209827
69	0x3e90710d	0.2821125
70	0x3e591681	0.21199991
71	0x3e733df1	0.23754098
72	0x3ed70d91	0.42002538
73	0xbeaaa42f	-0.33328387
74	0xbe600cd4	-0.21879894
75	0xbd796a07	-0.06089213
76	0xbdeb001a	-0.11474629
77	0x3e89f38c	0.26943624
78	0x3ea8e450	0.3298669
79	0x3d219a7b	0.039453965
80	0x3d2f831c	0.042849645
81	0x3e245465	0.16047819
82	0xbcae6cba	-0.02129208
83	0xbe042410	-0.12904382
84	0xbe4b8cff	-0.19878004
85	0xbe0ee749	-0.13955416
86	0x3e1ee5ec	0.15517396
87	0x3df19fd4	0.11798063
88	0x3e967b4c	0.29390943
89	0x3e08be0f	0.13353752
90	0xbe3bd223	-0.1834188
91	0xbd00be2d	-0.031431366
92	0x3dbd192e	0.09233318
93	0x3e74e0e2	0.23913911
94	0xbd2e9281	-0.042620186
95	0x3e5ddca1	0.21666194
96	0x3dd9c6b7	0.10633605
97	0x3e9a81a4	0.30177033
98	0xbebc6a20	-0.36799717
99	0x3ddc4415	0.10755173
100	0xbe52d55e	-0.20589206
101	0xbe94f48e	-0.2909283
102	0x3c753c84	0.014968041
103	0xbdbe3797	-0.09287947
104	0xbe13025b	-0.14356367
105	0xbe8cdba7	-0.2751133
106	0xbc02cc36	-0.007983258
107	0x3d427433	0.047474097
108	0xbddb175e	-0.10697816
109	0x3decd9bd	0.11564968
110	0x3ef2a60a	0.47392303
111	0xbe9cee06	-0.30650347
112	0xbe1aaba9	-0.15104546
113	0x3d6f7713	0.058463167
114	0x3cd1ff37	0.025634391
115	0xbcd89035	-0.02643595
116	0xbe1812f0	-0.14850974
117	0xbe74a99b	-0.23892824
118	0xbcc1041c	-0.02356153
119	0xbdf3cd84	-0.11904433
120	0x3bc67104	0.006055953
121	0xbcf64cf2	-0.030065987
122	0xbc370c31	-0.01117234
123	0x3e838543	0.25687608
124	0xbd925bec	-0.07146439
125	0xbded2a0b	-0.11580285
126	0xbeafb998	-0.34321284
127	0x3df6f8a1	0.12059141
128	0xbe829b30	-0.25509024
129	0xbdd242f0	-0.102666736
130	0xbca3d43b	-0.01999866
131	0xbe3fe552	-0.18739823
132	0xbdb55444	-0.08853963
133	0xbe0e8006	-0.13916025
134	0xbd85f572	-0.065409556
135	0xbd28b5e9	-0.041189108
136	0x3e484c27	0.195603
137	0x3d0ff00e	0.035141043
138	0x3ced4298	0.028962418
139	0xbe59852b	-0.21242206
140	0xbe850997	-0.2598388
141	0xbe9b34d6	-0.30313748
142	0xbd3c44d8	-0.045964092
143	0xbdba622e	-0.091007575
144	0xbe8496ee	-0.258964
145	0xbdc8251f	-0.09772705
146	0xbe1ee3d7	-0.15516602
147	0xbe943263	-0.28944692
148	0xbe125a4f	-0.14292262
149	0x3dd0050f	0.10157215
150	0x3db1ec29	0.08687622
151	0xbeb90138	-0.36133742
152	0x3d7024a4	0.058628693
153	0xbe00fb21	-0.12595798
154	0xbdb9b3f0	-0.090675235
155	0xbdf9b440	-0.12192583
156	0xbe750849	-0.23928942
157	0xbe7df841	-0.24801733
158	0xbe8425bc	-0.2581004
159	0xbe81c9e9	-0.25349358
160	0x3d834cbf	0.064111225
161	0xbd08ad1e	-0.033368222
162	0xbce011ad	-0.027352178
163	0xbcfcd50c	-0.030863307
164	0xbe228929	-0.15872635
165	0x3dacf363	0.0844486
166	0x3e30eed3	0.17278604
167	0xbdab9817	-0.08378618
168	0x3e8611c4	0.2618543
169	0x3e22a7d2	0.15884331
170	0xbdbbd298	-0.09171027
171	0xbd2131fc	-0.03935431
172	0xbd8d552e	-0.06901012
173	0xbd595c25	-0.05306639
174	0x3e441185	0.19147308
175	0xbdd66772	-0.104689494
176	0x3d63f593	0.05565412
177	0xbdb0edf1	-0.08639134
178	0x3defa213	0.11700835
179	0x3dbc34a2	0.091897264
180	0x3e1cb56c	0.15303582
181	0xbd9970d6	-0.07492225
182	0xbe65f4f5	-0.22456725
183	0xbba80401	-0.0051274304
184	0xbea443ce	-0.3208298
185	0xbdff2287	-0.124577574
186	0x3d572564	0.052525893
187	0x3de59bc4	0.112113506
188	0xbe9e5f35	-0.30932012
189	0x3da2b1e9	0.0794409
190	0xbe029bbb	-0.12754719
191	0x3d35d8d0	0.04439622
192	0xbe1a6957	-0.15079246
193	0x3d1df881	0.03856707
194	0xbe20dd16	-0.15709338
195	0xba22d335	-0.0006211282
196	0x3db25033	0.08706703
197	0x3e10fd73	0.14159183
198	0xbe290704	-0.16506582
199	0xbe28bde1	-0.16478683
200	0xbc886484	-0.016649492
201	0x3d0f8454	0.035038307
202	0xbe5025e0	-0.20326948
203	0x3dd8bfb9	0.10583443
204	0xbc29b9ff	-0.010359286
205	0xbd40ea55	-0.047098476
206	0xbdd82bb5	-0.105552115
207	0xbd3e5709	-0.046469722
208	0xbcaf202a	-0.021377642
209	0xbd1c542a	-0.038166203
210	0xbc0ded5d	-0.008662549
211	0xbc989267	-0.018624498
212	0xbea02665	-0.31279293
213	0xbec54f27	-0.3853695
214	0x3dc6f517	0.09714716
215	0xbe7448f3	-0.23855953
216	0xbc8f26ba	-0.017474521
217	0x3e28e5ee	0.16493961
218	0xbd921832	-0.07133521
219	0xbd995a76	-0.07487957
220	0xbe1cc27f	-0.1530857
221	0x3d9da9fa	0.07698436
222	0xbe49548d	-0.1966116
223	0x3dd4b718	0.10386485
224	0x3d8d469b	0.068982325
225	0x3aa52448	0.0012599314
226	0xbc2d77f9	-0.010587686
227	0x3e425147	0.18976317
228	0x3e557a63	0.20847468
229	0x3e43bf3d	0.1911592
230	0x3e2cce16	0.1687549
231	0xbe07169a	-0.13192216
232	0x3eaadfbb	0.33373818
233	0xbe812d7d	-0.25230017
234	0xbe263333	-0.16230468
235	0xbb2f15a7	-0.0026715787
236	0xbd17f991	-0.03710324
237	0x3e12b486	0.14326677
238	0x3dcaf55d	0.099100806
239	0x3da882de	0.08228086
240	0x3d85e4fb	0.06537815
241	0xbe1b4c9c	-0.15165943
242	0x3de8bc68	0.11364061
243	0xbe1ce75c	-0.15322632
244	0xbd8e2c74	-0.069420725
245	0xbe4f72fb	-0.20258705
246	0xbe086269	-0.1331879
247	0x3bd7f66a	0.006590654
248	0x3dcff330	0.10153806
249	0xbdb411d4	-0.08792463
250	0xbdf49791	-0.119429715
251	0x3cf6d5ac	0.030131184
252	0xbe94ebc2	-0.2908612
253	0x3e22020f	0.15821098
254	0xbdba5f5c	-0.091002196
255	0x3d6d1ff3	0.057891797

demo_encoder.2.bias f4 [32]
0	0xbd17c715	-0.037055094
1	0x3e2fca38	0.17166984
2	0x3e24866b	0.16066901
3	0xbda68096	-0.081299946
4	0xbe2c3e0e	-0.16820547
5	0xbd67ee48	-0.056623727
6	0xbda1fa56	-0.07909076
7	0xbb61eb97	-0.0034472698
8	0xbe25c94f	-0.16190074
9	0x3d2e5a55	0.042566616
10	0xbe3c9187	-0.1841489
11	0x3e3dbdf5	0.18529494
12	0xbc8f0dd4	-0.017462648
13	0x3e79495b	0.24344389
14	0xbc99831b	-0.018739274
15	0xbdc33db1	-0.09533251
16	0x3e8697e8	0.2628777
17	0x3d8bd8ac	0.06828436
18	0x3daa979b	0.08329698
19	0x3df576cd	0.1198555
20	0xbea26967	-0.3172104
21	0x3dd5065b	0.10401603
22	0xbe0a88e8	-0.13528788
23	0xbdaca068	-0.084290326
24	0xbce8ddd2	-0.028426085
25	0x3c2461ca	0.01003308
26	0xbdb0c923	-0.08632114
27	0xbd48d1af	-0.049028095
28	0x3dea7b63	0.114493154
29	0x3dc743ae	0.09729706
30	0x3e47c4f0	0.1950872
31	0xbdabe63c	-0.08393523

gru.weight_ih_l0 f4 [96, 111]
0	0xbe94cfe8	-0.2906487
1	0x3e111eaf	0.14171861
2	0x3ce1abce	0.027547743
3	0x3db2292a	0.08699258
4	0x3d6550fb	0.055985432
5	0xbd038ab4	-0.0321147
6	0xbe041771	-0.12899567
7	0xbed529d8	-0.41633487
8	0x3de8f96d	0.11375699
9	0x3e212f03	0.1574059
10	0xbd42eeed	-0.04759114
11	0xbdc6adea	-0.0970114
12	0x3e2b1fb6	0.16711316
13	0xbe0b5cc5	-0.13609608
14	0x3dd4ea74	0.10396281
15	0xbe4bf981	-0.19919397
16	0xbdf644ff	-0.12024879
17	0xbd213c8a	-0.039364375
18	0x3e125e7c	0.14293855
19	0xbda9985c	-0.08281013
20	0x3e56ffce	0.20996019
21	0xbe8cde1e	-0.27513212
22	0x3acefff9	0.0015792839
23	0x3cc95299	0.024575518
24	0x3e16799a	0.14694825
25	0x3e22d124	0.15900093
26	0x3ea5f1ea	0.32411128
27	0x3dbcda41	0.09221316
28	0x3cb5260c	0.022112869
29	0xbd09fae3	-0.03368653
30	0xbd84f3d7	-0.06491821
31	0x3e215931	0.1575668
32	0xbe415219	-0.18878974
33	0x3e706d98	0.23479307
34	0x3d227d5b	0.03967033
35	0x3d133613	0.03594024
36	0x3d627fcd	0.05529766
37	0xbe03a76b	-0.12856834
38	0x3dc52e4f	0.09627973
39	0x3ddf73b8	0.109107435
40	0x3d5f4387	0.05450776
41	0xbde27637	-0.11057704
42	0x3e243f05	0.16039665
43	0x3e846f31	0.25866082
44	0xbd37c891	-0.04486901
45	0x3daa9371	0.083289035
46	0xbe1bdd47	-0.1522113
47	0xbe652366	-0.22376785
48	0x3ddd83e5	0.108161725
49	0x3e07d7c5	0.13265903
50	0xbda153c1	-0.07877303
51	0xbda6c02a	-0.08142121
52	0x3d38fc6d	0.045162607
53	0x3df1544b	0.11783656
54	0xbe5ab76b	-0.21359031
55	0xbe5ed05b	-0.21759169
56	0x3d1f0006	0.03881838
57	0x3b86b098	0.004110407
58	0xbd92c16d	-0.07165799
59	0xbd0530e0	-0.032517314
60	0x3d229167	0.039689448
61	0xbd4ebe86	-0.050474666
62	0xbe4d2d06	-0.20036706
63	0xbe2337fc	-0.15939325
64	0xbddb01f6	-0.106937334
65	0x390b9d4a	0.00013314668
66	0xbea3830b	-0.31935915
67	0xbe76ca56	-0.24100623
68	0x3bf145c4	0.007363053
69	0xbed1632f	-0.40895984
70	0xbda075f3	-0.07834997
71	0x3de21306	0.11038785
72	0x3d03496d	0.032052446
73	0x3df3266b	0.11872562
74	0xbe3d9e6c	-0.18517464
75	0xbe1aceaa	-0.15117899
76	0xbe19299b	-0.14957277
77	0x3c0727d0	0.008249238
78	0x3e213f4e	0.15746805
79	0x3d3bf08d	0.045883704
80	0x3dfbbf97	0.12292402
81	0x3e0060c2	0.1253691
82	0x3c742d7c	0.014903422
83	0x3d09ba6a	0.033625044
84	0x3e7233e9	0.23652615
85	0xbe4b00b8	-0.19824493
86	0x3d400e2c	0.046888515
87	0xbe209fdd	-0.15685983
88	0x3df3884c	0.11891231
89	0xbe62e18d	-0.22156353
90	0x3d632ce0	0.055462718
91	0xbe0f6be6	-0.14006004
92	0xbcd19e49	-0.025588172
93	0x3db17d0d	0.0866643
94	0x3d774ceb	0.06037609
95	0xbe5d1bb6	-0.21592602
96	0xbe25207f	-0.16125678
97	0x3e4cdf30	0.20007014
98	0xbe22e11e	-0.15906188
99	0x3d8366c6	0.06416087
100	0xbe2f40df	-0.1711459
101	0xbe17c939	-0.14822854
102	0xbe88f8c7	-0.26752302
103	0x3d64b809	0.055839572
104	0x3e5286b8	0.20559204
105	0xbe70b5ef	-0.23506902
106	0xbd5e8cac	-0.054333374
107	0xbe08fa28	-0.13376677
108	0xbe7558a4	-0.23959595
109	0xbe41baff	-0.1891899
110	0xbdcaa93b	-0.098955594
111	0x3d962ff4	0.07333365
112	0xbd7bf477	-0.061512437
113	0x3d63020e	0.05542188
114	0x3ad4d7d3	0.0016238637
115	0x3e31e675	0.17373069
116	0x3e021139	0.12701882
117	0x3c0550b4	0.008136917
118	0xbe35d7aa	-0.1775805
119	0x3d13be5e	0.03607022
120	0xbd43ea95	-0.047831137
121	0xbdd6a3cc	-0.104804605
122	0x3e3a92e6	0.182201
123	0xbde745d9	-0.11292619
124	0xbe114b74	-0.1418894
125	0xbe3f7d6c	-0.18700188
126	0x3d175c22	0.0369531
127	0x3eb16864	0.34649956
128	0x3e66b941	0.22531606
129	0xbe443ec1	-0.19164564
130	0xbed6a607	-0.41923544
131	0x3de5e96d	0.11226163
132	0x3c2d5d45	0.010581319
133	0x3dbbbff4	0.091674715
134	0xbda69598	-0.081340015
135	0xbdf69e0b	-0.12041863
136	0x3d395591	0.045247618
137	0xbda6c5d8	-0.081432045
138	0x3c8ce81d	0.017200524
139	0xbe3b9604	-0.18318945
140	0x3db76a69	0.08955843
141	0x3dab1bce	0.08354913
142	0xbb8387df	-0.004014
143	0xbe1665e3	-0.14687304
144	0xbd187ca1	-0.03722823
145	0x3e1e3cda	0.154529
146	0xbe3a7429	-0.18208374
147	0x3dc51489	0.096230574
148	0x3d0e13e5	0.03468694
149	0x3c37bced	0.011214477
150	0x3de99bff	0.11406707
151	0x3d96937b	0.073523484
152	0x3e225e3b	0.15856259
153	0x3d2cb17f	0.04216146
154	0x3d06e5b2	0.0329339
155	0xbe7ce040	-0.2469492
156	0x3e616566	0.22011337
157	0x3e384242	0.17994025
158	0xbddf598a	-0.1090575
159	0x3e03a4c6	0.12855825
160	0x3e956426	0.2917797
161	0x3e5bc42a	0.2146155
162	0x3dc0e427	0.094185166
163	0x3e216413	0.15760832
164	0x3d6a9ab6	0.05727645
165	0x3e9306d6	0.28716153
166	0x39f19cd9	0.00046083963
167	0x3dba26ea	0.090894535
168	0x3e49c75a	0.19704953
169	0xbe265d4b	-0.16246526
170	0x3da65b61	0.08122898
171	0x3e745582	0.23860744
172	0x3d60db48	0.054896623
173	0x3dc00b46	0.0937715
174	0x3e40a977	0.18814646
175	0x3d9badf5	0.07601539
176	0x3dfe527a	0.12418075
177	0xbc5b3c8f	-0.0133811375
178	0x3de17eff	0.11010551
179	0xbe217744	-0.15768152
180	0xbd7a8652	-0.061163254
181	0x3deac9ad	0.11464248
182	0x3e065e7e	0.13121983
183	0x3d3b8c2e	0.045787983
184	0x3dbc0b50	0.09181845
185	0xbe81eb55	-0.25374857
186	0xbde379a9	-0.11107189
187	0xbe8edee1	-0.27904418
188	0x3c078755	0.008272012
189	0xbdfe7f40	-0.12426615
190	0x3dd6ef83	0.10494902
191	0x3de9a918	0.11409205
192	0x3e12f23a	0.14350215
193	0xbe2c0018	-0.16796911
194	0x3cf824ac	0.030290924
195	0x3c561b91	0.013068096
196	0xbd36887b	-0.04456375
197	0xbd1a5cc5	-0.03768613
198	0x3dc255f7	0.09489053
199	0x3e11771e	0.14205596
200	0xbcb0cc87	-0.021581901
201	0xbd8dc859	-0.06922979
202	0xbd9a5153	-0.075350426
203	0xbe2d3c76	-0.16917595
204	0x3ed21251	0.410296
205	0xbd894d56	-0.06704204
206	0x3e6aff6a	0.22948995
207	0x3e37e742	0.17959312
208	0x3e104519	0.14088859
209	0x3e4c44f6	0.19948182
210	0x3d82d32f	0.06387936
211	0x3e47afb4	0.19500619
212	0xbe3fde32	-0.18737105
213	0xbe0a0924	-0.1348005
214	0xbceac876	-0.02866004
215	0xbd70625b	-0.05868755
216	0x3eb1c2ca	0.34718925
217	0xbc89a374	-0.016801573
218	0xbd308f07	-0.04310515
219	0xbd8e7e54	-0.06957689
220	0xbd8076ce	-0.0627266
221	0x3e252036	0.16125569
222	0x3d8afaf3	0.06786146
223	0xbcfac8df	-0.03061336
224	0x3e41747c	0.18892092
225	0xbcd0944d	-0.02546134
226	0xbd80d556	-0.062906906
227	0x3e0556d9	0.13021411
228	0x3cedf7eb	0.02904888
229	0xbda5b1a1	-0.08090521
230	0x3d45d4e9	0.04829875
231	0x3e01da93	0.12681036
232	0xbcb715b0	-0.022349209
233	0xbd22e5f4	-0.03977008
234	0xbe6ce10c	-0.23132724
235	0xbe58372d	-0.21114798
236	0x3d6f7455	0.058460552
237	0xbb872e99	-0.004125428
238	0x3e7009cc	0.23441237
239	0xbe402951	-0.18765761
240	0xbe38be4c	-0.18041342
241	0xbe8ee9b6	-0.27912682
242	0x3d14b117	0.0363017
243	0x3e64b4e4	0.2233463
244	0x3ddd6310	0.1080991
245	0xbcb2255c	-0.02174633
246	0xbde824f8	-0.11335176
247	0xbd7b2c5f	-0.061321612
248	0xbe0f4268	-0.13990176
249	0x3dac7a35	0.08421747
250	0xbd990652	-0.07471909
251	0xbd49fc10	-0.04931265
252	0xbe66b07b	-0.2252826
253	0xbe6d363f	-0.23165224
254	0x3eaf2b0d	0.34212533
255	0x3e38939e	0.18025061

gru.weight_hh_l0 f4 [96, 32]
0	0xbe029b75	-0.12754615
1	0x3e59b44b	0.21260183
2	0x3db1f297	0.086888485
3	0x3d265673	0.04060979
4	0xbe01c9da	-0.12674657
5	0xbc7b6593	-0.015344041
6	0xbdc22699	-0.09480018
7	0x3e715feb	0.23571746
8	0x3d6f85ac	0.05847709
9	0xbd7259b7	-0.05916759
10	0xbd079a06	-0.033105873
11	0x3daa7556	0.08323161
12	0x3da4aedf	0.080411665
13	0x3e5de2c1	0.21668531
14	0x3e44361c	0.19161266
15	0x3e32b378	0.17451274
16	0x3e8daef1	0.27672532
17	0xbb9fe391	-0.004879423
18	0x3cedf407	0.029047025
19	0x3e0c4e30	0.13701701
20	0x3db996f2	0.09061994
21	0x3e5b4160	0.21411657
22	0x3d73c0e7	0.059510138
23	0x3d813818	0.06309527
24	0x3d2f132d	0.042742897
25	0xbe085309	-0.13312925
26	0xbdecbda1	-0.11559606
27	0xbdccaf28	-0.09994346
28	0x3e8694e9	0.26285484
29	0xbe2b784a	-0.16745105
30	0x3d34160d	0.04396634
31	0x3db76497	0.08954733
32	0xbddcdc26	-0.107841775
33	0xbe3e19e1	-0.1856456
34	0xbe408bb2	-0.1880329
35	0xbe94bb83	-0.2904931
36	0xbe38bfee	-0.18041965
37	0xbda42399	-0.08014602
38	0x3dc49d97	0.096003704
39	0xbea1c855	-0.31598154
40	0x3d986267	0.07440644
41	0x3e0acaa0	0.13553858
42	0xbe83d697	-0.25749657
43	0x3d8df3e7	0.06931286
44	0xbe3272d0	-0.1742661
45	0x3dd6ba19	0.10484714
46	0x3dc328cf	0.09529268
47	0x3d247513	0.040150713
48	0xbe58a0c1	-0.21155073
49	0x3e459390	0.19294572
50	0xbe4b293c	-0.19839948
51	0xbd2cf1fe	-0.04222297
52	0xbe203d83	-0.15648465
53	0x3de3de1c	0.111263484
54	0x3e0ad815	0.13558991
55	0x3d88c015	0.06677262
56	0xbc49a0dd	-0.012306419
57	0x3e0ef00b	0.13958757
58	0xbd661faa	-0.05618254
59	0x3ce8829c	0.028382592
60	0x3e117ff9	0.14208974
61	0x3d8194e6	0.06327228
62	0x3de480f2	0.11157407
63	0xbca48306	-0.020082008
64	0x3da80026	0.08203153
65	0x3e0e244d	0.13881035
66	0x3df4a348	0.11945206
67	0xbdf66cf1	-0.12032498
68	0x3cd385d3	0.025820648
69	0x3d8f303d	0.069916226
70	0xbd367037	-0.04454061
71	0x3e52450a	0.20534149
72	0x3e3d2bbd	0.18473716
73	0xbe0b2794	-0.13589317
74	0xbda35319	-0.07974834
75	0xbd6d20f6	-0.057892762
76	0x3d5b3ea3	0.053526532
77	0x3dbe6e63	0.09298398
78	0x3dfe70c0	0.12423849
79	0x3e469075	0.19391043
80	0x3d489f5e	0.04898011
81	0x3c43a8bf	0.011942088
82	0x3e17a0c4	0.14807421
83	0x3b82d8a6	0.0039931117
84	0xbe1c2e2f	-0.15251993
85	0x3db20ff4	0.08694449
86	0xbdacecc6	-0.084435984
87	0xbbf07aa7	-0.00733884
88	0xbe0faf40	-0.14031696
89	0x3e0a0c8f	0.13481353
90	0xbe0bfb54	-0.13670093
91	0xbe604539	-0.21901406
92	0x3d1779f2	0.03698153
93	0x3ccf8830	0.025333494
94	0x3d676bdb	0.056499343
95	0x3df61bac	0.12016997
96	0xbdb7c3ca	-0.08972891
97	0x3d805bbf	0.06267499
98	0xbe1e9dfe	-0.15489957
99	0xbd033c9b	-0.03204022
100	0x3c9e2a66	0.019307327
101	0x3b50d52f	0.0031865349
102	0x3d9f5351	0.07779563
103	0xbcda5010	-0.026649505
104	0x3db418b6	0.08793776
105	0x3e685b79	0.22691144
106	0x3df96143	0.12176754
107	0x3de1e332	0.11029662
108	0xbd3d678b	-0.046241324
109	0x3e08343c	0.13301176
110	0x3ddfa39d	0.10919879
111	0xbdd8e0a8	-0.10589725
112	0xba0facef	-0.0005480786
113	0xbd9a3753	-0.075300835
114	0x3d22c903	0.03974248
115	0xbe985616	-0.29753178
116	0xbe346830	-0.1761787
117	0xbc062c78	-0.008189313
118	0xbda67bc2	-0.08129074
119	0x3dd85573	0.10563173
120	0x3c5e7da9	0.013579764
121	0xbe567521	-0.20943119
122	0xbd70f2e2	-0.05882538
123	0x3d7aa779	0.06119487
124	0xbdae9a64	-0.085255414
125	0xbdbe004b	-0.092774
126	0x3e0ff7d5	0.14059384
127	0x3dc85fff	0.09783935
128	0xbd0d7c8c	-0.034542605
129	0x3e85cc28	0.2613232
130	0xbdc60026	-0.09667997
131	0x3e0304b6	0.12794766
132	0xbc2040eb	-0.009781103
133	0x3d6ed509	0.058308635
134	0xbe10ae67	-0.14129029
135	0x3d0d2e23	0.034467828
136	0x3d3ca141	0.04605222
137	0x3e45f86a	0.19333044
138	0x3d3a06fd	0.04541682
139	0xbcf12e43	-0.029441005
140	0xbc93dc3b	-0.01804935
141	0xbeb34931	-0.35016778
142	0xbc141608	-0.009038456
143	0xbd1d0996	-0.03833922
144	0xbd992332	-0.07477416
145	0xbe2ad4ca	-0.16682735
146	0xbdd03007	-0.101654105
147	0x3d93affb	0.072113
148	0xbce6b4a6	-0.028162312
149	0xbe4a1a8a	-0.19736686
150	0x3de4ac98	0.11165732
151	0xbd55a387	-0.052157905
152	0xbe9aed51	-0.30259183
153	0xbde12a01	-0.1099434
154	0x3dc288a8	0.09498721
155	0xbe14c97e	-0.14529988
156	0xbdc8c011	-0.09802259
157	0xbd9cf591	-0.076640256
158	0x3caaa50f	0.02083066
159	0x3df2d9c8	0.11857945
160	0xbd302a4e	-0.043009095
161	0x3eab6d10	0.33481646
162	0x3d94c150	0.07263434
163	0xbd59aa65	-0.053141017
164	0x3da32b57	0.07967251
165	0xbe1dd0d0	-0.15411687
166	0x3e0bb810	0.13644433
167	0xbe0474d5	-0.12935193
168	0xbe184790	-0.14871049
169	0xbe50089e	-0.20315787
170	0xbe5c4815	-0.21511872
171	0x3d08cbd5	0.033397514
172	0xbe831cea	-0.25607997
173	0xbea515e0	-0.32243252
174	0xbc9bdee8	-0.019027188
175	0x3d53ca00	0.051706314
176	0xbda58e65	-0.080838
177	0x3e27fd11	0.16405131
178	0xbc7c88bc	-0.015413459
179	0xbddea268	-0.1087082
180	0x3e378fb4	0.17925912
181	0xbcb7afc5	-0.02242268
182	0xbe142de2	-0.14470628
183	0xbe550f41	-0.208066
184	0xbd0cd227	-0.034380104
185	0xbe412dae	-0.18865082
186	0xbe41a0d8	-0.18909013
187	0xbd2b2d7e	-0.04179143
188	0xbe024ed6	-0.12725386
189	0x3e3efd40	0.18651295
190	0xbde6f4dc	-0.11277172
191	0xbd8beba3	-0.068320535
192	0xbd85d89c	-0.065354556
193	0x3ddbf2fd	0.10739706
194	0xbdacae96	-0.08431737
195	0x3df1baf2	0.11803235
196	0x3dd992d7	0.106237106
197	0x3d6f4d2f	0.058423217
198	0x3e6c23f7	0.23060594
199	0x3dbc1cf2	0.091852084
200	0xbc9b4247	-0.018952502
201	0xbbf85405	-0.0075783753
202	0xbc1d2869	-0.009592154
203	0xbe3221ef	-0.17395757
204	0xbe1e1050	-0.1543591
205	0x3cf90675	0.030398587
206	0x3dc2af5e	0.09506105
207	0x3d806a49	0.06270272
208	0xbe21c181	-0.15796472
209	0xbe018fd7	-0.12652527
210	0x3e3d9bc8	0.18516457
211	0xbc648535	-0.013947775
212	0xbe02a614	-0.12758666
213	0x3dee1122	0.116243616
214	0x3d4f6af2	0.0506391
215	0x3e065cd0	0.13121343
216	0x3d661016	0.056167684
217	0xbd60fd4b	-0.05492906
218	0x3e10cffa	0.14141837
219	0xbd7ff477	-0.062489
220	0x3d8acec3	0.06777718
221	0xbd977395	-0.073950924
222	0xbc828884	-0.015934236
223	0x3e7cb414	0.2467807
224	0x3e9f6c3a	0.31137258
225	0x3e840341	0.25783733
226	0x3da90d4b	0.082544886
227	0x3e986dcc	0.29771268
228	0xbc43b8ad	-0.011945886
229	0x3d58c8e2	0.05292595
230	0x3e309ec0	0.17248058
231	0x3e55e396	0.20887598
232	0xbdf9c2a2	-0.121953264
233	0x3dc8ed0f	0.0981084
234	0x3e52dff8	0.2059325
235	0x3dce4528	0.10071784
236	0xbe00f18b	-0.12592141
237	0x3d1a1124	0.037614003
238	0xbe1110dd	-0.14166589
239	0xbe41b0ce	-0.18915102
240	0x3e3b6957	0.18301903
241	0xbe3dc6ba	-0.1853284
242	0x3e2c29a0	0.16812754
243	0xbdfbcc97	-0.12294882
244	0xbd8ba84d	-0.0681921
245	0xbe18fae1	-0.14939453
246	0xbca40cde	-0.020025667
247	0x3cda6357	0.026658697
248	0xbe83da70	-0.25752592
249	0x3e23f3f2	0.16011027
250	0x3e454716	0.19265398
251	0xbbbfc9bf	-0.0058529074
252	0xbdf5a5fa	-0.11994548
253	0xbd840233	-0.06445732
254	0xbd36b8ed	-0.044609953
255	0xbd46d36a	-0.048541464

gru.bias_ih_l0 f4 [96]
0	0x3dc01d3b	0.09380575
1	0x3e57c8d7	0.21072708
2	0xbd229b96	-0.03969916
3	0xbe0a9363	-0.13532786
4	0x3df1228f	0.1177417
5	0xbe097526	-0.13423595
6	0xbe298c0f	-0.16557334
7	0xbd9bc4d5	-0.07605902
8	0xbd01beb9	-0.031676028
9	0x3e815476	0.2525975
10	0xbdaaa7c6	-0.083327815
11	0x3e79d46d	0.2439744
12	0xbccac0bb	-0.024750104
13	0x3e4ed6af	0.20199083
14	0xbe26f3c2	-0.16303924
15	0xbc648084	-0.013946656
16	0xbdd80fd0	-0.10549891
17	0x3d97f1e7	0.07419186
18	0xbc05e62b	-0.008172552
19	0xbe5a1043	-0.21295266
20	0x3d7d7e2c	0.061887905
21	0x3dfde860	0.12397838
22	0xbdf75ad4	-0.12077871
23	0x3e3282d0	0.17432714
24	0xbd8494b5	-0.06473676
25	0x3d5835d8	0.052785724
26	0xbd56596a	-0.052331366
27	0xbe53c108	-0.20679104
28	0xbcf54173	-0.029938435
29	0xbd99a43a	-0.07502027
30	0x3e68ff93	0.22753744
31	0x3e4034fd	0.18770213
32	0x3d8ffa89	0.07030208
33	0xbdf33854	-0.11875978
34	0x3e2f36c5	0.17110737
35	0x3d41945a	0.04726062
36	0x3e0463e7	0.12928735
37	0x3d99ef5c	0.07516357
38	0x3e051b59	0.12998714
39	0x3e032011	0.12805201
40	0x3e219f9a	0.1578354
41	0x3bc8843c	0.006119279
42	0x3e11ce49	0.14238848
43	0xbe0df39b	-0.1386246
44	0x3d84bca1	0.064812906
45	0x3e02c2fd	0.12769695
46	0x3e2d7cf6	0.169422
47	0x3e33d21a	0.17560616
48	0x3e83ee38	0.25767684
49	0x3b0cf9a9	0.0021511114
50	0xbd9e05aa	-0.07715924
51	0x3d01c0fb	0.03167818
52	0x3b943d8a	0.0045239376
53	0x3e0ec464	0.13942105
54	0x3cad1630	0.021128744
55	0xbd89c7de	-0.06727575
56	0x3e3e66ba	0.18593875
57	0x3d399282	0.045305736
58	0xbd9787b5	-0.07398931
59	0xbd573e29	-0.052549515
60	0x3c1becf1	0.00951694
61	0xbc7b49a1	-0.015337379
62	0x3e4f4d7d	0.20244403
63	0xbd824e1c	-0.063625544
64	0x3e0a7d57	0.13524376
65	0xbd967c2c	-0.07347903
66	0xbd9f82a4	-0.077885896
67	0x3b434eb9	0.002980156
68	0x3e49ad0f	0.19694923
69	0xbdc5b94e	-0.09654485
70	0xbe7fbb59	-0.24973811
71	0xbe3a8e62	-0.18218377
72	0x3e1c64a5	0.15272768
73	0xbe04c21a	-0.12964669
74	0x3cc65a60	0.024213016
75	0x3de4c99c	0.111712664
76	0xbc60f7b3	-0.013730931
77	0x3dcbe2d6	0.09955375
78	0x3d770978	0.060311764
79	0xbe37be3a	-0.1794366
80	0xbe1eee55	-0.15520604
81	0xbe0e8cc3	-0.13920884
82	0xbcf4015f	-0.02978581
83	0xbe1da171	-0.15393616
84	0xbe1abf45	-0.15112026
85	0xbe5a7097	-0.21332012
86	0x3e040a91	0.12894656
87	0xbd848dd0	-0.06472361
88	0xbdb48ee6	-0.08816318
89	0xbd7070f1	-0.05870146
90	0x3cc37e18	0.023863837
91	0xbd3b551b	-0.04573546
92	0xbe3fbc49	-0.18724169
93	0xbceae690	-0.028674394
94	0x3d8baa12	0.06819548
95	0x3d85f02d	0.065399505

gru.bias_hh_l0 f4 [96]
0	0x3e443519	0.1916088
1	0x3e1b7381	0.1518078
2	0xbd16ad64	-0.036786452
3	0x3e26853b	0.16261761
4	0x3db0dab9	0.08635468
5	0x3d69c77d	0.057075012
6	0xbd5bf4cd	-0.053700257
7	0x3e16c864	0.1472488
8	0xbd51adbc	-0.051191077
9	0x3ccb2a8b	0.02480056
10	0xbd73c9d8	-0.059518665
11	0xbbf3b090	-0.0074368194
12	0x3e39bf22	0.18139318
13	0xbc98d53e	-0.01865637
14	0xbd9effc9	-0.07763631
15	0x3e2787cd	0.16360398
16	0x3de34160	0.11096454
17	0x3d8d31e8	0.068942845
18	0x3e52f3d5	0.20600827
19	0xbde1ec91	-0.110314496
20	0x3df2170d	0.11820803
21	0x3e694a7e	0.22782323
22	0xbe341135	-0.17584689
23	0x3d9c3d57	0.07628887
24	0x3cdb4377	0.026765568
25	0xbbf89e82	-0.007587255
26	0x3e25bd04	0.16185385
27	0x3e066caa	0.1312739
28	0x3c1e7221	0.009670765
29	0x3dbaa1d5	0.09112898
30	0x3c2a7f73	0.010406363
31	0xbdd5bb95	-0.10436169
32	0x3dc18e02	0.09450914
33	0x3ddcf07a	0.10788055
34	0xba2b4475	-0.0006533333
35	0x3d8e0890	0.06935227
36	0xbe0f1254	-0.13971835
37	0xbd9afbff	-0.07567596
38	0xbd804a62	-0.062641874
39	0x3e0cba66	0.1374298
40	0x3dc65723	0.09684589
41	0x3e09bce6	0.13450965
42	0x3e4d45ff	0.20046233
43	0x3e47da26	0.19516811
44	0xbd560175	-0.052247483
45	0x3e27babc	0.16379827
46	0xbd99a28e	-0.07501708
47	0xbd519a9c	-0.051172838
48	0x3e804ed1	0.25060132
49	0xbe2b1ba3	-0.16709761
50	0xbe32a4f4	-0.17445737
51	0xbdefe801	-0.11714173
52	0x3df583b4	0.11988011
53	0xbd40521d	-0.04695331
54	0x3d714715	0.05890568
55	0xbdfe74bf	-0.12424611
56	0x3e1ee1eb	0.15515868
57	0x3dcfd715	0.101484455
58	0xbda288cd	-0.07936249
59	0xbda02775	-0.07820026
60	0x3c58eadf	0.013239591
61	0x3e14a08e	0.14514372
62	0x3dea0098	0.114258945
63	0xbc89302f	-0.016746609
64	0x3d75da7d	0.06002282
65	0x3dbd997e	0.09257792
66	0xbe4791b1	-0.1948917
67	0x3e2855af	0.16438936
68	0x3e2bf706	0.1679345
69	0xbe2503bd	-0.16114707
70	0x3d6411d5	0.05568107
71	0x3d5a8631	0.05335063
72	0x3e3b01c8	0.18262398
73	0xbd5c5766	-0.053794287
74	0xbe215d8a	-0.15758339
75	0xbdee18e4	-0.11625841
76	0x3d9f17d0	0.07768214
77	0x3d2cafab	0.042159718
78	0x3d6bc610	0.057561934
79	0xbdfddc7b	-0.12395569
80	0x3e33b4d1	0.17549445
81	0x3e14ef00	0.14544296
82	0x3c859e37	0.016310794
83	0x3d35d365	0.044391055
84	0x3c5a2dc2	0.013316574
85	0xbda8b880	-0.082383156
86	0x397c205a	0.00024044645
87	0xbe735578	-0.23763072
88	0x3d74d6be	0.059775107
89	0x3dbc85ce	0.09205209
90	0xbbe24ced	-0.006906143
91	0x3c5fa2c4	0.013649646
92	0x3c43f612	0.011960523
93	0xb989f036	-0.00026309647
94	0xbe80f7de	-0.25189108
95	0x3e340357	0.17579399

output_layer.weight f4 [2, 32]
0	0x3de4ed17	0.11178034
1	0x3c1553e3	0.009114238
2	0xbe3a1557	-0.18172203
3	0xbd82eccd	-0.063928224
4	0x3e693ab3	0.22776298
5	0xbe2a6cfb	-0.16643135
6	0xbd191dce	-0.03738194
7	0xbe554b12	-0.20829418
8	0x3e3dac1d	0.18522687
9	0xbe229880	-0.15878487
10	0xbe3d0840	-0.18460178
11	0xbe208496	-0.15675578
12	0xbe033c04	-0.12815863
13	0xbe1ad00f	-0.1511843
14	0xbe89bc07	-0.26901266
15	0xbdbe77d0	-0.09300196
16	0x3d80fb1a	0.06297894
17	0x3e927ae4	0.28609383
18	0x3e55df5b	0.20885985
19	0x3e8d45c3	0.27592286
20	0xbdc40229	-0.095707245
21	0xbd6f1485	-0.05836918
22	0x3e3c7bcc	0.184066
23	0xbdce0b7b	-0.100607835
24	0xbe72f7ac	-0.23727292
25	0xbe594c5d	-0.21220537
26	0x3db6a12f	0.08917462
27	0xbd01f824	-0.031730786
28	0xbe6b50f3	-0.22980098
29	0x3e2c7327	0.16840802
30	0xbe3f9a30	-0.18711162
31	0xbda22514	-0.07917228
32	0xbe57cb46	-0.21073636
33	0xbeadd0a0	-0.3394823
34	0x3e85126d	0.2599062
35	0x3d9b2e1a	0.075771526
36	0xbe470db1	-0.19438817
37	0x3e287b89	0.16453375
38	0x3e6c2ee1	0.23064758
39	0x3da97f37	0.082762174
40	0xbda51a86	-0.080616996
41	0x3e30f05c	0.1727919
42	0x3d916fb6	0.07101385
43	0x3deb39c3	0.114856265
44	0x3d46aaaa	0.0485026
45	0x3e2372fa	0.15961829
46	0x3e5e5a7f	0.21714209
47	0x3e1d14c0	0.15339947
48	0xbe5da0b4	-0.21643335
49	0xbe4567fc	-0.19277948
50	0xbe053dd0	-0.13011861
51	0xbd9bd16f	-0.07608306
52	0x3e021e51	0.12706877
53	0x3e05d6a5	0.13070162
54	0xbe841448	-0.25796723
55	0x3dcc7b3a	0.09984441
56	0x3d95d87b	0.07316681
57	0x3d5ea9f0	0.054361284
58	0xbeb74d46	-0.35801142
59	0x3e4b1ffb	0.19836418
60	0x3e06d01c	0.13165325
61	0xbeb670da	-0.35632974
62	0x3e2245a2	0.15846875
63	0x3e251d0e	0.16124365

output_layer.bias f4 [2]
0	0xbdac6a8e	-0.08418761
1	0xbe0235e4	-0.1271587
