ehr_ipnets/split_5/checkpoint.pt (torch, 70947 bytes, 12 tensors)

single_channel_interp.kernel f4 [37]
0	0xbeb97b92	-0.3622709
1	0xbd8219ad	-0.063525535
2	0x3e682dea	0.22673765
3	0x3e1a87a9	0.15090813
4	0x3c826449	0.01591696
5	0xbeef5c6d	-0.46750203
6	0xbe50ed7f	-0.20403098
7	0x3f53714a	0.8259474
8	0xbea325cc	-0.31864774
9	0x3e5e987c	0.21737856
10	0x3b217a2a	0.0024639466
11	0xbda3042f	-0.07959782
12	0xbcdeb1b0	-0.027184337
13	0xbe80cf9e	-0.251584
14	0xbd9af8f9	-0.07567019
15	0xbe814bd6	-0.2525317
16	0xbb2f31a9	-0.002673248
17	0xbe95f562	-0.29288775
18	0x3e48120f	0.19538139
19	0xbcfd81ca	-0.030945677
20	0x3e0ec931	0.13943936
21	0xbe02496c	-0.1272332
22	0xbe467885	-0.19381912
23	0xbe27ff0e	-0.1640589
24	0xbe8c3b17	-0.27388832
25	0xbe673704	-0.2257958
26	0x3dcf5cc3	0.10125115
27	0xbe2c699f	-0.16837166
28	0xbd4cfe82	-0.050047405
29	0x3e331cec	0.17491502
30	0x3e2aca35	0.16678698
31	0x3ddd7211	0.10812772
32	0x3f4617c0	0.7737999
33	0x3eb26172	0.3483997
34	0x3e637e84	0.2221623
35	0xbdecf73f	-0.11570596
36	0x3d772946	0.060342096

cross_channel_interp.cross_channel_interp f4 [37, 37]
0	0x3f8a4b12	1.080416
1	0x3bf334b5	0.0074220547
2	0xbd93d4e2	-0.072183385
3	0xbcad1fca	-0.021133322
4	0x3c8e3e95	0.017363826
5	0xbd64c726	-0.055853985
6	0xbc50b088	-0.012737401
7	0xbc454599	-0.012040519
8	0xbc7a1b64	-0.0152653195
9	0x3d1c069b	0.038092237
10	0x3d09e5ed	0.03366654
11	0x3cc8a419	0.02449231
12	0x3cb695b9	0.02228819
13	0x3d97e735	0.07417146
14	0x3d9bffda	0.07617159
15	0x3c6e809a	0.014557028
16	0xbcdc1e20	-0.026869833
17	0xbd4f5c2d	-0.050625015
18	0xbd0a7d71	-0.033811036
19	0xbb78fd36	-0.0037992722
20	0x3cea484b	0.028598925
21	0xbd54023a	-0.051759936
22	0xbd262261	-0.04056013
23	0xbd6a0a84	-0.057138935
24	0x3d93bbd1	0.072135575
25	0x3c481846	0.0122128185
26	0x3d1769cf	0.03696614
27	0xbcc76d92	-0.02434424
28	0xbd209c78	-0.03921172
29	0x3db01139	0.08597035
30	0xbd018a49	-0.03162602
31	0x3d83bf84	0.06433013
32	0xbd3f1310	-0.04664904
33	0xbd29be2d	-0.04144113
34	0x3cb473ca	0.022027869
35	0xbd010d5b	-0.031506877
36	0xbd909bbb	-0.07060953
37	0xbd00bac1	-0.031428102
38	0x3f7e7dc5	0.9941066
39	0xbe21cca3	-0.15800719
40	0x3d65ca2b	0.056101006
41	0xbddef467	-0.1088646
42	0x3dcd759e	0.10032199
43	0x3e6bd247	0.23029433
44	0xbb2e6dd2	-0.002661575
45	0x3e3ed894	0.18637305
46	0x3c9597a1	0.018260779
47	0x3d6753d8	0.056476444
48	0xbe1db91c	-0.15402645
49	0x3dcb10b9	0.09915299
50	0xbe0afd2b	-0.13573138
51	0xbe10534e	-0.14094278
52	0x3dfd0541	0.12354518
53	0x3daf998e	0.0857421
54	0x3de12fa6	0.10995416
55	0x3d2fb347	0.04289558
56	0xbdaa5eb7	-0.08318847
57	0x3e117db2	0.14208105
58	0xbd0dddeb	-0.034635466
59	0xbd954d4a	-0.07290132
60	0xbd04d1be	-0.03242659
61	0xbda97895	-0.08274952
62	0xbd91d7c1	-0.0712123
63	0xbd355bd8	-0.044277042
64	0x3dd074ba	0.10178514
65	0x3e36a6cf	0.1783707
66	0xbe23df01	-0.16003038
67	0x3a230456	0.00062186026
68	0xbd90d463	-0.070717596
69	0x3bf2e3d9	0.0074124155
70	0xbda9f6a7	-0.08298998
71	0xbdb714fb	-0.089395486
72	0x3e01ee8e	0.12688658
73	0xbd1f6b8b	-0.03892092
74	0xbdedbe1d	-0.11608527
75	0x3df8ce1e	0.12148689
76	0x3f895edb	1.0732073
77	0x3eaa7546	0.33292598
78	0x3dd78888	0.10524088
79	0x3d9c2a66	0.07625274
80	0x3df12fee	0.1177672
81	0x3cb2d57d	0.021830315
82	0x3d3b1a1c	0.045679197
83	0x3ceb2609	0.02870466
84	0x3de172a3	0.11008193
85	0xbdd61311	-0.104528554
86	0x3e05b514	0.13057357
87	0xbc8a3ce6	-0.016874742
88	0xbd79a4a0	-0.060948014
89	0x3dde2d1a	0.10848446
90	0xbad07066	-0.0015902638
91	0x3e098ef9	0.13433446
92	0x3de0fef8	0.109861314
93	0xbe21cd86	-0.15801057
94	0x3d0642a8	0.032778412
95	0x3d15e3c6	0.036594175
96	0x3d3b3c9a	0.04571209
97	0x3d3e2708	0.04642394
98	0x3d9d967a	0.07694717
99	0xbd704a66	-0.058664702
100	0x3d46efb0	0.048568428
101	0xbcd36006	-0.025802623
102	0x3e28a52a	0.16469255
103	0xbd8fd135	-0.07022325
104	0xbdb8b976	-0.09019749
105	0x3d847e2d	0.064693786
106	0xbd435fb1	-0.04769868
107	0x3de441a8	0.111453354
108	0xbcbfb2f6	-0.023400765
109	0x3d6257ef	0.05525964
110	0xbdc84909	-0.09779555
111	0xbd057386	-0.032580875
112	0x3d2cefb2	0.04222078
113	0x3eb0dc4f	0.34543082
114	0x3f79e091	0.97608286
115	0x3e17702c	0.14788884
116	0xbc2af533	-0.010434437
117	0xbbfa75bc	-0.0076434296
118	0x3a9aa354	0.0011797943
119	0x3de7718a	0.11300953
120	0x3dfdfdc7	0.1240192
121	0x3c900073	0.01757834
122	0xbca1ed03	-0.019766336
123	0x3dbedacd	0.09319077
124	0x3c6960f9	0.0142443115
125	0xbd30aa97	-0.043131437
126	0x3d983429	0.07431824
127	0xbc58030f	-0.013184323
128	0x3d961762	0.07328679
129	0x3dcd4109	0.1002217
130	0xbd54d4cb	-0.051960748
131	0xbd1d7a03	-0.038446438
132	0x3d191ca1	0.03738082
133	0x3e0e48a3	0.13894896
134	0x3d5da782	0.054114826
135	0x3cc52706	0.02406646
136	0xbd009e64	-0.031401053
137	0x3c8308f1	0.015995475
138	0x3cfd170d	0.03089478
139	0x3db13dd8	0.08654374
140	0x3bdb2f18	0.0066889636
141	0x3c157810	0.009122863
142	0x3daa2ad2	0.083089486
143	0xbdb70b41	-0.089376934
144	0xbc8d0827	-0.017215801
145	0x3da83e42	0.08215
146	0xbd30e65d	-0.04318844
147	0x3d0efefb	0.034911137
148	0x3e53ad99	0.20671691
149	0xbe51e0f6	-0.20495972
150	0x3e9bc933	0.3042694
151	0xbe1daf8c	-0.15398997
152	0x3f81e39f	1.014759
153	0xbde528b5	-0.11189405
154	0xbdc62843	-0.09675648
155	0xbbd3970f	-0.0064572166
156	0xbdc0dd5c	-0.09417221
157	0x3cf54d13	0.029943978
158	0xbdbd8a4c	-0.09254894
159	0x3e3fbe44	0.18724924
160	0xbe117cab	-0.14207713
161	0x3dedff18	0.11620921
162	0x3d9d0c60	0.07668376
163	0xbe7fa631	-0.2496574
164	0x3e3e94be	0.18611428
165	0xbe228c17	-0.15873753
166	0x3df85321	0.121252306
167	0x3e6f9021	0.23394825
168	0xbe07ac00	-0.13249207
169	0x3e11255e	0.1417441
170	0x3e40c73b	0.18826
171	0x3bbb5369	0.0057167304
172	0xbe721ad0	-0.2364304
173	0x3e12e91c	0.14346737
174	0x3dd79cfd	0.1052799
175	0x3c9934db	0.018701961
176	0xbe189d79	-0.14903821
177	0x3e386cac	0.18010205
178	0x3dd59d58	0.104304016
179	0x3e2fae6c	0.1715638
180	0x3dc224bc	0.09479663
181	0xbdacb301	-0.0843258
182	0x3e16c030	0.14721751
183	0xbe147a4c	-0.14499778
184	0x3d28d8a4	0.04122223
185	0xbe760fca	-0.2402946
186	0x3dc474fa	0.09592624
187	0xbe570499	-0.20997848
188	0x3e44bff3	0.19213848
189	0xbe564605	-0.20925148
190	0x3f6f121d	0.93387014
191	0x3e6c933a	0.23103037
192	0xbae61bd3	-0.00175559
193	0x3f0fb217	0.5613112
194	0xbe089e90	-0.13341737
195	0x3d217728	0.039420277
196	0xbe247323	-0.16059546
197	0x3dfef23f	0.124485485
198	0xbe87818c	-0.26466024
199	0xbd8d0215	-0.06885163
200	0x3d95f8cd	0.073228456
201	0x3de4748d	0.11155043
202	0x3de07782	0.10960294
203	0xbbdc3458	-0.006720107
204	0xbdf4b3b4	-0.11948338
205	0x3e8c9bcd	0.27462617
206	0xbe867596	-0.26261586
207	0xbdd120fc	-0.102113694
208	0xbd34afe4	-0.044113055
209	0x3e131268	0.1436249
210	0xbdff5f69	-0.1246937
211	0x3daf67cb	0.08564719
212	0xbdfceb55	-0.123495735
213	0xbc8b5496	-0.017008107
214	0xbe001f44	-0.12511927
215	0xbd5e3285	-0.054247398
216	0xbe13a2db	-0.14417593
217	0x3dc3de36	0.09563868
218	0x3d0a2638	0.033727854
219	0xbe1e4b3b	-0.15458386
220	0x3e08d34a	0.1336185
221	0x3e107dc4	0.14110476
222	0xbd06264d	-0.03275137
223	0x3e50aa93	0.20377569
224	0xbe68cfa4	-0.22735459
225	0x3dfe25eb	0.12409576
226	0xbdac87b3	-0.0842432
227	0x3e270cb4	0.1631344
228	0x3f6b1ff9	0.9184566
229	0x3e15e323	0.14637427
230	0x3e0bce37	0.13652883
231	0x3d6d7e54	0.057981804
232	0x3ce0b353	0.027429258
233	0xbe46aa6e	-0.19400951
234	0xbdb126f2	-0.08650006
235	0xbdf0a985	-0.11751083
236	0x3c6e2db2	0.014537262
237	0x3ded6436	0.11591379
238	0xbdacf677	-0.08445447
239	0xbba4698c	-0.005017465
240	0xbd02bf7a	-0.031920888
241	0xbe1cbffc	-0.15307611
242	0x3e0d543c	0.13801664
243	0xbdaf1f8a	-0.085509375
244	0xbdbcf8e2	-0.09227158
245	0xbd88a8d1	-0.06672824
246	0x3e474307	0.19459163
247	0xbe945bd6	-0.28976315
248	0x3d5cf7f1	0.053947393
249	0xbe21da5a	-0.15805951
250	0x3daf028a	0.08545406
251	0xbdf88b7c	-0.121359795
252	0x3e0a8b1f	0.13529633
253	0xbc7eed2f	-0.015559479
254	0xbd77d14b	-0.06050233
255	0x3d743f2b	0.059630554

demo_encoder.0.weight f4 [32, 8]
0	0x3ea34b56	0.31893414
1	0xbe7fc4b6	-0.24977383
2	0x3e390991	0.18070056
3	0xbe294e9c	-0.16533893
4	0xbdf90208	-0.121585906
5	0xbe849ea9	-0.25902298
6	0xbe73ef19	-0.23821677
7	0x3ec0c70f	0.3765187
8	0xbee6cc61	-0.45077804
9	0x3e9d1421	0.3067942
10	0x3e893476	0.26797837
11	0x3c9cc8f6	0.019138794
12	0x3ea0a725	0.3137752
13	0xbe9629dd	-0.29328814
14	0xbef59c22	-0.47970682
15	0x3eacd5d3	0.33756885
16	0x3dfeec92	0.12447466
17	0xbe3a71fa	-0.18207541
18	0x3e74d189	0.23908056
19	0x3d41990a	0.04726509
20	0xbe898349	-0.26857975
21	0xbeabfddc	-0.33592117
22	0xbe555f2f	-0.20837091
23	0x3e80a534	0.2512604
24	0x3c7496ce	0.014928533
25	0x3e2dbdd9	0.16966952
26	0x3d1ebfba	0.038757063
27	0xbe9ad8fb	-0.30243668
28	0xbdd45bce	-0.10369073
29	0x3ed5c9ab	0.41755423
30	0xbe94a91b	-0.29035267
31	0x3eb35dad	0.35032406
32	0xbafb87c8	-0.0019190246
33	0xbded827c	-0.115971535
34	0x3dcc735d	0.09982941
35	0x3e084ab6	0.1330975
36	0xbceb4b60	-0.028722465
37	0x3f0a71ac	0.540797
38	0x3e8388a2	0.2569018
39	0x3e2a46d1	0.16628577
40	0xbe3b8bea	-0.18315092
41	0xbe8f1ebe	-0.27953142
42	0xbc694cc9	-0.014239498
43	0x3eb0697d	0.3445548
44	0x3dcb87cc	0.099380106
45	0x3ee65538	0.44986892
46	0x3b9e590c	0.0048323926
47	0x3de2ee21	0.11080576
48	0x3d995b96	0.07488172
49	0x3eb458d9	0.35224035
50	0x3ea45f9f	0.32104203
51	0xbe5a5e57	-0.2132505
52	0x3dc30dae	0.095240936
53	0xbeb8f995	-0.36127916
54	0x3dd5433e	0.10413216
55	0x3e8fa3a9	0.2805455
56	0x3e648f80	0.22320366
57	0xbeb70a12	-0.3574987
58	0x3de78a00	0.11305618
59	0x3e37695f	0.1791129
60	0x3ccf6bd4	0.025319971
61	0x3b01c79a	0.001980281
62	0x3e8fa002	0.28051764
63	0x3d3a88fd	0.0455408
64	0x3ea47f8b	0.32128558
65	0xbc46e48c	-0.012139451
66	0xbdd62749	-0.10456712
67	0xbe3221b2	-0.17395666
68	0xbe72c069	-0.23706211
69	0xbd956e10	-0.072963834
70	0x3ea4a45c	0.32156646
71	0xbe419ae0	-0.18906736
72	0x3e00b689	0.12569632
73	0xbeadb205	-0.3392488
74	0x3ccc5247	0.024941577
75	0x3bd9eeb9	0.0066507724
76	0x3daf87c0	0.08570814
77	0xba16c621	-0.00057515694
78	0xbd9c3dba	-0.07628961
79	0xbe0b533a	-0.13605967
80	0x3ea4497c	0.32087314
81	0x3db54c5a	0.088524535
82	0x3ddcfada	0.10790034
83	0xbda39816	-0.079879925
84	0xbe27dbaf	-0.16392396
85	0x3e376ca4	0.17912537
86	0x3e968e13	0.2940527
87	0xbeb00517	-0.34378883
88	0xbe79d760	-0.24398565
89	0x3e42ae16	0.19011721
90	0x3d1d5b12	0.03841693
91	0xbe2cdde7	-0.16881524
92	0x3e87c934	0.26520693
93	0x3ed9c578	0.4253347
94	0xbeaba228	-0.33522153
95	0x3da4f9f1	0.08055485
96	0x3e99949c	0.29996192
97	0x3e58cdc9	0.21172251
98	0x3dacd51b	0.08439084
99	0xbd5a0f16	-0.053237043
100	0xbc96c45c	-0.018404178
101	0x3ece9e3d	0.403551
102	0xbeef60f2	-0.4675365
103	0xbe76dca8	-0.24107611
104	0xbe81f0fc	-0.2537917
105	0x3e9ac61b	0.30229267
106	0x3d23245f	0.039829608
107	0xbcf82fff	-0.030296324
108	0x3e5c6322	0.21522191
109	0xbe968495	-0.29398027
110	0x3c43eee6	0.011958813
111	0x3f07dbf6	0.5307001
112	0x3ee8556c	0.45377672
113	0xbc0910aa	-0.008365789
114	0x3c4fb3eb	0.012677173
115	0x3e2116fb	0.15731423
116	0xbe34ba73	-0.1764925
117	0xbee2a5f1	-0.44267228
118	0x3e4cc826	0.19998226
119	0x3eab5161	0.33460525
120	0x3d9a8a40	0.075459
121	0xbd00ce84	-0.03144695
122	0x3e220835	0.15823443
123	0xbe76ccaa	-0.2410151
124	0xbecbadd6	-0.39781064
125	0xbed7421c	-0.42042625
126	0xbf055282	-0.5207902
127	0x3eeb1e9b	0.45921788
128	0xbed90a04	-0.42390454
129	0xbc7465fb	-0.014916892
130	0xbd60fe4f	-0.054930028
131	0x3ebaedf8	0.3650968
132	0x3c995fb2	0.018722389
133	0x3ebd9977	0.37031147
134	0x3de0cb94	0.109763294
135	0x3e1c706d	0.15277262
136	0xbe655629	-0.22396149
137	0xbe3eda47	-0.18637954
138	0xbe270ee1	-0.1631427
139	0xbeec3989	-0.46137646
140	0x3ec9c9b2	0.39411694
141	0xbe40337f	-0.18769644
142	0xbe84b0d2	-0.25916153
143	0x3e760605	0.24025734
144	0x3eb9183d	0.36151305
145	0x3d2c9095	0.04213007
146	0xbdde09b3	-0.10841694
147	0xbe0084dd	-0.12550683
148	0xbed09deb	-0.40745482
149	0x3f18140c	0.5940559
150	0xbeddd102	-0.43323523
151	0xbd386f83	-0.04502822
152	0x3da16a89	0.07881648
153	0xbe8fdc1c	-0.28097618
154	0xbe1bc24b	-0.15210836
155	0x3e9c2ec8	0.3050444
156	0xbec08ace	-0.376059
157	0x3f046b18	0.5172591
158	0xbec4e575	-0.38456312
159	0xbe3d5345	-0.18488796
160	0x3a533d97	0.0008058189
161	0x3d58c06a	0.052917875
162	0x3dec25ab	0.11530622
163	0x3ef013d2	0.46890122
164	0xbeb58182	-0.3545037
165	0x3dfd9c1b	0.123832904
166	0x3ea05a6b	0.31318983
167	0xbe9f71b8	-0.31141448
168	0x3a9ca9dd	0.0011952479
169	0x3d1c8e38	0.038221568
170	0x3d9efacb	0.07762679
171	0x3e02ee7b	0.12786286
172	0x3e445bab	0.19175594
173	0xbd004533	-0.031315994
174	0xbe6f3c11	-0.23362757
175	0x3f1d9e83	0.61569995
176	0xbc508adf	-0.012728422
177	0xbe9e1373	-0.30874214
178	0xbde05129	-0.1095298
179	0xbe04eabc	-0.12980169
180	0xbeb2a5e2	-0.34892184
181	0x3e9e61d9	0.30934027
182	0xbbb1868f	-0.005417652
183	0xbe76c4ce	-0.24098513
184	0xbe575961	-0.21030189
185	0xbe0bdb26	-0.13657817
186	0x3e95eef4	0.2928387
187	0x3e486c14	0.19572479
188	0xbea04e96	-0.31309956
189	0x3e75d476	0.24006829
190	0xbde9f902	-0.114244476
191	0x3eac1a49	0.33613804
192	0xb96250db	-0.0002158316
193	0x3dbfe530	0.09369886
194	0xbe9276bb	-0.2860621
195	0x3e4c7531	0.1996658
196	0x3f032c51	0.51239496
197	0x3dd50d41	0.104029186
198	0x3e0ce063	0.13757472
199	0xbec54b56	-0.3853404
200	0x3e2e56af	0.17025255
201	0x3e952dd9	0.2913654
202	0xbe99222e	-0.2990889
203	0xbeafea55	-0.3435847
204	0xbef8d849	-0.48602512
205	0x3da95281	0.082676895
206	0x3e89fbdc	0.26949966
207	0x3ebf066d	0.3730959
208	0x3d87e860	0.06636119
209	0x3e9e5134	0.30921328
210	0xbe561560	-0.20906591
211	0xbe69f408	-0.22846997
212	0x3e9dac21	0.30795386
213	0x3b8f891f	0.00438036
214	0xbe430442	-0.19044593
215	0x3e68460f	0.22682975
216	0x3eaca6e1	0.33721069
217	0xbe830736	-0.2559144
218	0xbe315242	-0.17316535
219	0x3e2be2c9	0.1678573
220	0x3e88a645	0.26689354
221	0xbe5cd98d	-0.21567364
222	0x3e798061	0.24365379
223	0x3d8ae7a0	0.0678246
224	0xbe40b9d0	-0.18820882
225	0x3dfb87d9	0.1228177
226	0x3dc51404	0.09622958
227	0x3e2527b8	0.16128433
228	0xbd25ba8c	-0.040461108
229	0x3ef3c793	0.476132
230	0x3e7e31ac	0.24823636
231	0x3e0bff6e	0.13671657
232	0xbd8fcf9c	-0.0702202
233	0x3e977f23	0.29589185
234	0x3e9f4bbf	0.31112477
235	0x3e5f74d4	0.2182191
236	0xbeaf3bf6	-0.34225434
237	0xbc20f489	-0.009823927
238	0xbe9f81e5	-0.3115379
239	0x3f063688	0.5242696
240	0xbe5638cc	-0.20920104
241	0x3e316339	0.17323007
242	0x3ee41a92	0.44551522
243	0x3e244e0b	0.16045396
244	0xbe71246d	-0.23549052
245	0x3ebb3916	0.3656699
246	0x3e935fc6	0.28784007
247	0xbe57bbe1	-0.21067764
248	0x3ebdabd2	0.3704515
249	0x3dfe914e	0.124300584
250	0xbe82d461	-0.25552657
251	0x3db7b6cb	0.08970412
252	0x3bb81a83	0.005618395
253	0x3d43153b	0.04762767
254	0x3ddbd02a	0.107330635
255	0x3eb20163	0.34766683

demo_encoder.0.bias f4 [32]
0	0xbd8472e6	-0.06467228
1	0x3e111b25	0.14170511
2	0x3da46612	0.08027281
3	0x3e4ad2b1	0.19806935
4	0x3eb779dc	0.3583516
5	0xbd838b98	-0.0642311
6	0x3eb58624	0.35453904
7	0xbe2ed13d	-0.17072006
8	0x3e11f886	0.1425496
9	0xbeb05c1b	-0.3444527
10	0xbea527aa	-0.32256824
11	0x3ebfabe0	0.37435818
12	0xba040018	-0.00050354144
13	0xbe555b04	-0.20835501
14	0x3e84dc6b	0.25949416
15	0x3ecb9404	0.39761364
16	0x3e12e04c	0.14343375
17	0xbdd5149d	-0.10404322
18	0xbd62d453	-0.05537827
19	0x3d7b8938	0.06141016
20	0x3d4afd6f	0.0495581
21	0x3e9161ea	0.28395015
22	0xbd84e405	-0.06488804
23	0x3e956cb5	0.291845
24	0xbce4f38d	-0.027948165
25	0xbe8fef47	-0.28112242
26	0xbd0115c5	-0.0315149
27	0xbddf5e29	-0.109066315
28	0xbd729742	-0.059226282
29	0x3dc6ae5b	0.097012244
30	0x3dca393a	0.09874196
31	0xbe8a2c82	-0.26987082

demo_encoder.2.weight f4 [32, 32]
0	0x3db973ec	0.090553135
1	0xbda7ee5f	-0.081997626
2	0x3d96f497	0.073708706
3	0xbd80c5b1	-0.06287707
4	0xbdb15395	-0.0865852
5	0xbdde8a2a	-0.108661965
6	0x3d40a174	0.047028974
7	0xbe59cc81	-0.21269418
8	0x3d8ffda2	0.070307985
9	0x3e1576aa	0.14596048
10	0x3c9da2b4	0.019242622
11	0x3e059078	0.13043392
12	0x3dfef8c1	0.1244979
13	0x3cabec19	0.020986604
14	0xbd3f2125	-0.04666247
15	0x3e0fd4aa	0.14045969
16	0x3dde941c	0.10868093
17	0x3e694142	0.227788
18	0x3c9d522f	0.019204227
19	0xbd715f36	-0.05892869
20	0xbcf96751	-0.030444773
21	0x3dad13c5	0.08451036
22	0x3d9d37d2	0.076766625
23	0x3da5307a	0.08065887
24	0x3da94b95	0.08266369
25	0x3e6518a9	0.22372688
26	0xbd102627	-0.035192635
27	0xbdf736b1	-0.120709784
28	0x3d15182f	0.036400016
29	0x3d95eb5c	0.07320282
30	0xbe652f82	-0.22381404
31	0x3dc8e66f	0.09809577
32	0xbe94812b	-0.29004797
33	0xbd058b79	-0.032603715
34	0xbe0655e4	-0.13118702
35	0x3c9a2b54	0.018819489
36	0x3e7362e2	0.2376819
37	0xbd27ba50	-0.040949166
38	0xbc9a8552	-0.0188624
39	0xbe42e2da	-0.1903185
40	0xbdd99cb8	-0.10625595
41	0xbd824777	-0.06361287
42	0xbd550beb	-0.05201332
43	0x3df4bb40	0.119497776
44	0x3e9836e5	0.2972938
45	0x3e1f7c4f	0.15574764
46	0xbc9ef4c0	-0.019403815
47	0xbe7aa9e7	-0.24478875
48	0x3e4a55d7	0.19759308
49	0x3d1eb335	0.038745124
50	0x3c254052	0.010086136
51	0x3ea9d00b	0.33166537
52	0x3cf32584	0.029680975
53	0x3dd351e0	0.10318351
54	0x3ce13f39	0.027495967
55	0x3e3f75e6	0.18697318
56	0xbc47f2bd	-0.012203869
57	0xbb980334	-0.0046390537
58	0x3e1aa1d1	0.1510079
59	0xbccaae2d	-0.024741257
60	0x3d419c20	0.047268033
61	0xbdec321f	-0.11532997
62	0x3d9f4509	0.07776839
63	0xbda13d68	-0.078730404
64	0x3e4ed129	0.20196976
65	0xbb05ab26	-0.0020396202
66	0x3cb095b1	0.021555753
67	0x3c6e0bf6	0.014529219
68	0xbc80def5	-0.015731314
69	0xbd93fe99	-0.07226295
70	0x3e749c3b	0.23887722
71	0xbddc2d7c	-0.10750863
72	0xbd3f6ab2	-0.046732612
73	0x3cd89b9f	0.026441393
74	0x3d3de52e	0.04636114
75	0x3ccd3a21	0.025052132
76	0xbda1c99e	-0.078997836
77	0xbdc3a19c	-0.09552309
78	0x3e5862d1	0.21131445
79	0x3da2c7af	0.07948243
80	0xbd8210d1	-0.06350864
81	0x3eb9f7e5	0.3632194
82	0xbd464f20	-0.048415303
83	0x3d9cd89a	0.07658501
84	0x3d1ed3ae	0.038776092
85	0x3d7bfab2	0.06151838
86	0xbe2db850	-0.16964841
87	0x3e438492	0.1909354
88	0x3c653de3	0.013991806
89	0xbccc6d71	-0.02495453
90	0x3d98c09c	0.07458612
91	0x3e293136	0.16522679
92	0xbdb57821	-0.088608034
93	0x3d09a820	0.033607602
94	0x3daa1a52	0.083058015
95	0x3db039d6	0.08604781
96	0xbcd58c06	-0.026067745
97	0x39d05e52	0.00039743126
98	0xbe2827d1	-0.16421439
99	0x3daebf10	0.08532536
100	0x3b8cba1b	0.0042946464
101	0xbe551a34	-0.20810777
102	0x3d84468a	0.06458767
103	0x3dcc5e79	0.09978957
104	0x3e3576d6	0.17721114
105	0xbd441528	-0.04787174
106	0x3de98f2c	0.11404261
107	0xbe186a5c	-0.14884323
108	0x3e26adba	0.16277209
109	0xbe4333b6	-0.19062695
110	0xbe4a2ff0	-0.19744849
111	0xbe762223	-0.2403646
112	0xbd9ac689	-0.07557399
113	0x3d133226	0.035936497
114	0x3dfceccc	0.12349853
115	0x3e02d922	0.12778142
116	0xbd24c112	-0.04022319
117	0xbe830a49	-0.25593784
118	0xbc23c967	-0.0099967485
119	0xbd851d8c	-0.06499776
120	0xbe47498a	-0.19461647
121	0xbe61c412	-0.22047451
122	0xbe60a6a4	-0.21938568
123	0xbe398bed	-0.18119784
124	0x3e0c0ed2	0.13677529
125	0xbe3144bf	-0.17311381
126	0xbcae17f1	-0.02125165
127	0xbe166f96	-0.14691004
128	0xbcdd8443	-0.027040606
129	0xbd55bf97	-0.052184667
130	0x3cdfddd6	0.02732746
131	0x3df0d613	0.117595814
132	0xbc363028	-0.01111988
133	0x3d05b89a	0.032646753
134	0xbd82e651	-0.063915856
135	0x3c2bfb97	0.010496995
136	0x3db67033	0.08908119
137	0xbe2f8ed3	-0.17144327
138	0x3e6febc2	0.23429778
139	0xbc218c41	-0.009860099
140	0x3dacd9e3	0.08439996
141	0x3d29eb6c	0.04148428
142	0x3dc85498	0.0978176
143	0xbdc07cb5	-0.09398786
144	0xbdaca6f0	-0.08430278
145	0xbd0f61ac	-0.035005257
146	0xbe590715	-0.21194108
147	0x3e1df87e	0.15426823
148	0xbe47c03d	-0.19506927
149	0xbcc05fa7	-0.02348311
150	0xbdefcccb	-0.11708983
151	0xbe0ce3eb	-0.13758819
152	0xbe2bec47	-0.16789351
153	0x3d85eb72	0.06539048
154	0xbdb6200d	-0.08892832
155	0x3cd2df94	0.025741376
156	0xbe1222a2	-0.14271024
157	0x3da804b9	0.08204026
158	0xbe2deebd	-0.16985603
159	0xbe0cc210	-0.13745904
160	0xbd89e13e	-0.06732415
161	0x3d992a88	0.07478815
162	0x3e22c557	0.15895592
163	0xbe33c683	-0.17556195
164	0xbe91c97a	-0.28474027
165	0xbcda6048	-0.026657239
166	0x3cc170d7	0.023613377
167	0xbc8403f2	-0.016115163
168	0xbd3c6900	-0.045998573
169	0x3e218727	0.15774213
170	0x3bb47b49	0.005507861
171	0xbeaa2200	-0.33229065
172	0xbe54c007	-0.20776378
173	0xbdda6b44	-0.106649905
174	0xbc8a9add	-0.016919548
175	0x3d1a16cf	0.03761941
176	0xbdd589a9	-0.10426647
177	0xbdeb7f02	-0.11498834
178	0xbdb004ba	-0.085946515
179	0xbefadfc9	-0.4899886
180	0xbe1a4af0	-0.15067649
181	0xbd9ac40b	-0.075569235
182	0x3d92d0d9	0.07168741
183	0xbe7ff2ec	-0.24995011
184	0x3e81da43	0.25361833
185	0xbe0126e9	-0.126125
186	0xbe11a433	-0.14222793
187	0x3e88c2b5	0.2671105
188	0xbdbfe690	-0.09370148
189	0x3cf12665	0.029437253
190	0xbdf3d70b	-0.119062506
191	0x3e7bc4ff	0.24586867
192	0x3e2352e3	0.15949588
193	0x3e4c7213	0.19965391
194	0x3e4016bc	0.18758672
195	0xbe12abdd	-0.14323373
196	0xbd80eb8f	-0.06294929
197	0x3e5f54c6	0.21809682
198	0x3e23595a	0.15952054
199	0x3e555052	0.20831421
200	0xbd7a48da	-0.061104633
201	0x3d982801	0.07429505
202	0x3e3cd54c	0.18440741
203	0xbe0d79b2	-0.13815954
204	0xbd6434f6	-0.05571457
205	0x3e4bbfb2	0.19897345
206	0x3e82e2cc	0.25563657
207	0xbc8a0a8c	-0.016850732
208	0xbdcf7515	-0.101297535
209	0xbe95cf41	-0.29259685
210	0x3e540cc2	0.20707992
211	0xbd6cb13d	-0.057786215
212	0x3d076545	0.033055563
213	0x3e738801	0.2378235
214	0xbe9d59fd	-0.30732718
215	0x3e0c55a8	0.1370455
216	0xbe3c4674	-0.1838625
217	0x3d0fa644	0.035070673
218	0xbc3b2046	-0.011421269
219	0x3db6a69c	0.08918497
220	0x3d8efba5	0.06981591
221	0x3e62725d	0.22113939
222	0x3dcad87e	0.09904574
223	0xbd8636f1	-0.06553448
224	0x3e006b52	0.1254094
225	0xbe0587e5	-0.13040121
226	0x3e1d22b1	0.15345265
227	0xbe0a83fa	-0.13526908
228	0xbe46e49a	-0.19423142
229	0xbc2e3eec	-0.010635119
230	0xbca2f16f	-0.019890515
231	0x3d4da1fe	0.050203316
232	0xbe11f203	-0.14252476
233	0x3d858f90	0.06521523
234	0x3db7d819	0.08976764
235	0xbe6ee2f2	-0.2332876
236	0xba84bf93	-0.0010127894
237	0xbd4549af	-0.048165973
238	0xbbc77443	-0.0060868575
239	0x3c957dd8	0.018248484
240	0x3caaa15a	0.020828892
241	0xbe06b002	-0.13153079
242	0x3de4ba13	0.11168303
243	0xbe43a541	-0.19106008
244	0x3ddb43c4	0.10706285
245	0x3dc716f6	0.09721176
246	0xbe1c4f39	-0.15264596
247	0x3d64b82b	0.0558397
248	0x3e0c8c44	0.13725382
249	0xbe2e52bc	-0.17023748
250	0x3de5aca8	0.11214572
251	0x3e25073f	0.16116045
252	0xbda6f03c	-0.0815129
253	0x3d070661	0.032965068
254	0xbdeec1ad	-0.116580345
255	0xbc486951	-0.012232141

demo_encoder.2.bias f4 [32]
0	0x3d73d869	0.059532557
1	0x3b652861	0.0034966695
2	0x3d5c4b1e	0.053782575
3	0xbdfa0e42	-0.12209751
4	0xbc98b5dd	-0.018641407
5	0x3d86a187	0.06573778
6	0xbcc1509f	-0.023598013
7	0xbdeb7154	-0.11496225
8	0x3d29a970	0.041421354
9	0x3ca64495	0.020296374
10	0x3e745424	0.23860222
11	0xbd1c0abe	-0.038096182
12	0xbe3e3b9b	-0.18577425
13	0x3dba2e7f	0.090909
14	0x3e0fc68b	0.14040582
15	0xbd062f3c	-0.03275989
16	0x3b6d3480	0.0036194623
17	0x3e8b4fd6	0.27209347
18	0x3d7eb3a5	0.06218304
19	0xbdf18c70	-0.117943645
20	0xbd124bbd	-0.03571676
21	0x3dbbe2a4	0.09174088
22	0x3e0ee2ec	0.13953751
23	0x3e1c043a	0.15235987
24	0xbe492e74	-0.19646627
25	0xbc7d4997	-0.01545944
26	0xbd92f2f9	-0.071752496
27	0x3daa9dce	0.0833088
28	0xbe859e16	-0.26097172
29	0x3dd3cbc8	0.103416026
30	0x3d0d7a94	0.034540728
31	0xbd6a7aea	-0.057246126

gru.weight_ih_l0 f4 [96, 111]
0	0xbcff94f3	-0.031198954
1	0xbd881b74	-0.06645861
2	0xbc91fcc5	-0.017820725
3	0x3e79fa11	0.24411799
4	0xbc62805f	-0.013824551
5	0x3e0f467d	0.13991733
6	0xbd96e338	-0.07367557
7	0x3c09ef1f	0.008418827
8	0xbda33c3b	-0.079704724
9	0x3e63548a	0.22200218
10	0xbe208e28	-0.15679228
11	0xbe5bc3a6	-0.21461353
12	0xbd0de682	-0.034643658
13	0x3dfe3fe2	0.124145284
14	0xbe958ffd	-0.29211417
15	0x3de0bcc8	0.10973507
16	0xbd586819	-0.05283365
17	0xbe9012b5	-0.28139272
18	0xbdf6f055	-0.120575584
19	0x3dadcf27	0.08486777
20	0x3d26c038	0.040710658
21	0x3e0b3ece	0.13598177
22	0xbd977c2a	-0.07396729
23	0xbe10c5c5	-0.14137943
24	0x3e118bbf	0.14213465
25	0xbe06eddd	-0.13176675
26	0x3e3547d9	0.17703189
27	0x3e237c0c	0.15965289
28	0x3d2b6cef	0.041851934
29	0x3dc175ce	0.094462976
30	0x3e755732	0.23959044
31	0x3e5e1037	0.21685873
32	0x3c4f258e	0.012643231
33	0x3d651a6e	0.05593341
34	0xbde86546	-0.113474414
35	0x3e2b0bfd	0.16703792
36	0xbd349906	-0.044091247
37	0x3d5ac7b2	0.0534131
38	0x3d17cf5f	0.037063
39	0xbcb02b0e	-0.021504905
40	0xbe25fd0f	-0.16209815
41	0x3cd05879	0.025432812
42	0x3c515403	0.012776378
43	0xbe0d6192	-0.13806751
44	0x3c21acef	0.009867891
45	0xbb05fb6b	-0.0020444046
46	0x3e442ab5	0.19156916
47	0x3e4957cc	0.19662398
48	0x3de05b17	0.10954874
49	0x3d373030	0.04472369
50	0xbd7d9472	-0.061909147
51	0x3e0ec8d7	0.13943802
52	0x3d38c6e3	0.04511155
53	0xbdf777e6	-0.12083416
54	0xbd629e8a	-0.055326976
55	0x3da49d3a	0.08037801
56	0x3dd79796	0.105269596
57	0x3e26bda6	0.16283283
58	0x3dbd3161	0.09237934
59	0x3e2412fe	0.1602287
60	0xbe78d962	-0.24301675
61	0xbe1108d8	-0.1416353
62	0xbe672782	-0.22573665
63	0xbe2e3221	-0.1701131
64	0xbcdabc85	-0.026701221
65	0x3d596b92	0.053081103
66	0x3ce3c9a3	0.027806109
67	0x3e03d8b5	0.12875636
68	0xbd338786	-0.043830417
69	0xbe8f82e7	-0.28029558
70	0x3e6c0ad4	0.23051006
71	0xbde6fc24	-0.11278561
72	0xbe0aa4a5	-0.1353937
73	0x3dcbf661	0.099591024
74	0xbe51edb2	-0.2050083
75	0x3db0a470	0.08625114
76	0xbe91b872	-0.28461033
77	0xbd6a6ec0	-0.057234526
78	0x3e260714	0.16213638
79	0x3db6d662	0.08927609
80	0x3d955ccb	0.072930895
81	0xbe4244cc	-0.18971556
82	0x3eba6020	0.36401463
83	0xbdea512b	-0.11441263
84	0x3d63c524	0.05560793
85	0xbd8d749e	-0.069070086
86	0xbcaae8b5	-0.020862916
87	0x3e693561	0.22774269
88	0x3d34df52	0.044158287
89	0xbd26155b	-0.04054771
90	0xbd78ffb3	-0.06079073
91	0x3e00d942	0.12582877
92	0xbe35130a	-0.17683044
93	0xbe042fbc	-0.12908834
94	0x3dfde4c1	0.12397147
95	0x3cce89bb	0.02521216
96	0xbe518957	-0.20462547
97	0xbe0b2b0a	-0.13590637
98	0x3dacfd60	0.08446765
99	0x3db662e7	0.08905583
100	0x3dd982ee	0.10620676
101	0x3db8eb77	0.09029286
102	0xbe057fec	-0.1303708
103	0xbdfde7ae	-0.12397705
104	0xbe4e7c84	-0.20164686
105	0xbe54cb9d	-0.20780797
106	0xbdccc38b	-0.09998234
107	0x3c8230ed	0.01589247
108	0xbda27e3c	-0.079342335
109	0xbe347bd0	-0.17625356
110	0xbd247a31	-0.040155593
111	0xbd50f85b	-0.0510181
112	0x3db85331	0.090002425
113	0x3e1fec0f	0.15617393
114	0x3e499467	0.19685517
115	0x3e187606	0.14888772
116	0xbe6a62cb	-0.22889249
117	0xbd413a2b	-0.047174614
118	0x3d8ab9f8	0.06773752
119	0x3d78e4c2	0.060765035
120	0x3e1f7934	0.15573579
121	0xbe7ecfc5	-0.24883945
122	0xbe8bc4f1	-0.27298692
123	0xbd89832c	-0.06714472
124	0xbe31f229	-0.17377533
125	0x3d32ec1f	0.043682214
126	0xbe6476c3	-0.22310929
127	0xbe670112	-0.22559002
128	0x3d57fbc3	0.052730333
129	0x3e17e325	0.14832743
130	0x3ea33ade	0.3188085
131	0x3c389d77	0.011268011
132	0xbca6d3a9	-0.0203646
133	0x3e1451eb	0.14484374
134	0x3e613dda	0.21996251
135	0x3dd17ccb	0.102288805
136	0x39af1708	0.0003339576
137	0xbca28538	-0.019838914
138	0xbc8c2713	-0.017108476
139	0xbe181dd7	-0.14855133
140	0x3d59fa9a	0.053217508
141	0xbe395f82	-0.1810284
142	0x3e0d2c48	0.13786423
143	0xbded3eaf	-0.115842216
144	0xbc8d567e	-0.017253157
145	0x3da9ab81	0.08284665
146	0xbc3ecd23	-0.011645588
147	0x3e9870ff	0.2977371
148	0x3e740af1	0.23832299
149	0x3dc634ef	0.09678065
150	0xbc8a5287	-0.016885055
151	0x3e422b2e	0.18961784
152	0xbba42aa5	-0.0050099664
153	0xbaa587d9	-0.0012628987
154	0xbdfbd38f	-0.12296211
155	0x3e0f1789	0.13973822
156	0x3ddaa08a	0.10675152
157	0xbe3b9818	-0.18319738
158	0xbd52cfa0	-0.051467538
159	0x3e42b333	0.19013672
160	0x3e75482f	0.23953317
161	0xbd905341	-0.070471294
162	0x3e8d9fdf	0.27661034
163	0xbde0310a	-0.109468535
164	0xbdd47046	-0.10372977
165	0xbc4a6fda	-0.012355769
166	0x3e06cecd	0.13164826
167	0xbc3d30aa	-0.011547247
168	0x3e26f048	0.16302598
169	0xbd14e901	-0.036355022
170	0x3dd197fa	0.10234065
171	0x3b8e3906	0.004340294
172	0xbc06256f	-0.008187636
173	0x3e20de54	0.15709811
174	0xbc1f5a7b	-0.009726162
175	0x3e03d289	0.12873282
176	0xbe27e7fd	-0.1639709
177	0xbd765829	-0.06014267
178	0xbe316ead	-0.17327376
179	0xbd7a5d76	-0.061124288
180	0xbda7c0eb	-0.08191093
181	0xbcd8b98a	-0.02645566
182	0xbb1dab88	-0.002405854
183	0x3e0f5765	0.13998182
184	0xbd2aa1b2	-0.04165811
185	0x3c719754	0.014745552
186	0xbc8f9239	-0.01752578
187	0xbd230e93	-0.03980882
188	0xbc9c5f28	-0.019088343
189	0x3cd58d90	0.026068479
190	0x3ebebbae	0.37252563
191	0x3e01d51d	0.12678953
192	0xbdad8422	-0.08472468
193	0xbbb9330c	-0.005651837
194	0xbdfc8c91	-0.123314984
195	0x3e48be6b	0.19603889
196	0xbd44089e	-0.04785978
197	0xbe30e8ff	-0.17276381
198	0xbdcc31e3	-0.09970453
199	0xbc968252	-0.018372688
200	0xbdd09cb6	-0.1018614
201	0xbdc17ce0	-0.09447646
202	0x3c242051	0.01001747
203	0xbcbecc61	-0.023290815
204	0xbd33f380	-0.04393339
205	0x3d34de3f	0.044157263
206	0xbe0e341b	-0.13887064
207	0xbdc974cb	-0.098367296
208	0x3da960d8	0.082704246
209	0xbd4918ee	-0.04909604
210	0x3e3cec29	0.18449463
211	0x3d2af108	0.04173377
212	0x3e6e6102	0.23279193
213	0x3c9b7490	0.01897648
214	0x3db5d9a2	0.08879401
215	0xbd889ffd	-0.0667114
216	0x3d9172c0	0.07101965
217	0xbcbb40cd	-0.022858048
218	0x3e2cf2b1	0.16889454
219	0xbe0abfd7	-0.13549744
220	0x3e7d14f0	0.24715018
221	0xbe229961	-0.15878822
222	0xbe20d05e	-0.15704486
223	0x3daae9fd	0.08345411
224	0x3deda624	0.116039544
225	0x3dd94b7a	0.10610099
226	0xbcaa9953	-0.020825064
227	0xbe00cca0	-0.12578058
228	0x3e1dd46b	0.15413062
229	0xbda95af7	-0.08269303
230	0xbe12cb91	-0.14335467
231	0xbd2fd38c	-0.042926356
232	0xbc3b4ab2	-0.011431383
233	0xbaf00e25	-0.0018314762
234	0xbc3fc0e7	-0.011703706
235	0x3dd3b505	0.10337261
236	0x3e00d356	0.12580618
237	0xbe1ecaf4	-0.15507108
238	0x3dbe429e	0.0929005
239	0xbd84a0f0	-0.06476009
240	0x3e2f0ca6	0.17094669
241	0xbe4f79d8	-0.20261323
242	0x3b28aedb	0.0025738988
243	0x3e038d60	0.12846899
244	0x3be63fea	0.007026662
245	0xbdec5e13	-0.11541381
246	0xbbd2c265	-0.006431865
247	0xbdb9b268	-0.090672314
248	0x3d830072	0.06396569
249	0xbdc14780	-0.09437466
250	0xbe4f419d	-0.20239873
251	0xbd5f5010	-0.054519713
252	0x3bc5c2c8	0.0060351826
253	0xbe36b876	-0.17843804
254	0x3ce910ed	0.028450454
255	0x3d25fbb4	0.040523246

gru.weight_hh_l0 f4 [96, 32]
0	0x3d05350d	0.032521296
1	0x3d9978a2	0.07493712
2	0x3d08edfb	0.03343008
3	0x3e553650	0.208215
4	0x3e265675	0.16243918
5	0x3e338ece	0.17534944
6	0xbd4fe721	-0.05075753
7	0xbe2a9641	-0.1665888
8	0xbe8c8cf4	-0.2745129
9	0xbd4e3570	-0.05034393
10	0xbd9c5a82	-0.076344505
11	0xbddf36e7	-0.10899144
12	0x3d0f9aa3	0.035059582
13	0xbd35a218	-0.044344038
14	0x3ea1d5b1	0.31608346
15	0x3d0f61e8	0.03500548
16	0xbe9724b1	-0.2952018
17	0xbbb88ddb	-0.005632145
18	0x3dabf7c5	0.08396868
19	0xbd733c40	-0.05938363
20	0x3ddcb7dc	0.10777256
21	0xbe19a1c3	-0.15003113
22	0xbda5a610	-0.080883145
23	0xbd059f24	-0.03262247
24	0xbe14d810	-0.14535546
25	0xbe78c3b1	-0.242934
26	0xbe148ca0	-0.14506769
27	0x3deb7fb2	0.11498965
28	0xbdabcb61	-0.08388401
29	0x3c80d744	0.015727647
30	0xbda392f2	-0.07987012
31	0x3e169712	0.14706066
32	0x3e8fc24b	0.2807792
33	0x3c8b12d8	0.016976759
34	0xbe6536f4	-0.22384244
35	0x3c9c2568	0.019060805
36	0x3d87dc3a	0.06633802
37	0xbe179527	-0.14802991
38	0xbdb54488	-0.08850962
39	0x3e0662d9	0.13123645
40	0xbd7ed0c8	-0.062210828
41	0xbda494e1	-0.08036209
42	0x3d138340	0.03601384
43	0x3e3812f5	0.17975982
44	0xbd51b1ff	-0.05119514
45	0xbe712998	-0.23551023
46	0x3bad69e4	0.005292164
47	0xbcb703ef	-0.022340743
48	0xbd2b1516	-0.041768156
49	0xbe2c3e47	-0.16820632
50	0x3d915031	0.070953734
51	0xbca0337b	-0.019555798
52	0xbc04e206	-0.008110529
53	0x3e9c8c3c	0.3057574
54	0x3d647c1f	0.055782434
55	0xbd8c9a58	-0.06865376
56	0xbcb3e1a2	-0.021958176
57	0xbddc0e11	-0.107448705
58	0x3e62916a	0.22125784
59	0xbc9b696b	-0.018971166
60	0x3e1da9e6	0.15396842
61	0x3c43ae41	0.011943401
62	0xbd9affd4	-0.075683266
63	0x3e9c37e1	0.30511382
64	0x3ebb491c	0.36579216
65	0x3e66fe0d	0.2255785
66	0xbd1234e2	-0.035694964
67	0xbdef5c5d	-0.11687539
68	0x3e9d8ec4	0.30772984
69	0x3e384d36	0.17998204
70	0xbe765b09	-0.24058165
71	0x3e6835b7	0.2267674
72	0xbda43270	-0.08017433
73	0xbe08772e	-0.13326713
74	0x3d06c16f	0.032899316
75	0x3e37636b	0.17909019
76	0xbd9ca767	-0.07649117
77	0x3e34c708	0.1765405
78	0xbcec9cc5	-0.028883347
79	0x3ccfc3d3	0.025361931
80	0x3e41c3c0	0.18922329
81	0x3e29a552	0.16566971
82	0x3e0c0763	0.13674693
83	0xbe3ce13e	-0.18445298
84	0xbd84d6b5	-0.064862646
85	0xbd3800ce	-0.044922642
86	0xbe3acda7	-0.18242513
87	0xbea09529	-0.313638
88	0x3d771332	0.06032104
89	0x3e25ee84	0.16204268
90	0x3e647a12	0.22312191
91	0x3c22469a	0.009904528
92	0x3d9a37f0	0.075302005
93	0xbcbfabcb	-0.023397347
94	0x3d1ea941	0.03873563
95	0xbd001eac	-0.03127925
96	0x3c82c44d	0.015962744
97	0x3e1097c4	0.14120394
98	0xbc244054	-0.010025103
99	0x3cd867ed	0.026416743
100	0xbdf46141	-0.11932612
101	0xbde58e64	-0.112087995
102	0xbdba6309	-0.09100921
103	0x3dda6bc3	0.10665085
104	0xbccdb9e6	-0.025113057
105	0xbd938b96	-0.07204358
106	0x3d7b335b	0.061328273
107	0x3d2f9139	0.042863104
108	0xbe11bd99	-0.14232482
109	0xbd6a7ecd	-0.057249833
110	0x3de13977	0.10997289
111	0x3e2d33a3	0.16914229
112	0xbd2e212f	-0.042512115
113	0x3df8e3f0	0.12152851
114	0x3e00f5d2	0.12593773
115	0x3e37dd57	0.17955528
116	0xbd1f6b7c	-0.038920864
117	0x3d3e29e1	0.046426658
118	0x3d3cee2a	0.04612557
119	0x3e008a25	0.12552698
120	0x3de7ef4d	0.1132494
121	0xbdc5f6ad	-0.0966619
122	0x3da9fe14	0.08300415
123	0xbe04497b	-0.12918656
124	0xb99bf638	-0.0002974735
125	0x3be7b8e0	0.0070715994
126	0x3de13497	0.10996359
127	0xbe1de496	-0.1541923
128	0xbe0bd8f3	-0.13656978
129	0x3d6464d2	0.055760212
130	0x3cff5b34	0.031171419
131	0x3daccb5e	0.08437227
132	0xbc8c2f12	-0.017112289
133	0x3d9ad3af	0.07559907
134	0xbca5685f	-0.02019137
135	0x3e0daf55	0.13836415
136	0xbd10c613	-0.03534515
137	0xbe1c3235	-0.15253527
138	0x3dcbc9c3	0.09950592
139	0xbe09f175	-0.13471015
140	0x3d4bf976	0.04979845
141	0x3e74db0a	0.23911682
142	0xbe627e91	-0.22118594
143	0x3ccd4b1b	0.025060227
144	0x3e0067b0	0.12539554
145	0x3db6dac9	0.08928449
146	0xbdcb90a0	-0.099396944
147	0x3dc20d64	0.0947521
148	0xbe44fb12	-0.192364
149	0xbcf0b145	-0.029381404
150	0x3cc73d65	0.024321267
151	0x3dcad6c3	0.09904244
152	0xbda9c28d	-0.08289061
153	0xbe29738f	-0.16547988
154	0xba5a1fb6	-0.00083207653
155	0xbd365400	-0.044513702
156	0x3e0c68f3	0.1371191
157	0x3d9fa77d	0.07795618
158	0x3d386109	0.045014415
159	0xbd74740a	-0.059680976
160	0xbda37d75	-0.079829134
161	0xbbfaef53	-0.007657924
162	0x3d4ce3ab	0.05002181
163	0xbe18329b	-0.14863054
164	0x3d8f345e	0.0699241
165	0xbdd88dcf	-0.10573923
166	0xbdcb8c14	-0.09938827
167	0x3d0e5cad	0.03475635
168	0xbe0a12b2	-0.13483694
169	0xbdba24cc	-0.0908905
170	0xbdf8a470	-0.12140739
171	0xbcda100b	-0.026618978
172	0xbd47e59a	-0.04880295
173	0xbe214e4f	-0.15752529
174	0x3e5343a5	0.20631273
175	0x3e845862	0.2584868
176	0x3e69fc8c	0.22850245
177	0x3e823f0d	0.2543873
178	0x3b613cb9	0.003436847
179	0xbe81ff9a	-0.2539032
180	0xbe18ab60	-0.14909124
181	0x3d013239	0.031542037
182	0xbd456bd6	-0.048198543
183	0x3e6c28fc	0.2306251
184	0xbdfad852	-0.12248291
185	0xbe05aa66	-0.13053283
186	0x3cbae4f2	0.022814248
187	0x3e1670cb	0.14691465
188	0xbd3e0504	-0.046391502
189	0x3e833be8	0.25631642
190	0xbb81d4af	-0.0039621214
191	0xbe042a1a	-0.12906685
192	0x3d511acf	0.051050957
193	0x3dbcc67e	0.09217547
194	0xbdfe0a81	-0.12404347
195	0x3d4fa8ff	0.050698277
196	0xbc7c37c3	-0.015394154
197	0xbd43fa82	-0.047846325
198	0x3e0d93ec	0.13825959
199	0x3e0a5c8a	0.13511863
200	0x3d5f5b2a	0.0545303
201	0xbe89a9cd	-0.2688736
202	0xbe033475	-0.1281298
203	0xbd45b823	-0.04827131
204	0x3da81da1	0.08208776
205	0x3d93bd6c	0.07213864
206	0xbcb67140	-0.022270799
207	0x3cdd735d	0.027032549
208	0x3e3d6c3f	0.18498324
209	0xbd84aa46	-0.064777896
210	0x3e7df289	0.24799551
211	0xbdee918d	-0.11648855
212	0xbd8e0d39	-0.06936116
213	0x3e326fec	0.17425507
214	0x3d80c830	0.06288183
215	0x3ca92793	0.020648753
216	0x3e83e533	0.25760803
217	0xbdd86ecd	-0.105680086
218	0xbd0f72d7	-0.03502163
219	0x3dbc31db	0.09189197
220	0x3d0abe4b	0.033872884
221	0x3dc62bf8	0.09676355
222	0xbe606ace	-0.21915743
223	0xbde75aaf	-0.112965934
224	0x3e1259be	0.14292046
225	0xbc2ad223	-0.010426077
226	0xbddf7ce8	-0.10912496
227	0x3b17ff18	0.002319282
228	0xbda6da4e	-0.08147107
229	0xbe792ac9	-0.24332727
230	0xbdd30eda	-0.10305567
231	0x3db8f3c8	0.090308726
232	0xbdb38911	-0.08766378
233	0x3e081bed	0.13291903
234	0x3dc89a60	0.0979507
235	0xbd95ceb8	-0.07314819
236	0x3debbe93	0.115109585
237	0x3d841787	0.064498
238	0x3c324dae	0.010882778
239	0xbdd89fb4	-0.10577336
240	0x3e3269c5	0.1742316
241	0xbe24e7f4	-0.16104108
242	0x3d8f6ecd	0.070035554
243	0xbe5d1e12	-0.21593502
244	0x3dd6b720	0.10484147
245	0x3e9bc400	0.30422974
246	0x3e3068d5	0.1722749
247	0x3daa1e33	0.08306541
248	0xbdd6b5fa	-0.10483928
249	0xbe4495cc	-0.19197768
250	0x3d9b55c2	0.075847164
251	0x3c4aa70d	0.01236893
252	0x3e050c1d	0.12992902
253	0xbe2e023a	-0.16993037
254	0x3e679fca	0.22619548
255	0x3e7f59a1	0.24936534

gru.bias_ih_l0 f4 [96]
0	0x3e27c6ba	0.16384402
1	0x3d9a14b7	0.07523482
2	0x3e19e267	0.15027772
3	0xbcd54ea3	-0.026038473
4	0xbd4f7ca4	-0.050655976
5	0x3e4acb5d	0.1980414
6	0x3e3ea9c4	0.18619448
7	0x3e02219b	0.12708132
8	0x3e7d0359	0.24708308
9	0x3e583546	0.21114072
10	0xbdbdda54	-0.092701584
11	0x3db0ff8e	0.08642493
12	0xbd9a3939	-0.075304456
13	0x3d825f48	0.0636583
14	0x3e148588	0.14504063
15	0x3e1c718a	0.15277687
16	0x3cbfdf53	0.023421919
17	0x3c9acf49	0.01889767
18	0xbd9ef6cf	-0.07761919
19	0xbddad55e	-0.10685228
20	0xbd2b44b8	-0.041813582
21	0xbd924080	-0.07141209
22	0xbdac5191	-0.08413995
23	0x3c1af845	0.009458606
24	0xbdfefff6	-0.124511644
25	0x3b8b3d11	0.004249223
26	0x3e4322a1	0.19056179
27	0xbe4a48fa	-0.19754401
28	0xbc0d30b4	-0.008617569
29	0x3d47c4ff	0.048771854
30	0xbcbfa275	-0.023392895
31	0x3df5175b	0.11967345
32	0x3e11be52	0.14232758
33	0x3debdb02	0.11516382
34	0x3ded0abd	0.11574314
35	0x3dcf0be8	0.10109693
36	0x3da62843	0.08113148
37	0x3e2c1008	0.1680299
38	0x3dcee2a2	0.101018205
39	0x3e33f70d	0.17574711
40	0x3db2dc6a	0.08733447
41	0x3e1412bc	0.14460272
42	0x3d6cb0a8	0.05778566
43	0x3d97a661	0.07404781
44	0x3bb52504	0.0055280942
45	0xbdb2bdf7	-0.08727639
46	0xbd67ae55	-0.05656274
47	0xbe1cd57f	-0.15315817
48	0x3e74e572	0.23915651
49	0x3dc3c51d	0.09559081
50	0x3dd3f113	0.10348716
51	0xbd8d7d77	-0.06908696
52	0x3e3c5668	0.18392336
53	0xbe68b11f	-0.22723816
54	0xba8d0348	-0.0010758424
55	0x3e18008b	0.14843957
56	0xbe2a7ab7	-0.16648374
57	0x3df7c442	0.1209798
58	0xbe0e130c	-0.13874453
59	0x3d5352d0	0.051592648
60	0x3e50c3c1	0.20387174
61	0x3e3a9b5e	0.1822333
62	0x3deda751	0.11604179
63	0x3df8f872	0.12156762
64	0x3e136286	0.14393052
65	0x3e3568fe	0.17715833
66	0xbe602e75	-0.21892722
67	0xbe565a84	-0.20932966
68	0xbe165b13	-0.1468318
69	0x3d1d7d05	0.038449306
70	0x3dea42de	0.11438535
71	0x3d1e432e	0.038638286
72	0x3d86eb3e	0.06587838
73	0x3d0c4273	0.03424306
74	0x3d88a5b1	0.06672228
75	0xbe09fda3	-0.13475661
76	0xbbc0c3af	-0.0058827023
77	0x3d88379f	0.06651234
78	0xbdfd4933	-0.12367477
79	0x3df02c66	0.11727218
80	0x3c41fb66	0.011839723
81	0xbbc889e7	-0.006119955
82	0xbdc65a9d	-0.09685252
83	0x3990681c	0.00027543388
84	0xbe4699eb	-0.19394653
85	0x3e40c459	0.188249
86	0x3c16402c	0.009170573
87	0xbd13a999	-0.036050413
88	0xbd664966	-0.056222342
89	0xbe09b51e	-0.13447997
90	0x3e241afc	0.16025919
91	0x3c510db2	0.012759613
92	0xbcf24b74	-0.029576994
93	0xbe1043ee	-0.14088413
94	0xbe0e7f82	-0.13915828
95	0x3bbf880f	0.005845077

gru.bias_hh_l0 f4 [96]
0	0x3dacfff8	0.0844726
1	0xbd4b2295	-0.049593527
2	0xbd9a500d	-0.075348
3	0x3e3a2594	0.18178397
4	0xbca62877	-0.020282967
5	0x3e669caf	0.22520708
6	0xbd208099	-0.03918514
7	0x3ddc866b	0.10767826
8	0x3d7e2dd8	0.06205544
9	0x3e25c495	0.16188271
10	0x3e299114	0.16559249
11	0x3b327d9a	0.002723551
12	0xbd51d823	-0.051231515
13	0xbd41de9d	-0.04733144
14	0x3e3e2ba0	0.18571329
15	0xbdbdac0d	-0.09261332
16	0x3ddacb62	0.106833234
17	0x3e3e2aef	0.18571065
18	0x3e62b75d	0.2214026
19	0x3cc3a643	0.02388299
20	0x3dd0359c	0.10166475
21	0x3d318352	0.043338127
22	0x3dac6428	0.08417541
23	0x3baa97b6	0.0052060736
24	0xbe5c1175	-0.21491034
25	0x3db3757c	0.08762643
26	0x3bb55665	0.0055339807
27	0xbdda1b14	-0.10649696
28	0x3c40ed1b	0.01177528
29	0xbd869f64	-0.0657337
30	0x3e0c970f	0.137295
31	0x3d21c993	0.039498877
32	0xbda77398	-0.08176345
33	0xbde176b2	-0.110089675
34	0xbe06e328	-0.1317259
35	0x3e715cbe	0.23570535
36	0x3e0d173b	0.13778393
37	0x3e929f01	0.28636935
38	0xbdaf96e3	-0.08573701
39	0x3d04f231	0.032457534
40	0x3e2c260c	0.16811389
41	0x3e24543c	0.16047758
42	0xbe03e0b4	-0.12878686
43	0x3dfad035	0.122467436
44	0x3dbe6e13	0.09298339
45	0xbc5a96eb	-0.013341646
46	0x3e654a7e	0.22391698
47	0xbe0ee53e	-0.13954636
48	0xbd0b5070	-0.034012258
49	0x3dc2505e	0.09487985
50	0xbe0caf93	-0.13738851
51	0x3e3f6ef8	0.18694675
52	0x3d9b5385	0.075842895
53	0x3bb235c6	0.005438539
54	0x3e105a42	0.1409693
55	0x3cc855d5	0.02445499
56	0xbe09323d	-0.1339807
57	0xbd9ac6e6	-0.07557468
58	0x3da4f343	0.08054211
59	0xbce0452b	-0.027376732
60	0x3a1cdf2f	0.00059841847
61	0xbcff2e45	-0.031149993
62	0x3c941b96	0.01807956
63	0xbdf5016f	-0.11963164
64	0x3da9cca4	0.08290985
65	0x3dded465	0.10880355
66	0x3d6b5664	0.057455435
67	0xbdb3c897	-0.08778494
68	0x3d1456bd	0.036215533
69	0xbe079824	-0.13241631
70	0x3d2b6e79	0.0418534
71	0x3dd3ec42	0.10347797
72	0xbb89e592	-0.004208275
73	0x3d075614	0.033041075
74	0xbd12490b	-0.03571419
75	0x3d46f3f4	0.048572496
76	0xbc5ff894	-0.0136701055
77	0x3e22f2bb	0.15912907
78	0x3dbf67bb	0.09345957
79	0x3e2163b4	0.1576069
80	0xbddd7a87	-0.10814386
81	0x3e334faa	0.17510858
82	0x3e096b38	0.13419807
83	0x3c804a4e	0.015660431
84	0xbe780df3	-0.24224071
85	0xbdd40294	-0.10352054
86	0xbd69fabd	-0.05712389
87	0xbce88f68	-0.028388694
88	0xbdafbba1	-0.08580709
89	0x3d2b577f	0.04183149
90	0xbd91e01f	-0.07122826
91	0xbd8dff5c	-0.069334716
92	0x3e7c230f	0.24622749
93	0x3d1dd7da	0.03853593
94	0x3d849795	0.064742245
95	0x3e3a4aea	0.1819264

output_layer.weight f4 [2, 32]
0	0x3e28d5e7	0.16487847
1	0xbdde0f12	-0.10842718
2	0xbe5df35d	-0.21674867
3	0xbe2388b8	-0.15970123
4	0x3d9a0741	0.07520915
5	0xba81ae47	-0.0009893858
6	0xbe2ccb4c	-0.16874427
7	0x3e09f3ce	0.1347191
8	0x3d908eb2	0.07058467
9	0xbcbfeabf	-0.023427365
10	0xbe3a2d64	-0.18181378
11	0x3df2ccf9	0.11855502
12	0xbe02b5f8	-0.12764728
13	0xbe174042	-0.14770606
14	0x3e839f98	0.25707698
15	0x3e19b8f8	0.15011966
16	0x3e5dc9de	0.21659037
17	0x3d5075a3	0.050893437
18	0x3be204cf	0.006897546
19	0xbe2b8bf2	-0.16752604
20	0xbe3ffd26	-0.18748912
21	0xbda0e05c	-0.07855293
22	0xbe6edf63	-0.23327403
23	0x3e74eb91	0.23917986
24	0x3d7ce5fd	0.06174277
25	0x3e6cf55b	0.2314047
26	0x3d9a8513	0.07544913
27	0xbe3733dd	-0.17890878
28	0x3e22bf54	0.15893298
29	0x3e5d8748	0.21633637
30	0xbe0a6fff	-0.13519286
31	0x3e140077	0.14453302
32	0x3b30838c	0.0026933877
33	0xbd810af7	-0.063009195
34	0x3cd6a3df	0.026201187
35	0x3e37dbf1	0.17954995
36	0x3e1ec8b9	0.15506257
37	0x3e3af9ad	0.18259306
38	0x3e6fefed	0.23431368
39	0xbd555544	-0.05208327
40	0xbe01a30f	-0.12659858
41	0x3e6a4d31	0.22881009
42	0x3d73b41a	0.05949793
43	0xbd94ce51	-0.07265914
44	0x3d51e9fe	0.051248543
45	0x3e2e78ad	0.17038222
46	0xbddd1c02	-0.10796358
47	0xbe15803a	-0.14599696
48	0xbe3c1a97	-0.18369518
49	0x3e274056	0.16333136
50	0xbe280a02	-0.16410068
51	0x3d3f0b47	0.046641614
52	0x3e04fcc2	0.12987044
53	0x3dbb003f	0.09130906
54	0x3e3ec9bb	0.18631642
55	0xbcdc7b89	-0.026914375
56	0xbdafb3ad	-0.08579192
57	0xbd775410	-0.060382903
58	0xbde4532d	-0.11148677
59	0x3e0d4931	0.13797452
60	0xbd6af4eb	-0.05736248
61	0xbe48d1f8	-0.19611347
62	0x3e3131a8	0.17304099
63	0xbde0f5b0	-0.10984361

output_layer.bias f4 [2]
0	0xbdf5aa03	-0.11995318
1	0xbe1221da	-0.14270726
