baselines_training/ehr_ipnets/split_3/checkpoint.pt (torch, 70947 bytes, 12 tensors)

single_channel_interp.kernel f4 [37]
0	0xbf39c453	-0.7256519
1	0xbea287c3	-0.31744203
2	0x3e588ac1	0.2114668
3	0x3eff6f38	0.4988954
4	0x3e0a6f5d	0.13519044
5	0xbf060306	-0.52348363
6	0xbe3a46df	-0.18191098
7	0x3f94b6db	1.1618303
8	0xbe992ecb	-0.29918513
9	0x3e46fedf	0.19433163
10	0x3c4f7782	0.01266277
11	0xbecc70d2	-0.39929825
12	0xbe1b7add	-0.15183587
13	0xbead40fc	-0.33838642
14	0xbe54ed8c	-0.20793742
15	0xbf28c37e	-0.659233
16	0xbe13401f	-0.14379929
17	0xbeccf03d	-0.40027037
18	0x3e864eae	0.26231903
19	0x3c0d2e74	0.008617032
20	0x3e29d9d5	0.16587003
21	0xbd4161f4	-0.047212556
22	0xbe1a1df1	-0.15050484
23	0xbe3442ca	-0.17603603
24	0xbe30675d	-0.1722693
25	0xbe8ac9fb	-0.27107224
26	0x3df11bd9	0.1177289
27	0xbedcf28b	-0.43153796
28	0x3c874241	0.016511085
29	0x3e48fa17	0.19626652
30	0x3e3041ef	0.17212652
31	0x3e52688a	0.20547691
32	0x3f857700	1.0426941
33	0x3ec06b41	0.37581828
34	0x3e49befd	0.19701762
35	0xbdb09698	-0.086224735
36	0x3e36579e	0.17806861

cross_channel_interp.cross_channel_interp f4 [37, 37]
0	0x3fab1109	1.3364574
1	0x3d34f4be	0.044178717
2	0xbdce6a59	-0.10078878
3	0x3e59a60b	0.21254747
4	0x3db71d46	0.0894113
5	0xbc57692f	-0.013147636
6	0xbd97bedf	-0.07409453
7	0x3d903bb9	0.07042641
8	0xbd443766	-0.047904395
9	0x3dbc9667	0.092083745
10	0x3e0fb0a1	0.14032222
11	0x3dcb13aa	0.0991586
12	0xbaea5d9f	-0.0017880684
13	0xbd32d013	-0.043655466
14	0x3e11f199	0.14252318
15	0xbd77cae7	-0.060496237
16	0x3e0aa4e4	0.13539463
17	0x3d82ae03	0.06380846
18	0xbd9632f1	-0.07333935
19	0xbc122d7d	-0.008921978
20	0x3c7de2c3	0.015495959
21	0x3d011dad	0.03152244
22	0xbc7bbd58	-0.015364967
23	0xbdbebb86	-0.09313111
24	0x3e44aaf8	0.19205844
25	0xbdb18fc4	-0.08669999
26	0x3af084b4	0.0018350095
27	0x3a44a0a5	0.00075007445
28	0x3dcd8600	0.10035324
29	0x3df900b0	0.12158334
30	0xbd80cf78	-0.062895715
31	0xbd5ca910	-0.053872168
32	0xbdc02eaa	-0.093839005
33	0xbd64fb3e	-0.055903666
34	0x3e06948d	0.13142605
35	0xbd408bc8	-0.047008306
36	0x3d902bc0	0.07039595
37	0x3cbb6b4f	0.022878317
38	0x3f8373c8	1.0269709
39	0xbe88296c	-0.26594102
40	0x3d9e8d0a	0.07741745
41	0x3aa68437	0.0012704198
42	0x3e31ef21	0.17376377
43	0x3e3dd546	0.18538389
44	0x3ec26f01	0.37975314
45	0x3e1acf5b	0.15118162
46	0x3da75802	0.08171083
47	0x3e559dd4	0.20860988
48	0xbe45dd8d	-0.19322796
49	0x3e69abda	0.22819462
50	0xbe96993a	-0.29413778
51	0xbe19dee1	-0.15026428
52	0x3e213d16	0.15745959
53	0x3e6086dc	0.21926445
54	0x3e5e2e2f	0.21697305
55	0xbe8333e5	-0.2562553
56	0x3e2e1929	0.17001785
57	0x3e89b82e	0.2689833
58	0xbd525c73	-0.051357698
59	0xbe240772	-0.16018465
60	0x3e1eb2e2	0.15497926
61	0x3e4f435a	0.20240536
62	0xbed1fc62	-0.41012865
63	0xbdf34431	-0.11878241
64	0xbd35c9a3	-0.04438175
65	0x3df0890f	0.11744892
66	0xbdde38e5	-0.108506955
67	0x3c2105d8	0.009828053
68	0xbd080b8e	-0.033214144
69	0xbe6a05a4	-0.22853714
70	0xbd1e065d	-0.038580287
71	0xbd1296f8	-0.035788506
72	0x3dff365a	0.124615386
73	0xbe5cf7c7	-0.21578895
74	0x3ddcd5a9	0.1078294
75	0xbd3547da	-0.044257976
76	0x3f7bc2b1	0.9834395
77	0x3f4a9644	0.7913554
78	0x3e0e8879	0.13919248
79	0xbe7d1f3c	-0.24718946
80	0xbe3b608c	-0.18298548
81	0x3e054926	0.13016185
82	0xbd1432bb	-0.036181193
83	0x3e3d2acb	0.18473355
84	0xbdf01a67	-0.11723786
85	0x3ce145b4	0.027499057
86	0xbbc94be0	-0.006143078
87	0x3d9fa814	0.0779573
88	0x3d212ae9	0.039347563
89	0xbb15ecdd	-0.0022876777
90	0xbcc9b0ee	-0.0246205
91	0xbe1b672d	-0.15176077
92	0xbd2cf65b	-0.04222713
93	0x3d5174b7	0.0511367
94	0x3c85bf99	0.016326712
95	0x3e04332b	0.12910144
96	0x3dc67c66	0.09691696
97	0x3e6454fe	0.22298047
98	0x3e0772e3	0.1322742
99	0x3d594a5e	0.053049438
100	0xbd0b4703	-0.03400327
101	0xbdb9e9a5	-0.09077767
102	0x3e1e5278	0.15461147
103	0x3d268c32	0.040661044
104	0xbdc36a87	-0.09541803
105	0x3ccd11b8	0.025032863
106	0xbd6dea03	-0.0580845
107	0x3c434faa	0.011920849
108	0xbc957e5d	-0.018248731
109	0x3d8c06ff	0.06837272
110	0x3c28284c	0.010263514
111	0x3cca5949	0.024700778
112	0x3d80df8f	0.062926404
113	0x3f161dd9	0.58639294
114	0x3f8fc158	1.1230879
115	0x3d3e596f	0.04647201
116	0xbd6af262	-0.05736006
117	0xbdc44ea2	-0.095853105
118	0x3e679100	0.22613907
119	0x3d9c948d	0.07645521
120	0x3e78d328	0.242993
121	0xbc5acff4	-0.013355244
122	0xbdad715c	-0.08468887
123	0x3df4ff10	0.11962712
124	0xbd8811ff	-0.066440575
125	0x3cb33f78	0.02188085
126	0x3e57f6f9	0.21090306
127	0x3afe9334	0.0019422532
128	0x3d5ed38f	0.054400977
129	0xbd927380	-0.07150936
130	0x3e42cf92	0.19024494
131	0x3e175ba1	0.14781047
132	0x3cdf9a2a	0.02729519
133	0xbd56b540	-0.052418947
134	0x3e413ea5	0.18871553
135	0x3df48091	0.119385846
136	0xbd318565	-0.043340106
137	0xbe0cec0e	-0.13761923
138	0xbe479a9c	-0.19492573
139	0x3de12d61	0.109949835
140	0xbdbacb17	-0.091207676
141	0x3cdec48e	0.027193334
142	0x3bb571c8	0.0055372454
143	0xbdfde98b	-0.123980604
144	0x3d3cf23d	0.046129454
145	0xbd9fcfbf	-0.07803296
146	0x3e579fbf	0.21057032
147	0xbe10fc54	-0.14158756
148	0x3e0d03ad	0.13770933
149	0xbe86076c	-0.26177537
150	0x3ec46759	0.38360098
151	0xbbf975f8	-0.00761294
152	0x3f8493a9	1.0357562
153	0xbed0f70b	-0.4081348
154	0xbe372993	-0.17886953
155	0xbe7c0329	-0.2461058
156	0xbc85b0c9	-0.01631965
157	0x3d8e5179	0.069491334
158	0xbee8d4b6	-0.45474786
159	0x3ed9ed6f	0.4256396
160	0xbedb20af	-0.42798373
161	0x3e6177e3	0.2201839
162	0x3d37c5ad	0.044866253
163	0xbe88d6d7	-0.2672641
164	0x3d5799b6	0.052636825
165	0xbeabf162	-0.33582598
166	0x3e39c9cf	0.1814339
167	0xbeba651b	-0.36405262
168	0xbe667515	-0.22505601
169	0x3e1f6707	0.15566646
170	0x3e7a2cf4	0.24431211
171	0x3e49ad2e	0.19694969
172	0xbe2f501d	-0.17120405
173	0x3dfc6364	0.12323645
174	0x3e506344	0.20350367
175	0x3e20da9a	0.1570839
176	0x3ddc230f	0.107488744
177	0x3e26a7e5	0.16274984
178	0x3e025d84	0.12730986
179	0x3e4e106c	0.20123452
180	0x3ed0f65d	0.4081296
181	0x3d8c7b0a	0.06859405
182	0x3eab2a45	0.33430687
183	0xbea7dfa4	-0.32787812
184	0x3eb04a2b	0.34431586
185	0xbe831d17	-0.2560813
186	0x3ebf9cb8	0.37424254
187	0xbd35d80d	-0.044395495
188	0x3ca74a13	0.020421064
189	0xbdfe9624	-0.12430981
190	0x3f7d5129	0.98951966
191	0x3eb23345	0.3480474
192	0xbdb4c5bc	-0.08826777
193	0x3f68446e	0.90729415
194	0xbdbf5488	-0.09342295
195	0x3dca9bef	0.09893023
196	0xbe957694	-0.2919203
197	0x3e14f4e3	0.14546542
198	0xbef3e6f6	-0.47637147
199	0x3ccec2d2	0.025239382
200	0x3de30dbf	0.11086606
201	0x3ee71602	0.45133978
202	0x3e299d95	0.16564019
203	0xbe17bb34	-0.14817506
204	0x3e737005	0.23773201
205	0x3f1a2649	0.6021467
206	0xbe48a316	-0.19593462
207	0xbe667e86	-0.22509202
208	0xbe09350b	-0.1339914
209	0x3cae4193	0.021271503
210	0xbd86bb70	-0.065787196
211	0x3dca669f	0.09882855
212	0xbe811570	-0.25211668
213	0xbe11f2c6	-0.14252767
214	0xbdcc21c3	-0.09967377
215	0x3d5a3b1f	0.05327904
216	0xbbb5f9d4	-0.0055534635
217	0xbdeff288	-0.11716181
218	0x3e693020	0.22772264
219	0xbd4b8582	-0.04968787
220	0x3d88b7f6	0.06675713
221	0xbe885420	-0.26626682
222	0xbec34359	-0.3813732
223	0x3f0581e0	0.521513
224	0xbe653e30	-0.22387004
225	0xbe0ac2cf	-0.13550876
226	0xbe622eb0	-0.22088122
227	0x3edbd48d	0.429356
228	0x3f86db0e	1.05356
229	0x3e2b6f3c	0.16741651
230	0xbdaeee0f	-0.085415
231	0x3e68a566	0.22719344
232	0x3ed23f13	0.41063747
233	0xbef0ae2c	-0.47007883
234	0x3d423b8a	0.047420062
235	0xbec85582	-0.39127737
236	0x3dbc219b	0.09186097
237	0x3e83e32a	0.2575925
238	0xbd8d6143	-0.06903317
239	0x3efe26bc	0.49638927
240	0xbe6a4ef6	-0.22881684
241	0x3f0b5d05	0.5443881
242	0x3ec5548b	0.38541064
243	0xbef1a72f	-0.47197863
244	0xbea23159	-0.31678274
245	0x3e019902	0.12656024
246	0x3e77cb4e	0.24198648
247	0xbece0515	-0.40238252
248	0xbee22e2d	-0.44175854
249	0xbf021418	-0.5081191
250	0x3d55ea92	0.052225657
251	0xbeb04982	-0.34431082
252	0xbe11146f	-0.14167951
253	0xbe67e146	-0.22644529
254	0xbee071fd	-0.43836966
255	0x3d53371b	0.051566225

demo_encoder.0.weight f4 [32, 8]
0	0xbebd7c4d	-0.37008896
1	0x3ebdaf43	0.37047777
2	0x3eb2c9ef	0.34919688
3	0x3e560f17	0.20904194
4	0xbc8e496e	-0.017368998
5	0x3f049fd2	0.51806366
6	0x3ebb13e2	0.36538607
7	0xbd4ecf9e	-0.050490968
8	0xbec1dee2	-0.3786536
9	0xbe20c6df	-0.15700863
10	0x3e5773c5	0.21040256
11	0x3e1460a4	0.1448999
12	0xbbed0510	-0.0072332695
13	0x3e2391b2	0.15973547
14	0xbd4e5e62	-0.05038298
15	0x3dd010d4	0.1015946
16	0x3df0553f	0.117350094
17	0xbeadfbab	-0.3398107
18	0xbb7b16af	-0.003831308
19	0x3dc19409	0.094520636
20	0x3e9a8cf5	0.30185667
21	0x3c82b441	0.015955092
22	0x3e9126fe	0.2835006
23	0x3ee70156	0.45118207
24	0xbd921472	-0.07132806
25	0x3ea6c900	0.32575226
26	0xbf03ac39	-0.51434666
27	0xbeddc510	-0.4331441
28	0x3ea21f2b	0.31664404
29	0xbf168a06	-0.5880436
30	0xbb118433	-0.002220404
31	0x3dcfa4cd	0.10138855
32	0x3d3b3c3e	0.04571175
33	0xbe022e53	-0.12712984
34	0x3e43f2cf	0.19135593
35	0x3ecf6849	0.4050925
36	0xbeb8435c	-0.3598889
37	0x3ee32f24	0.44371903
38	0xbe1e22ff	-0.15443037
39	0xbe161860	-0.14657736
40	0xbe7a6d97	-0.24455868
41	0x3db901c6	0.090335414
42	0xbd32d750	-0.04366237
43	0x3eb04104	0.34424603
44	0xbef88f3f	-0.48546788
45	0x3e2713a3	0.16316085
46	0x3e1020b8	0.14074981
47	0x3ecfbf33	0.4057556
48	0x3de5bc0f	0.1121751
49	0xbde1921f	-0.110141985
50	0xbe3c5bb1	-0.18394352
51	0x3ec074dd	0.3758916
52	0xbef9e766	-0.48809355
53	0x3eff7781	0.49895862
54	0x3b051fd1	0.0020313154
55	0xbef06b1b	-0.46956715
56	0x3eb50d79	0.3536184
57	0x3e21578a	0.1575605
58	0x3e84c4dd	0.25931445
59	0xbe317e41	-0.17333318
60	0xbeefdaea	-0.46846706
61	0x3dc5a6d9	0.09650964
62	0xbde73960	-0.1129024
63	0x3f004a6b	0.5011355
64	0xbe63496b	-0.22195975
65	0xbe0000ca	-0.12500301
66	0xbd754db2	-0.05988855
67	0xbe755856	-0.23959479
68	0xbe89292b	-0.2678922
69	0xbe9de9f4	-0.30842555
70	0xbe132930	-0.1437118
71	0x3e38cd47	0.18047057
72	0x3e0b6ec9	0.1361648
73	0xbe99364c	-0.29924238
74	0x3e34e74e	0.1766636
75	0x3e39c78d	0.18142529
76	0x3ecc5afb	0.39913163
77	0xbf07d7fd	-0.53063947
78	0x3d8569ce	0.06514321
79	0xbdcd5eac	-0.10027823
80	0x3e933429	0.28750733
81	0xbcca463d	-0.024691695
82	0x3e79678a	0.24355903
83	0xbd2e0bd8	-0.042491764
84	0xbeef0e90	-0.46690798
85	0xbea00c69	-0.31259468
86	0xbe2fbe28	-0.17162383
87	0xbe043ea8	-0.12914526
88	0xbcf2259e	-0.029558953
89	0xbe883775	-0.2660481
90	0xbe1822b7	-0.14856993
91	0x3eaf0f17	0.341912
92	0x3ece9885	0.40350738
93	0xbeeaa1e7	-0.45826647
94	0xbe3c8690	-0.18410707
95	0x3ea31334	0.31850588
96	0x3c98e947	0.018665923
97	0x3e9b58e8	0.30341268
98	0x3e41ba2d	0.18918677
99	0x3e9c5217	0.3053138
100	0xbebc6eeb	-0.36803374
101	0xbd6debfd	-0.058086384
102	0x3e0766c6	0.13222799
103	0x3e4ebb84	0.20188719
104	0x3dbc8e01	0.092067726
105	0xbcfcd3b1	-0.030862661
106	0xbd089f12	-0.033354826
107	0x3c8441b0	0.016144603
108	0xbe3c7f7a	-0.18408003
109	0x3db92f0c	0.090421766
110	0xbe03a2be	-0.1285505
111	0x3d45eafc	0.0483198
112	0xbeb592b9	-0.35463503
113	0x3dce9541	0.10087062
114	0x3bf1e236	0.007381703
115	0x3da98042	0.08276416
116	0xbecfc50d	-0.40580025
117	0x3ec2e04a	0.38061744
118	0xbeba4dc9	-0.3638747
119	0x3e247637	0.1606072
120	0xbe837e61	-0.25682357
121	0x3eba314c	0.36365736
122	0xbe8f53ee	-0.2799372
123	0xbe050ad7	-0.12992416
124	0xbc630bd0	-0.013857797
125	0x3f0cc363	0.54985636
126	0x3ebec357	0.37258407
127	0xbe713593	-0.23555593
128	0xbe4f49f4	-0.20243055
129	0xbe8d7467	-0.2762787
130	0xbdd2cf18	-0.10293406
131	0xbeb80af4	-0.35945857
132	0xbf10be00	-0.56539917
133	0xbebf2066	-0.37329406
134	0xbe3b4f82	-0.18292049
135	0x3e610696	0.21975169
136	0xbe9a34fb	-0.30118546
137	0x3e479e7b	0.19494049
138	0xbe44e95b	-0.19229643
139	0x3eb7a379	0.35866907
140	0xbf2667a1	-0.65001875
141	0x3e8bb874	0.27289164
142	0xbc2a392e	-0.010389609
143	0x3eee432f	0.46535632
144	0xbe4f42dd	-0.2024035
145	0xbe9df7f9	-0.3085325
146	0x3e5d05f5	0.21584304
147	0xbbaa2776	-0.0051926924
148	0xbeeb3c05	-0.4594423
149	0xbeae95c6	-0.34098643
150	0x3e4e2312	0.20130566
151	0x3ef999ce	0.48750156
152	0x3e6dffb8	0.2324208
153	0x3d111fe8	0.03543082
154	0x3e2460cb	0.16052549
155	0x3e46fe94	0.19433051
156	0xbe9c9ae7	-0.3058693
157	0x3ce02de1	0.027365627
158	0x3e1a0687	0.15041552
159	0x3e99c808	0.30035424
160	0xbe0698ae	-0.1314418
161	0xbd1f9b84	-0.03896667
162	0xbe3b8a67	-0.18314515
163	0xbefec226	-0.49757499
164	0x3ca1e608	0.019763008
165	0xbf0fd332	-0.56181633
166	0xbee5ae92	-0.4485975
167	0x3f429be4	0.7601912
168	0x3e1cb3c1	0.15302946
169	0xbe7f1f2a	-0.24914232
170	0x3d19cfc0	0.03755164
171	0xbe856d0a	-0.26059753
172	0x3dc94374	0.09827319
173	0xbdcf1063	-0.101105474
174	0x3ef22454	0.4729334
175	0x3ccc0cc8	0.024908438
176	0xbe0083ad	-0.1255023
177	0x3e6f66af	0.23379014
178	0x3ea9cf98	0.33166194
179	0xbe4a51eb	-0.19757812
180	0xbd479ec6	-0.048735403
181	0xbd9c40ed	-0.07629571
182	0x3cc6f4cf	0.024286656
183	0xbf157aba	-0.5839039
184	0x3df750ca	0.12075956
185	0xbe38ec09	-0.1805879
186	0x3dfac8de	0.122453436
187	0x3ade8b13	0.0016978703
188	0x3e1eb575	0.15498908
189	0x3f468bf4	0.775573
190	0x3d0acf2e	0.03388899
191	0xbefc76fb	-0.49309525
192	0x3e9ffec1	0.3124905
193	0x3dab62e4	0.08368471
194	0xbe401a14	-0.18759948
195	0xbd15e3fc	-0.036594376
196	0xbe781a0d	-0.24228688
197	0xbd5e0e33	-0.05421276
198	0xbea253cc	-0.31704557
199	0x3e71b5e4	0.23604542
200	0xbd17b1da	-0.037034847
201	0x3e9dc68b	0.3081554
202	0x3d11dbb3	0.035609912
203	0xbefedff3	-0.49780235
204	0x3dbffa9a	0.0937397
205	0x3d5c0190	0.053712428
206	0x3ec04d1a	0.37558824
207	0xbe9b62e9	-0.303489
208	0xbed9768c	-0.42473257
209	0xbf15fb1b	-0.5858628
210	0x3ee3ca70	0.44490385
211	0xbefe285a	-0.4964016
212	0x3e9ee0dc	0.3103093
213	0xbb96138b	-0.0045799664
214	0xbda2e6bd	-0.07954166
215	0x3e02501f	0.12725876
216	0x3eaa7080	0.33288956
217	0x3e933261	0.28749374
218	0xbd66e4d9	-0.05637059
219	0x3ea1dc2a	0.31613284
220	0xbc0d924e	-0.008640839
221	0xbd754150	-0.05987674
222	0x3ec227f3	0.37921104
223	0x3ebb3410	0.36563158
224	0xbf0a35bc	-0.5398824
225	0xbda151f7	-0.07876962
226	0x3e0899f1	0.13339974
227	0x3dc73845	0.097275294
228	0xbe4b115d	-0.19830842
229	0xbd65761b	-0.056020837
230	0xbe7f0bcd	-0.24906845
231	0x3effbfe0	0.49951077
232	0x3c2bd5e5	0.010488008
233	0xbec69531	-0.387857
234	0x3ed284cd	0.41116944
235	0x3eee89d6	0.46589535
236	0x3c26dffd	0.010185239
237	0x3df96ba0	0.12178731
238	0x3e7f22e0	0.24915648
239	0xbd6690d8	-0.056290478
240	0xbcd768eb	-0.026295146
241	0x3c1fbdd6	0.00974985
242	0x3dd8f671	0.1059388
243	0xbeac6ed9	-0.3367832
244	0x3d850934	0.06495896
245	0x3f02078b	0.5079276
246	0xbeb50295	-0.35353532
247	0xbe82913e	-0.25501436
248	0x3ea806dc	0.32817733
249	0xbe92d591	-0.28678563
250	0x3bc6cace	0.0060666567
251	0x3ea8e382	0.32986075
252	0xbdce0110	-0.100587964
253	0xbddff1c9	-0.10934789
254	0x3e52b63d	0.20577331
255	0xbea86f89	-0.32897595

demo_encoder.0.bias f4 [32]
0	0x3eba1cc1	0.36350062
1	0x3e954670	0.29155302
2	0x3da47987	0.08030992
3	0xbe4e3d91	-0.20140673
4	0x3db74a27	0.0894969
5	0x3e069dbd	0.1314611
6	0x3db1fe5f	0.086910956
7	0x3ecc545e	0.39908117
8	0xbda5d33a	-0.08096929
9	0xbd7f2b9d	-0.062297452
10	0x3ec00613	0.37504634
11	0x3ea0185f	0.31268594
12	0x3e18c054	0.14917117
13	0xbe610cd8	-0.21977556
14	0x3e72a619	0.23696174
15	0xbdae5d23	-0.08513858
16	0x3df3fe2d	0.119137146
17	0xbe6347b5	-0.22195323
18	0x3e9fadea	0.31187373
19	0x3d8126d4	0.06306234
20	0x3cd40e17	0.025885625
21	0x3e7f74db	0.2494692
22	0x3ddcbf34	0.107786566
23	0x3edf2143	0.43580064
24	0xbdb0e208	-0.08636862
25	0xbe7ecf18	-0.24883687
26	0xbe93cbbe	-0.2886638
27	0x3d0ece8f	0.03486496
28	0x3e3cec2c	0.18449467
29	0xbd229f27	-0.03970256
30	0x3eca50df	0.39514825
31	0xbd59ee35	-0.053205688

demo_encoder.2.weight f4 [32, 32]
0	0x3e812f33	0.25231323
1	0x3e59064d	0.2119381
2	0xbe456b6a	-0.19279256
3	0x3e702f1f	0.23455475
4	0x3e53ff62	0.2070289
5	0x3e2e3d08	0.17015469
6	0x3eb6becf	0.3569245
7	0xbe0a2afc	-0.1349296
8	0x3e411118	0.18854177
9	0xbe8c377c	-0.2738608
10	0xbe4e3b0f	-0.20139717
11	0xbe5cf767	-0.21578752
12	0x3e452505	0.19252403
13	0x3dc613cc	0.09671745
14	0x3e3c1fc5	0.18371494
15	0xb9ffc2bc	-0.0004878248
16	0x3e34e74b	0.17666356
17	0x3daa155d	0.08304856
18	0x3dda1a21	0.10649515
19	0x3d754839	0.05988333
20	0x3cfb692c	0.030689798
21	0xbdeb0207	-0.11474996
22	0xbd0efec3	-0.03491093
23	0x3e55a3a4	0.20863205
24	0xbe607779	-0.21920575
25	0xbe011990	-0.12607408
26	0xbe04deec	-0.12975663
27	0xbdb40c4b	-0.08791407
28	0x3e620aa1	0.22074367
29	0x3e4104e5	0.18849523
30	0x3e46194a	0.19345585
31	0xbd7268ba	-0.059181906
32	0x3d7c0af4	0.061533883
33	0xbd0a0af9	-0.03370187
34	0xbe2db3fa	-0.16963187
35	0xbd75d5ca	-0.06001834
36	0xbe0755bd	-0.132163
37	0xbdfd3b5a	-0.12364836
38	0x3df751d3	0.120761536
39	0xbe54ad1d	-0.20769162
40	0xbe8f620d	-0.28004494
41	0x3cb927eb	0.022602042
42	0xbdf7a782	-0.120924965
43	0xbe1c7c13	-0.15281706
44	0xbe713b00	-0.23557663
45	0x3dfc1562	0.12308766
46	0x3d3b3ca0	0.045712113
47	0xbdf7ae2d	-0.12093768
48	0xbe8b13fe	-0.2716369
49	0x3d984807	0.07435613
50	0xbd227fc6	-0.039672635
51	0xbe0ba663	-0.1363769
52	0xbe7a280d	-0.2442934
53	0xbcebe1fa	-0.028794277
54	0xbe017b07	-0.12644587
55	0x3c02c2e1	0.007981033
56	0xbe169a28	-0.14707243
57	0xbd09e0b9	-0.033661578
58	0x3ca51b75	0.020154694
59	0xbe8b9eda	-0.27269632
60	0x3dfc02c9	0.12305219
61	0xbe25b7b4	-0.16183358
62	0xbe138644	-0.14406687
63	0x3c7ae771	0.015313969
64	0x3d9dac24	0.07698849
65	0x3e3be281	0.18348123
66	0xbdfc3342	-0.12314464
67	0x3e0e45ac	0.13893765
68	0x3e02edce	0.12786028
69	0xbe226bee	-0.15861484
70	0x3e5c4f2b	0.21514575
71	0x3dbab0a6	0.09115724
72	0x3de23086	0.11044411
73	0x3dea271b	0.1143324
74	0xbe3bf39d	-0.1835465
75	0xbce602b1	-0.028077455
76	0x3d106cc4	0.035259977
77	0x3d993a6b	0.074818455
78	0x3d95d2aa	0.073155716
79	0x3e002e9e	0.12517783
80	0x3e017598	0.12642515
81	0xbd53e1ac	-0.05172889
82	0xbe86a67f	-0.262989
83	0xba5bbff8	-0.00083827926
84	0xbdb4c679	-0.08826918
85	0xbcfc5c5e	-0.030805763
86	0xbe0b89b1	-0.13626744
87	0x3e9484d4	0.2900759
88	0xbc06cbc6	-0.008227294
89	0x3cb75fdc	0.022384576
90	0xbe8ee2d3	-0.27907428
91	0x3a06438a	0.00051217584
92	0x3ca92fcf	0.02065268
93	0x3e0ec20c	0.1394121
94	0x3e7be26f	0.24598096
95	0xbd8baae3	-0.068197034
96	0x3e9268cd	0.28595582
97	0x3e9417c9	0.28924397
98	0xbe20b364	-0.15693432
99	0x3eca9d4d	0.39573136
100	0x3e754d2a	0.23955217
101	0x3e8a3e79	0.27000788
102	0x3e510d2b	0.2041518
103	0xbd99b199	-0.07504577
104	0x3d50ec1d	0.051006425
105	0xbdc81141	-0.09768916
106	0xbe3bafbb	-0.18328755
107	0x3e1356f3	0.14388637
108	0x3d7c4ffe	0.061599724
109	0xbde84bb9	-0.11342568
110	0x3e3b52e3	0.18293338
111	0xbd45fac4	-0.04833485
112	0x3d603106	0.054734252
113	0xbb0ed0c3	-0.0021791912
114	0x3ca55921	0.020184102
115	0x3dd1a81e	0.10237144
116	0xbd8b1037	-0.06790202
117	0x3deaed90	0.11471093
118	0x3dadd180	0.084872246
119	0xbdf4d333	-0.119543456
120	0xbc6a3306	-0.0142943915
121	0x3df11bbb	0.11772867
122	0x3e23f522	0.1601148
123	0x3d2cb4d5	0.042164642
124	0x3e02ef33	0.1278656
125	0x3e6fa8d4	0.23404247
126	0x3d549571	0.05190033
127	0xbd220e4f	-0.039564427
128	0xbe0944dd	-0.13405176
129	0x3c5b1c0a	0.013373384
130	0x3d002f5e	0.031295173
131	0x3e655dea	0.22399107
132	0x3e8b3866	0.27191466
133	0x3d925fe9	0.071472
134	0x3e6fdfef	0.23425268
135	0x3d7eda31	0.062219802
136	0xbcc7b13a	-0.0243765
137	0xbec45457	-0.38345596
138	0x3e92543f	0.285799
139	0x3dca39b6	0.09874289
140	0x3d92ecfe	0.07174109
141	0xbcdd4fbd	-0.027015561
142	0xbdacc5b7	-0.084361486
143	0x3d360f2c	0.044448063
144	0xbe4b2b36	-0.19840702
145	0x3e953b5e	0.29146856
146	0x3cd8fc07	0.026487364
147	0x3eaa3f02	0.33251196
148	0xbe023b5d	-0.12717958
149	0x3e1542a9	0.1457621
150	0xbe43a2c1	-0.19105054
151	0xbdbbd445	-0.091713466
152	0x3e59da44	0.21274668
153	0x3c7f8d0c	0.015597593
154	0xbe85bf03	-0.26122293
155	0x3ecabbd3	0.39596424
156	0xbd2403b2	-0.040042587
157	0xbe18a983	-0.14908414
158	0xbe7d663f	-0.24746035
159	0x3e26ba48	0.16281998
160	0xbdf78e86	-0.12087731
161	0xbe8060bc	-0.25073802
162	0xbe394983	-0.18094449
163	0xbebccdbd	-0.36875716
164	0xbc8b2f08	-0.0169902
165	0xbee80bd2	-0.45321518
166	0xbea41d03	-0.32053384
167	0xbe441083	-0.19146924
168	0xbe74c693	-0.23903875
169	0x3e7c9bda	0.24668828
170	0x3db879ec	0.0900763
171	0x3dcc8e2d	0.099880554
172	0xbe51b4c6	-0.20479116
173	0x3db5f626	0.0888484
174	0xbe1e83c4	-0.15479952
175	0xbdd2d35a	-0.10294218
176	0xbdc6d1c8	-0.09707981
177	0xbe88406a	-0.26611644
178	0xbe253472	-0.16133288
179	0xbd957d67	-0.07299309
180	0x3dd04d2f	0.101709716
181	0xbe677bcd	-0.2260582
182	0xbe3e4f0b	-0.1858484
183	0xbb1ec6de	-0.002422742
184	0xbe3f92cb	-0.18708341
185	0xbea7958b	-0.3273128
186	0xbcc1d650	-0.023661762
187	0xbd92c820	-0.07167077
188	0xbe068819	-0.13137855
189	0xbe4aaf9c	-0.19793552
190	0xbe8c11c9	-0.2735732
191	0x3e8c3846	0.27386683
192	0xbe78e5ec	-0.24306458
193	0xbe537b2c	-0.20652455
194	0xbe633d9e	-0.22191474
195	0x3e27ed7b	0.16399185
196	0xbd8408a3	-0.0644696
197	0xbd828e14	-0.063747555
198	0x3e71a964	0.23599774
199	0xbcef54a9	-0.029215174
200	0x3d5a9642	0.053365953
201	0xbef6cf46	-0.48205012
202	0xbe322ee7	-0.17400704
203	0xbdf3176a	-0.118697
204	0xbe71a029	-0.23596253
205	0xbe330334	-0.1748169
206	0x3dd2968f	0.10282623
207	0x3e2666cb	0.1625015
208	0x3e2fb001	0.17156984
209	0x3e2b521f	0.16730545
210	0x3d822b37	0.06355899
211	0xbdde1afa	-0.10844989
212	0x3dea66ad	0.11445365
213	0xbdaa654d	-0.08320103
214	0x3dca5235	0.09878961
215	0xbc94b22d	-0.018151367
216	0x3de4dbd7	0.111747436
217	0x3d023b69	0.03179494
218	0x3cae375e	0.021266636
219	0xbbfbfb6b	-0.0076898835
220	0x3dc8fef7	0.09814256
221	0xbe55896e	-0.20853207
222	0x3d8b0bd4	0.067893654
223	0xbe94b3a0	-0.29043293
224	0xbe751811	-0.23934962
225	0xbe49958a	-0.19685951
226	0xbd91ed37	-0.07125323
227	0xbea09e90	-0.31370974
228	0xbd8853ba	-0.066565946
229	0xbc85442b	-0.016267857
230	0xbe539f59	-0.20666255
231	0xbde72b7e	-0.11287592
232	0xbd0f9948	-0.03505829
233	0x3e9f567d	0.31120673
234	0xbdcaabc2	-0.098960415
235	0xbca19939	-0.019726383
236	0xbda83116	-0.082124874
237	0xbdfb02ba	-0.122563794
238	0xbe6c80e2	-0.2309604
239	0xbe7bbd68	-0.24583972
240	0xbdfdddf1	-0.123958476
241	0xbece5ab2	-0.4030357
242	0xbe37135b	-0.17878477
243	0x3d4731e5	0.048631568
244	0x3d662336	0.056185924
245	0xbe21f40e	-0.15815756
246	0xbdb328bd	-0.087480046
247	0x3cda1f22	0.026626173
248	0x3ddb869a	0.107190326
249	0xbe9dc8f6	-0.30817384
250	0xbdc2f7b8	-0.09519905
251	0xbe2ca36e	-0.16859218
252	0xbea3f1fc	-0.32020557
253	0x3d950527	0.07276373
254	0xbdd542c2	-0.10413124
255	0x3d5ea98b	0.054360908

demo_encoder.2.bias f4 [32]
0	0x3d5451e2	0.051835902
1	0xbd83074d	-0.06397877
2	0x3e3f260d	0.18666859
3	0x3d9adb28	0.07561332
4	0xbde67a23	-0.112537645
5	0xbe29bcd5	-0.1657594
6	0xbcd6ddbd	-0.02622878
7	0xbe15eb16	-0.1464046
8	0xbe5e1972	-0.21689394
9	0x3e1670be	0.14691445
10	0xbd84b73a	-0.0648026
11	0x3e8aa4d2	0.27078873
12	0xbe7bc442	-0.24586585
13	0xbe23af64	-0.15984875
14	0x3d9b2538	0.07575458
15	0xbd132e63	-0.03593291
16	0x3c8cfdbf	0.01721084
17	0xbde6b355	-0.112646736
18	0xbdf2639e	-0.11835407
19	0xbb441b1d	-0.0029923387
20	0xbe48cb2e	-0.19608757
21	0x3c1a3e67	0.009414292
22	0xbc7609a4	-0.015016947
23	0xbda718d8	-0.081590354
24	0xbd3a3607	-0.04546168
25	0x3dff652b	0.12470468
26	0xbdc9c233	-0.09851494
27	0xbe1671db	-0.1469187
28	0xbd83e489	-0.06440074
29	0x3de82f31	0.11337126
30	0x3e19512d	0.14972372
31	0x3e30bbd1	0.17259146

gru.weight_ih_l0 f4 [96, 111]
0	0xbe04dee6	-0.12975654
1	0xbe5bc890	-0.21463227
2	0x3e23d330	0.1599853
3	0x3dfd6c23	0.12374141
4	0x3d710f17	0.05885228
5	0xbe3dee8e	-0.18548033
6	0x3c9a154a	0.01880898
7	0xbe813a15	-0.25239626
8	0x3e43100a	0.19049087
9	0xbc9c27b9	-0.01906191
10	0xbc2b0afd	-0.0104396315
11	0xbdc78260	-0.09741664
12	0x3e3842a7	0.17994176
13	0x3d8e4d70	0.06948364
14	0xbd532af3	-0.05155463
15	0xbe0addd5	-0.13561185
16	0x3e34152a	0.17586198
17	0x3d5f59bd	0.05452894
18	0x3e0055c8	0.12532723
19	0xbebf219f	-0.37330338
20	0xbd862416	-0.065498516
21	0xbd32582f	-0.04354113
22	0x3d0f35bf	0.034963366
23	0x3e99480c	0.2993778
24	0x3d92f09a	0.07174797
25	0xbcb31f65	-0.021865556
26	0x3e104d42	0.14091972
27	0xbbedb240	-0.007253915
28	0xbe77ea0a	-0.24210373
29	0xbdd14a98	-0.10219306
30	0x3e7af43e	0.24507234
31	0x3ea729d6	0.32649106
32	0x3e5891f8	0.21149433
33	0xbd42df45	-0.047576208
34	0xbd2a697a	-0.041604497
35	0xbcc54229	-0.0240794
36	0x3dbd22c4	0.09235147
37	0x3e417a30	0.18894267
38	0x3ca54fb8	0.020179614
39	0x3db82e53	0.08993211
40	0x3e10208e	0.14074919
41	0xbcf42da8	-0.029806927
42	0xbe651456	-0.22371039
43	0x3c8a26da	0.016864229
44	0x3e85a5db	0.261031
45	0xbdcfc0b6	-0.101441786
46	0x3e692c9e	0.22770926
47	0x3ca43484	0.020044573
48	0xbd514d47	-0.051099088
49	0x3d3a8382	0.045535572
50	0x3dd6ef14	0.10494819
51	0x3d22246e	0.039585523
52	0xbd343159	-0.043992374
53	0x3c3d387f	0.011549114
54	0x3df2fdcd	0.11864815
55	0x3d633bce	0.055476956
56	0x3e61304c	0.2199108
57	0xbce10434	-0.027467825
58	0xbe4ce5f4	-0.20009595
59	0xbe90fe79	-0.28319147
60	0xbe33b684	-0.17550093
61	0xbdeb7095	-0.11496083
62	0x3dff6478	0.12470335
63	0x3de424b6	0.111398146
64	0xbe11cefe	-0.14239118
65	0x3e26b87a	0.1628131
66	0x3e5d8be4	0.21635395
67	0xbd96a501	-0.07355691
68	0xbc2b8fc8	-0.010471292
69	0x3e51e0ca	0.20495906
70	0x3e551c03	0.20811467
71	0xbe1a454c	-0.15065497
72	0xbc8d7504	-0.017267711
73	0x3e0238fd	0.12717052
74	0xbd44deaf	-0.04806393
75	0xbe146dfb	-0.14495079
76	0xbe29095c	-0.16507477
77	0xbea4eaca	-0.3221038
78	0x3dca9c9e	0.098931536
79	0x3e47cc52	0.19511536
80	0x3e1f7571	0.15572144
81	0x3e71a4c2	0.23598006
82	0xbc79d972	-0.015249597
83	0x3e559cd8	0.20860612
84	0x3dd1c68d	0.10242949
85	0xbe24ed77	-0.1610621
86	0x3e89add8	0.26890445
87	0xbd83d2b7	-0.06436675
88	0x3e0ef550	0.13960767
89	0x3db06b20	0.086141825
90	0xbd3598e7	-0.044335272
91	0xbea01373	-0.3126484
92	0x3e1c991c	0.15292782
93	0x3f1a5103	0.60279864
94	0x3dbbabac	0.09163603
95	0xbd8091d5	-0.06277815
96	0xbc00b3b9	-0.007855349
97	0x3d6c531a	0.05769644
98	0x3e5e3ccd	0.21702881
99	0x3e3d740a	0.18501297
100	0x3d53a6d2	0.051672764
101	0x3e949339	0.29018572
102	0x3e89435b	0.268092
103	0x3ddef93f	0.10887384
104	0xbcd1ef5f	-0.025626836
105	0x3bb569de	0.005536302
106	0xbebd2275	-0.3694035
107	0x3b216cb4	0.0024631443
108	0xbd71dba4	-0.059047356
109	0x3bdc8b88	0.0067305006
110	0xbde71535	-0.11283342
111	0xbbdc7c49	-0.006728683
112	0xbe0882ee	-0.13331196
113	0x3d8330e0	0.064058065
114	0x3dfda52d	0.123850204
115	0x3e6b88df	0.23001431
116	0xbbaa9c85	-0.005206647
117	0xbe1d3d1c	-0.15355343
118	0xbe06d1c2	-0.13165954
119	0xbd95e7f0	-0.07319629
120	0xbe1481d7	-0.14502655
121	0xbe97d801	-0.29656985
122	0xbe1f4ce8	-0.15556681
123	0x3e667828	0.22506773
124	0x3dce983b	0.100876294
125	0xbda96005	-0.082702674
126	0xbde38a57	-0.111103706
127	0xbe91e815	-0.28497377
128	0x3ea32ab9	0.31868532
129	0x3dd7a5bf	0.105296604
130	0x3e2b1a70	0.16709304
131	0x3db709e0	0.089374304
132	0x3d9aae03	0.07552721
133	0x3e817ea1	0.25291923
134	0x3d34a88f	0.044106063
135	0x3e36278d	0.17788525
136	0xbde2b90b	-0.110704504
137	0x3e605e28	0.21910918
138	0xbea4889e	-0.3213548
139	0x3e32abcd	0.1744835
140	0xbde292f8	-0.11063188
141	0x3e8002c5	0.25002113
142	0x3d46a927	0.04850116
143	0xbe1fbc11	-0.15599085
144	0x3eed0e0b	0.46299776
145	0x3ed11ae6	0.40840834
146	0xbdc4fdb6	-0.09618704
147	0xbdaab732	-0.08335723
148	0xbdf8f929	-0.121568985
149	0x3cd6e3a9	0.026231604
150	0xbb95c712	-0.00457085
151	0xbdcb8841	-0.09938098
152	0x3ddd17b0	0.10795534
153	0xbe0b1dec	-0.13585633
154	0xbd637213	-0.05552871
155	0x3e7fa77a	0.24966231
156	0xbd97e142	-0.074160114
157	0xbdff4d19	-0.12465877
158	0xbed22f34	-0.41051638
159	0x3c6efb12	0.014586227
160	0xbd47afb8	-0.048751563
161	0xbe1cff01	-0.15331651
162	0xbce6e444	-0.028185017
163	0x3df8bd62	0.12145497
164	0xbd10ec4f	-0.03538161
165	0xbeef1f8c	-0.46703756
166	0xbdb49e38	-0.0881924
167	0x3dc676ca	0.09690626
168	0x3d8477dc	0.06468174
169	0xbcfa0886	-0.030521642
170	0x3da8eee7	0.08248692
171	0x3c7216af	0.014775916
172	0xbd30b92e	-0.04314535
173	0xbdbf46bd	-0.09339664
174	0x3d1e4e32	0.03864879
175	0xbc3ee959	-0.011652314
176	0xbcf99120	-0.030464709
177	0xbddbfc26	-0.10741453
178	0xbe589612	-0.21150997
179	0xbe3054b9	-0.17219819
180	0xbe4aa004	-0.19787604
181	0xbe8460b4	-0.2585503
182	0xbe4ba2d5	-0.19886334
183	0xbe33a8aa	-0.17544809
184	0xbd5a06ac	-0.05322902
185	0xbe8cf3f1	-0.27529863
186	0x3e92ecb2	0.2869621
187	0xbcd492ac	-0.025948845
188	0x3cdd76b0	0.027034134
189	0xbf0e7257	-0.5564322
190	0x3e6cda6e	0.231302
191	0x3de343e3	0.11096933
192	0x3d03a2e7	0.032137778
193	0x3e9cac95	0.3060042
194	0x3ddc93d3	0.10770383
195	0x3c9544db	0.01822131
196	0xbd85b7f1	-0.06529225
197	0x3c82291b	0.015888741
198	0xbbbec044	-0.0058212597
199	0xbdf1de38	-0.11809963
200	0x3dc4ccf1	0.09609402
201	0x3d3fd111	0.04683024
202	0xbd33232d	-0.043734718
203	0x3d088e24	0.03333868
204	0xbdc7a2fd	-0.097478844
205	0xbd022f06	-0.031783126
206	0xbe516cc0	-0.20451641
207	0xbe10deca	-0.14147487
208	0xbe19eaae	-0.1503093
209	0x3cccdc05	0.025007257
210	0x3de733b5	0.11289159
211	0xbeb269a7	-0.3484623
212	0x3df3a2fb	0.118963204
213	0x3e3edeed	0.18639727
214	0x3dcf010f	0.10107624
215	0xba18b07d	-0.00058246386
216	0x3e5f70b0	0.2182033
217	0xbdc381b6	-0.09546225
218	0x3cc1e9ae	0.023670997
219	0xbd880920	-0.066423655
220	0xbe663bc5	-0.22483738
221	0xbe17e76c	-0.14834374
222	0x3db056e4	0.08610323
223	0x3d72ea91	0.05930573
224	0xbda02e10	-0.07821286
225	0x3db6d779	0.08927817
226	0xbde28872	-0.11061181
227	0xbbd625a5	-0.0065352493
228	0xbd69a170	-0.057038724
229	0x3e7982e6	0.2436634
230	0x3dc4e466	0.09613876
231	0xbe152769	-0.14565815
232	0x3e215b6b	0.1575753
233	0x3d5ae91e	0.053444974
234	0xbbe7dc54	-0.0070758257
235	0xbc300379	-0.010743015
236	0x3e20a5a0	0.15688181
237	0x3e99b62c	0.300218
238	0x3d826509	0.06366927
239	0xbe792c0f	-0.24333213
240	0x3d8d22af	0.06891381
241	0xbd71f2bc	-0.05906938
242	0x3c2948b1	0.010332272
243	0xbea2cb29	-0.31795624
244	0xbe95de3e	-0.2927112
245	0xbcb1128b	-0.021615287
246	0xbe6ca532	-0.23109892
247	0xbcffd08e	-0.031227376
248	0x3e14a129	0.14514603
249	0x3e253f4c	0.16137427
250	0x3deccf31	0.11562956
251	0x3cd0cb89	0.025487678
252	0xbe60ec83	-0.21965222
253	0x3db2ac56	0.08724277
254	0x3c569f67	0.013099528
255	0xbdafa88c	-0.0857707

gru.weight_hh_l0 f4 [96, 32]
0	0x3de58912	0.11207785
1	0x3c88721f	0.01665598
2	0x3d6af231	0.057359878
3	0xbe7d72f5	-0.24750884
4	0xbdc1d3fe	-0.094642624
5	0x3db69a24	0.08916119
6	0x3db80b8b	0.08986577
7	0xbc7eef63	-0.015560004
8	0x3cfbae3f	0.030722735
9	0xbe2e3203	-0.17011265
10	0xbdb469e4	-0.088092595
11	0xbe7caa1b	-0.24674265
12	0xbe063b17	-0.13108478
13	0x3dca4bdc	0.0987775
14	0x3ae40a63	0.0017398115
15	0x3d434abd	0.047678698
16	0x3d8673c5	0.0656505
17	0xbc8857ae	-0.016643371
18	0xbd4daa35	-0.05021115
19	0x3d42dca4	0.0475737
20	0xbe1b4f6b	-0.15167014
21	0x3cbd435b	0.023103407
22	0x3cdfa4aa	0.027300198
23	0x3d75963a	0.05995772
24	0x3d6c9df1	0.057767812
25	0x3d1a057d	0.03760289
26	0xbe81f846	-0.2538473
27	0xbea91424	-0.3302318
28	0x3d7a6a6d	0.06113665
29	0x3ea3d090	0.31995058
30	0xbda478db	-0.08030864
31	0xbe30e780	-0.1727581
32	0x3e30e964	0.17276531
33	0x3dbfd36e	0.09366499
34	0x3d6c9ab3	0.05776472
35	0x3e3c1618	0.18367803
36	0x3c1e030e	0.009644283
37	0xbe0a93d0	-0.13532948
38	0xbe44f02b	-0.19232242
39	0x3e4bee04	0.19915015
40	0x3b35cfaa	0.0027742186
41	0x3e0b9d5d	0.13634248
42	0xbe4370f7	-0.19086061
43	0x3dcb141b	0.09915944
44	0xbe58bd59	-0.2116598
45	0xbe2f88ad	-0.17141981
46	0x3e885329	0.26625946
47	0x3e23d84e	0.16000482
48	0xbe1df848	-0.15426743
49	0xbd593924	-0.05303301
50	0x3e8a3a2d	0.2699751
51	0x3e0fb637	0.14034353
52	0xbe57f89e	-0.21090934
53	0x3e3d8d68	0.18510973
54	0x3d4a6c1e	0.049419515
55	0xbbe204a9	-0.006897528
56	0x3e69adaf	0.22820161
57	0x3d10b9c8	0.035333425
58	0x3dc6ae7c	0.09701249
59	0x3e94f8d4	0.2909609
60	0x3d324d48	0.043530732
61	0xbd4fb240	-0.0507071
62	0x3ed0f05b	0.40808377
63	0xbe2498b1	-0.16073872
64	0xbc418f55	-0.011813958
65	0xbe92a9c4	-0.28645146
66	0xbd7d866d	-0.061895777
67	0xbe240d94	-0.16020805
68	0x3e129882	0.1431599
69	0x3de4a178	0.1116361
70	0x3d12c46a	0.035831846
71	0x3e685709	0.22689451
72	0xbe33805f	-0.17529438
73	0xbd07f20f	-0.03318983
74	0x3d53b95d	0.051690448
75	0xbde32b21	-0.110922106
76	0xb9d5c4b9	-0.00040773096
77	0x3cf8675c	0.030322723
78	0xbe513e4d	-0.20433922
79	0x3e45b849	0.1930858
80	0x3e09b496	0.13447794
81	0xbe316330	-0.17322993
82	0xbe84d76f	-0.25945613
83	0xbe07e180	-0.13269615
84	0x3e6f9178	0.23395336
85	0xbdedeb81	-0.116171844
86	0xbddc938d	-0.107703306
87	0xbe928d23	-0.28623304
88	0x3e0824b7	0.13295256
89	0xbd89c26f	-0.067265384
90	0x3e35bc9e	0.17747733
91	0x3e258313	0.16163282
92	0x3e8cf8c6	0.2753355
93	0xbe249de8	-0.16075861
94	0xbd8759e0	-0.06608939
95	0x3d273022	0.040817387
96	0xbd13410c	-0.035950705
97	0xbd0f7306	-0.035021804
98	0x3def2b0f	0.11678135
99	0x3db6dca3	0.08928802
100	0xbdd7e4de	-0.105417
101	0xbe58a572	-0.21156862
102	0xbe59d962	-0.21274331
103	0xbe275aac	-0.16343182
104	0xbe074929	-0.13211502
105	0x3ea40af1	0.32039598
106	0xbe4ba694	-0.19887763
107	0xbea1f955	-0.31635538
108	0xbe459a0f	-0.1929705
109	0xbd2ab55d	-0.041676868
110	0x3d8c1d7b	0.068415605
111	0x3e198f30	0.14996028
112	0xbec715bf	-0.38883778
113	0xbda3b8b8	-0.07994217
114	0xbe0ccbf4	-0.13749677
115	0x3c4d3df6	0.01252698
116	0xbe092ec2	-0.13396743
117	0xbe52ebe3	-0.20597796
118	0x3e1977f2	0.14987162
119	0x3d0a457a	0.033757664
120	0xbdfa2683	-0.12214377
121	0xbddedb54	-0.10881677
122	0xbe301639	-0.17195977
123	0xbd9589a1	-0.07301641
124	0xbe0265f0	-0.12734199
125	0xbc681bce	-0.014166785
126	0x3e4c3505	0.199421
127	0x3e1a52bb	0.15070622
128	0xbd16cf82	-0.03681899
129	0x3e2fc4ba	0.17164889
130	0x3e3ca45c	0.18422073
131	0x3ced92c8	0.029000655
132	0x3eaf289f	0.3421068
133	0xbe228fed	-0.15875216
134	0xbd2db1bb	-0.042405825
135	0x3e7a3f6c	0.24438256
136	0x3d940497	0.07227438
137	0x3d00c7a8	0.031440407
138	0xbe8322dd	-0.25612536
139	0xbc97ed38	-0.018545732
140	0xbdbbee60	-0.09176326
141	0xbc333794	-0.010938544
142	0x3ae3d3d8	0.001738186
143	0xb90b7833	-0.0001330085
144	0x3c403fdb	0.011733974
145	0xbce70813	-0.028202092
146	0xbd73daa4	-0.059534684
147	0x3ddc8798	0.1076805
148	0x3e6677c7	0.22506629
149	0x3d1b12bb	0.03785966
150	0xbd153287	-0.03642514
151	0x3e370093	0.17871313
152	0xbeea1434	-0.4571854
153	0xbde25b6b	-0.11052593
154	0x3e7af3c0	0.24507046
155	0xbe26f74f	-0.16305278
156	0x3e9d6f3a	0.30748922
157	0x3d9c1887	0.07621866
158	0x3c87c37d	0.016572708
159	0xbe098f50	-0.13433576
160	0x3e967d29	0.29392365
161	0xbd06fd66	-0.032956503
162	0xbe5cb837	-0.21554647
163	0x3d22ef66	0.03977909
164	0xbdabb00a	-0.08383186
165	0xbe2a63d5	-0.16639645
166	0x3e228150	0.15869641
167	0xbe2e5ae4	-0.1702686
168	0x3dc638c8	0.09678799
169	0xbdce3499	-0.10068626
170	0x3e26f7c4	0.16305453
171	0x3d8682bf	0.065679066
172	0x3b524a20	0.003208764
173	0x3e01adf4	0.12664014
174	0x3ea538da	0.32269937
175	0xbe3c7da8	-0.18407309
176	0x3e233315	0.15937455
177	0xbc024040	-0.007949889
178	0x3da926d6	0.082593605
179	0x3e21a2a1	0.15784694
180	0x3c7a5123	0.015278134
181	0x3d770769	0.0603098
182	0xbd0f4948	-0.034981996
183	0x3cc89eb9	0.024489747
184	0x3dfafe68	0.122555554
185	0x3e5ff437	0.21870504
186	0x3eb45452	0.3522058
187	0xbe4876c7	-0.1957656
188	0x3c611c3e	0.013739644
189	0xbdc3bd1e	-0.095575556
190	0x3e4ad610	0.19808221
191	0x3a74e601	0.00093421346
192	0xbd93e0cd	-0.07220612
193	0xbe555abb	-0.20835392
194	0xbd25f52b	-0.040517014
195	0xbe77de9a	-0.2420601
196	0xbdc5a8f0	-0.09651363
197	0x3c098d2f	0.008395477
198	0x3e43801f	0.19091843
199	0x3da496b1	0.080365546
200	0x3c2ac183	0.010422113
201	0x3ded0835	0.11573831
202	0xbe25deff	-0.16198348
203	0xbe610833	-0.21975784
204	0x3df22574	0.1182355
205	0x3c857650	0.016291767
206	0x3e16f333	0.1474121
207	0xbe5f4237	-0.21802603
208	0xbd2edad3	-0.042689156
209	0x3d86f80b	0.06590279
210	0x3da48691	0.08033479
211	0xbdb87bbc	-0.090079755
212	0xbe1f40c5	-0.15552051
213	0x3e4a352e	0.19746849
214	0x3e05c7d4	0.1306451
215	0x3e1eae60	0.15496206
216	0xbec61d2f	-0.3869414
217	0xbda5f717	-0.08103769
218	0xbde4009b	-0.11132928
219	0xbdbf0eb8	-0.09328979
220	0xbdf396ef	-0.11894023
221	0xbc837543	-0.016047126
222	0x3dc4e43c	0.09613845
223	0x3d0d1e64	0.03445281
224	0xbe5bf577	-0.21480356
225	0xbe869fae	-0.262937
226	0xbd08b9fe	-0.0333805
227	0x3e007a7b	0.12546723
228	0x3d51f3e4	0.051257983
229	0xbd009104	-0.031388298
230	0xbe1ef042	-0.15521339
231	0xbd2869d8	-0.041116565
232	0xbe28fcf1	-0.1650274
233	0x3e68b199	0.22723998
234	0x3e3ca4d8	0.18422258
235	0x3d35d3ed	0.04439156
236	0x3e2e4b2e	0.17020866
237	0x3deb93cc	0.115027994
238	0x3d05391d	0.03252517
239	0x3d846e0c	0.06466302
240	0x3d870f9e	0.065947756
241	0xbd8722ec	-0.06598458
242	0xbd1ade0d	-0.03780942
243	0xbd3cfabb	-0.046137553
244	0xbd1f57ac	-0.03890197
245	0x3d054e6f	0.032545503
246	0x3d0f3800	0.034965515
247	0xbe48bfbd	-0.19604392
248	0x3e3674f2	0.17818049
249	0x3c5330cd	0.012890053
250	0xbc20cbde	-0.009814231
251	0xbca31482	-0.01990724
252	0x3c26a45c	0.010171022
253	0x3c8ba326	0.017045569
254	0x3c2e033b	0.010620887
255	0x3cb13459	0.021631407

gru.bias_ih_l0 f4 [96]
0	0xbcc86e64	-0.0244667
1	0x3c3d06c1	0.011537255
2	0xbd628088	-0.05529836
3	0x3e497170	0.19672179
4	0x3d72d9fe	0.059289925
5	0xbdf05a33	-0.11735954
6	0xbe16cbf3	-0.14726238
7	0xbd7d5b74	-0.061854795
8	0x3cd0010b	0.025391122
9	0x3e0f70db	0.14007895
10	0xbd9532f4	-0.07285109
11	0x3d77d6ea	0.060507692
12	0xbe375719	-0.17904319
13	0xbe12b083	-0.14325146
14	0xbd2befc2	-0.041976698
15	0x3deb83ae	0.11499725
16	0xbdb01114	-0.085970074
17	0x3d386a80	0.04502344
18	0x3d763c64	0.060116187
19	0xbcb14a9b	-0.02164202
20	0x3d697fd4	0.057006672
21	0x3e7377e3	0.23776202
22	0xbe44480c	-0.19168109
23	0xbdfd617a	-0.12372108
24	0x3e04b167	0.12958299
25	0xbd3722e7	-0.04471102
26	0xbe2686fd	-0.16262431
27	0x3d1fe965	0.03904094
28	0x3e40efb1	0.18841435
29	0x3d9e2e1c	0.077236384
30	0x3e40b4c7	0.18818961
31	0xbc20d5a3	-0.00981656
32	0x3e1069c8	0.14102852
33	0x3d27fcd7	0.04101261
34	0x3e21996a	0.15781179
35	0x3d04b3db	0.032398086
36	0xbe1e21f3	-0.15442638
37	0x3e59b950	0.21262097
38	0x3dcd4402	0.10022737
39	0xbe114f2d	-0.1419036
40	0xbda3ee32	-0.080044165
41	0xbe1c2905	-0.15250023
42	0x3e7218c1	0.23642255
43	0xbe1a71e3	-0.15082507
44	0xbd8e3876	-0.06944363
45	0xbd698508	-0.057011634
46	0x3dc8772c	0.09788355
47	0x3eac50d1	0.33655408
48	0x3d9e42a5	0.07727555
49	0x3d8a43b5	0.06751195
50	0xbda55526	-0.080728814
51	0xbe47f5de	-0.19527385
52	0x3e12591c	0.14291805
53	0x3d81f057	0.06344669
54	0x3c0cbc9f	0.008589893
55	0x3df097ac	0.11747679
56	0x3e0ce8c2	0.13760665
57	0x3e6433e5	0.22285421
58	0x3e616172	0.22009829
59	0xbd6d067b	-0.05786751
60	0x3dec9258	0.1155135
61	0x3dba1e90	0.090878606
62	0x3d028fcd	0.03187542
63	0x3e5c01df	0.21485089
64	0x3d8018bd	0.062547185
65	0x3e1394ef	0.14412282
66	0x3d421e3a	0.047392108
67	0xbe0ec52a	-0.139424
68	0x3da18898	0.07887381
69	0xbd6dc936	-0.058053218
70	0xbe8207a0	-0.25396442
71	0x3e19b840	0.15011692
72	0xbde2f5d9	-0.11082048
73	0xbe1d958a	-0.15389076
74	0x3dc8b8fb	0.09800907
75	0x3dd2bcd9	0.10289926
76	0xbdf16974	-0.11787692
77	0xbe12c150	-0.14331555
78	0xbe64b79c	-0.22335666
79	0x3dc9d975	0.0985593
80	0xbe0f2506	-0.13978967
81	0xbd45907b	-0.04823349
82	0xbd73a0c1	-0.05947948
83	0x3e276168	0.16345751
84	0x3e356219	0.17713203
85	0xbcf85b1b	-0.03031688
86	0x3e32a5cb	0.17446057
87	0xbdefb343	-0.11704113
88	0xbe0a45ce	-0.13503191
89	0x3d3c66b7	0.045996394
90	0xbe2a43c8	-0.16627419
91	0x3bcf6804	0.0063295383
92	0xbe03f60a	-0.12886825
93	0x3e75ecf6	0.24016175
94	0x3e18370b	0.14864747
95	0xbe8b0720	-0.27153873

gru.bias_hh_l0 f4 [96]
0	0x3bd876e9	0.006605972
1	0xbd4a57aa	-0.04940001
2	0x3e5f1050	0.21783566
3	0x3ce6ca09	0.02817251
4	0x3ce66687	0.02812506
5	0x3d5bb5a5	0.053640027
6	0xbe3999d2	-0.18125084
7	0xbd8b6d68	-0.06807977
8	0x3e9a2988	0.3010981
9	0x3e47a4db	0.19496481
10	0x3e2fd72b	0.17171924
11	0x3db42729	0.08796532
12	0x3dbd326c	0.09238133
13	0xbd2ec931	-0.04267234
14	0x3cbb240f	0.022844343
15	0xbe288f46	-0.16460904
16	0xbdc2ebf4	-0.09517661
17	0x3db7e1aa	0.08978589
18	0x3e00ca47	0.12577163
19	0x3cb96e0a	0.022635479
20	0xbd8dc5ed	-0.06922517
21	0x3d778ccf	0.06043702
22	0xbdb8c4fd	-0.090219475
23	0xbde75f48	-0.1129747
24	0x3e7000b0	0.23437762
25	0x3da239d5	0.07921187
26	0xbe53f6d4	-0.20699626
27	0xbd79baae	-0.060969047
28	0xbca66ae4	-0.020314641
29	0xbe0a4bff	-0.13505553
30	0x3da47502	0.0803013
31	0xbd3534d4	-0.044239834
32	0x3dfccd07	0.12343793
33	0xbc440725	-0.011964594
34	0x3e9b8988	0.30378366
35	0x3de8a651	0.11359847
36	0xbd6fcc83	-0.058544647
37	0x3c8b9224	0.017037459
38	0x3d851a64	0.06499174
39	0x3d88afe8	0.066741765
40	0x3dc8e0cd	0.09808502
41	0x3ddb7db6	0.10717337
42	0xbda6d46f	-0.08145987
43	0x3b829674	0.0039852206
44	0xbd256f03	-0.040389072
45	0x3e07e227	0.13269864
46	0x3dcc14ae	0.09964882
47	0x3e63519d	0.22199102
48	0xbda51dd6	-0.080623314
49	0x3df8b3b4	0.12143651
50	0xbe3826ed	-0.17983599
51	0x3d1ddc75	0.038540322
52	0x3e34f11f	0.17670105
53	0xbde3724f	-0.11105787
54	0xbd2602a2	-0.040529855
55	0x3d8ece9d	0.06973002
56	0x3e8baca4	0.27280152
57	0x3dfdcf52	0.12393059
58	0x3e226101	0.15857317
59	0x3de583eb	0.11206802
60	0x3e3868fb	0.18008797
61	0x3de8a2bb	0.113591634
62	0x3db23dc1	0.08703185
63	0x3d9fe4ca	0.0780731
64	0x3ddda7ac	0.108229965
65	0xbd608a55	-0.054819424
66	0x3c99fade	0.01879638
67	0xbe3cd403	-0.18440251
68	0xbd5a5195	-0.05330046
69	0x3dd3108e	0.10305892
70	0xbe0bd885	-0.13656814
71	0x3e3aa30c	0.1822626
72	0xbd94310c	-0.072359174
73	0xbe7c069b	-0.24611895
74	0xbe425a85	-0.18979843
75	0x3c16c36e	0.0092018675
76	0xbe4b1079	-0.19830503
77	0x3d7d0f56	0.061782204
78	0xbe145d15	-0.14488633
79	0x3e1d0d22	0.15337041
80	0x3e559fb2	0.208617
81	0xbe47805a	-0.19482556
82	0x3e64d63d	0.2234735
83	0xbdbecf27	-0.09316855
84	0xbe0faeac	-0.14031476
85	0xbdb926c4	-0.09040597
86	0xbd1ac540	-0.03778577
87	0xbe190b37	-0.14945684
88	0x3d8d9064	0.06912306
89	0x3da05fe5	0.078307904
90	0xbd8c14da	-0.068399146
91	0xbd938f8c	-0.07205114
92	0xbdfbf741	-0.12303019
93	0x3ca33270	0.019921511
94	0xbe057c04	-0.1303559
95	0x3ccc356d	0.02492782

output_layer.weight f4 [2, 32]
0	0x3dcdb2ad	0.10043845
1	0x3e8d524a	0.27601844
2	0x3e13bdf7	0.14427935
3	0x3e8fe3d7	0.28103516
4	0x3e1f15e4	0.15535694
5	0xbe447a44	-0.19187266
6	0x3dcca30c	0.09992036
7	0x3e16124d	0.14655419
8	0xbe8f8558	-0.2803142
9	0xbe10b298	-0.14130628
10	0x3e078c88	0.13237202
11	0xbd35ad44	-0.044354692
12	0x3dfc9363	0.12332799
13	0x3e23bf20	0.15990877
14	0x3e664182	0.22485927
15	0x3c9c057d	0.019045586
16	0xbe686033	-0.22692947
17	0xbe4c0a75	-0.19925864
18	0x3e820806	0.25396746
19	0x3e2833c5	0.16425999
20	0xbe7985f6	-0.24367508
21	0x3e8e563a	0.2780016
22	0xbe849363	-0.25893697
23	0x3e530c7f	0.20610236
24	0xbeb19187	-0.3468134
25	0xbe84eccf	-0.2596192
26	0xbe877242	-0.2645436
27	0xbe1f7356	-0.15571341
28	0xbe6feab9	-0.23429383
29	0x3e55df3a	0.20885935
30	0x3e68cd69	0.22734608
31	0x3e08f39c	0.1337418
32	0xbe2556b7	-0.1614636
33	0xbc3e805d	-0.011627284
34	0xbd9db4d6	-0.07700507
35	0xbdcf03ee	-0.101081714
36	0xbdeea9a1	-0.11653448
37	0x3e7277ef	0.23678564
38	0xbeced30e	-0.40395397
39	0xbe56b790	-0.20968461
40	0x3ec9a1c4	0.3938123
41	0x3e59bbe3	0.2126308
42	0xbdd93067	-0.10604935
43	0x3eb9817f	0.3623161
44	0xbdc9c9d3	-0.09852948
45	0xbe1e6142	-0.15466788
46	0xbe52a680	-0.20571327
47	0xbd9f84a8	-0.07788974
48	0x3ea2da41	0.3180714
49	0x3e21e882	0.15811351
50	0xbdaa0153	-0.08301034
51	0xbe83ea09	-0.25764492
52	0x3e52172c	0.20516652
53	0xbe822821	-0.2542124
54	0xbd842f79	-0.06454367
55	0xbdea510e	-0.11441241
56	0x3e84f575	0.2596852
57	0x3e77ec41	0.24211217
58	0x3d83a2b1	0.06427515
59	0x3e47c78e	0.19509718
60	0x3e9cfa92	0.3065992
61	0xbd2bba88	-0.041925937
62	0xbe2dda03	-0.16977696
63	0xbdb2a584	-0.08722976

output_layer.bias f4 [2]
0	0xbdbbec6a	-0.09175952
1	0x3c938a8f	0.018010406
