baselines_training/ehr_ipnets/split_4/checkpoint.pt (torch, 70947 bytes, 12 tensors)

single_channel_interp.kernel f4 [37]
0	0xbec55dda	-0.38548166
1	0xbddebcb0	-0.10875833
2	0x3d54ec63	0.05198325
3	0x3e8e7f3a	0.2783144
4	0x3d2305dc	0.03980051
5	0xbee98be1	-0.45614532
6	0xbdea2a2e	-0.114338264
7	0x3f61d283	0.8821184
8	0xbea9be2f	-0.3315291
9	0x3e1343c3	0.14381318
10	0xbd6caf92	-0.057784624
11	0xbeb63695	-0.35588518
12	0xbe0a92b9	-0.13532533
13	0xbe98188e	-0.29706234
14	0xbe779189	-0.24176611
15	0xbe9e2150	-0.3088479
16	0xbd6fdc0b	-0.05855946
17	0xbeaa1726	-0.33220786
18	0x3e3f7d52	0.1870015
19	0xbdd927d2	-0.10603298
20	0x3e4121d0	0.18860555
21	0xbd084d6a	-0.033276953
22	0xbe3f185f	-0.1866164
23	0xbd670245	-0.05639865
24	0xbeb18c0b	-0.34677157
25	0xbe353562	-0.17696145
26	0x3d8f81fc	0.070072144
27	0xbe957d3e	-0.29197115
28	0x3d7b9015	0.061416704
29	0x3e5900e4	0.21191746
30	0x3e011632	0.12606123
31	0x3e5a3425	0.21308954
32	0x3f4327fc	0.76232886
33	0x3e92cc03	0.28671274
34	0x3e12b152	0.14325455
35	0xbd8731d6	-0.06601302
36	0x3d766b85	0.060161132

cross_channel_interp.cross_channel_interp f4 [37, 37]
0	0x3f7d9d1d	0.9906786
1	0x3cc3d016	0.023902934
2	0x3dea532e	0.114416465
3	0xbe56c613	-0.20973997
4	0x3dd8ca6b	0.10585483
5	0xbd5d1d4e	-0.053983025
6	0xbd9b6e5a	-0.07589407
7	0xbe1e110f	-0.15436195
8	0x3d9d965a	0.07694693
9	0x3e63a9a2	0.22232679
10	0x3cbd4de8	0.023108438
11	0xbc919e8a	-0.017775793
12	0x3d63241b	0.055454355
13	0xbc45e46d	-0.012078387
14	0x3de65aaa	0.112477615
15	0x3cbf6931	0.023365589
16	0xbdaffab9	-0.085927434
17	0xbb3b0f2f	-0.0028542986
18	0x3d8e32d6	0.0694329
19	0xbce600d2	-0.028076563
20	0x3d167a5d	0.03673779
21	0xbe06ead0	-0.13175511
22	0xbe215228	-0.15753996
23	0x3da4e902	0.08052255
24	0xbd00582f	-0.0313341
25	0xbda139ae	-0.0787233
26	0x3c6c9b05	0.014441256
27	0xbba08274	-0.0048983637
28	0xbc910bcf	-0.017705826
29	0x3c9b1fcc	0.01893606
30	0xbdb2aaf7	-0.08724015
31	0xbd52a96d	-0.05143111
32	0xbe4d261c	-0.20034069
33	0x3c224f64	0.0099066235
34	0x3d32a5ce	0.043615155
35	0xbe2806e3	-0.16408877
36	0x3dbcaa94	0.09212223
37	0xbbdd5109	-0.006754045
38	0x3f5834b2	0.84455407
39	0xbcbfade6	-0.02339835
40	0x3d8286d3	0.06373372
41	0xbd9bc44d	-0.07605801
42	0x3e25a02e	0.16174385
43	0x3e00ca65	0.12577207
44	0x3dc1fe4b	0.09472331
45	0x3e649028	0.22320616
46	0xbe133e4d	-0.14379235
47	0xbc5eb65f	-0.013593285
48	0xbdab9d90	-0.08379662
49	0xbd0d8714	-0.03455265
50	0xbe8180bc	-0.2529353
51	0xbd9d5fd1	-0.07684291
52	0xbdc1ba5f	-0.094593756
53	0x3deb1051	0.114777215
54	0x3e21c97e	0.1579952
55	0xbba44997	-0.0050136554
56	0x3c3a3d71	0.011367188
57	0x3e98f4ac	0.2987417
58	0x3dbf653e	0.09345482
59	0xbdb7604e	-0.089539155
60	0x3decffb8	0.11572212
61	0xbe45c945	-0.1931506
62	0xbd23670c	-0.039893195
63	0x3d86688b	0.06562909
64	0x3e0c93ea	0.137283
65	0x3cfe4ac3	0.031041509
66	0xbd8332d8	-0.06406182
67	0x3d0f8d4a	0.035046853
68	0xbe355325	-0.17707498
69	0xbd995b86	-0.0748816
70	0xbcaf1a3b	-0.021374812
71	0x3d687c7f	0.056759354
72	0xbd47da0b	-0.048791926
73	0x3d126a21	0.035745744
74	0x3db92926	0.090410516
75	0xbd3a06b9	-0.045416567
76	0x3f6f2589	0.9341665
77	0x3f1bf2b0	0.60917187
78	0x3d701672	0.058615156
79	0xbe0f679a	-0.14004365
80	0xbde64eed	-0.11245523
81	0x3a49db93	0.00077002606
82	0x3bcbc9c9	0.006219123
83	0x3e2d3b5c	0.16917175
84	0xbdb065b2	-0.08613147
85	0x3d7fcdca	0.062452115
86	0x3d6708d3	0.0564049
87	0x3d6a782a	0.057243504
88	0xbdb2a4ff	-0.08722877
89	0x3e91a8d4	0.28449118
90	0x3e94f00e	0.29089397
91	0xbeb4bd34	-0.353006
92	0x3d631984	0.055444255
93	0x3d85440e	0.06507121
94	0xbd92aa03	-0.071613334
95	0x3e6f15c2	0.23348144
96	0x3e3f3842	0.18673804
97	0xbd83fdac	-0.064448684
98	0x3e14a934	0.14517671
99	0x3e1d3637	0.15352713
100	0xbdfc9b1a	-0.12334271
101	0xbcd81f1f	-0.026382027
102	0x3de8aad1	0.11360706
103	0xbcfe8ff3	-0.0310745
104	0x3dc2811e	0.094972834
105	0x3d9d1142	0.07669307
106	0x3d897f08	0.067136824
107	0xbc47401f	-0.012161284
108	0xbcfe5f4f	-0.031051306
109	0x3da9ecae	0.08297096
110	0x3e0a808d	0.135256
111	0x3d95addf	0.07308554
112	0x3cc9494f	0.02457109
113	0x3e9d0294	0.3066603
114	0x3f8de576	1.1085651
115	0x3b8e42d6	0.0043414636
116	0xbd6f3327	-0.058398392
117	0xbc19b1bf	-0.009380757
118	0x3d674181	0.056458954
119	0xbb9e81fc	-0.0048372727
120	0x3e236976	0.15958199
121	0xbd5f44a2	-0.054508813
122	0x3bca59d8	0.006175261
123	0x3dac5730	0.08415067
124	0xbcdc6cb4	-0.026907302
125	0xbd163213	-0.03666885
126	0x3e69ea98	0.22843397
127	0x3e6867fa	0.22695914
128	0xbe49f8ad	-0.19723769
129	0x3d8a9c16	0.06768052
130	0x3e0a51e5	0.13507803
131	0xbc7eb996	-0.015547177
132	0x3e5939ef	0.21213506
133	0x3dcd7197	0.10031431
134	0x3c3200b9	0.01086443
135	0x3b14b46a	0.0022690543
136	0x3d87b5c4	0.06626466
137	0xbde5b5c0	-0.11216307
138	0xbddf540a	-0.10904701
139	0x3dcf8563	0.101328634
140	0xbd615250	-0.05501014
141	0x3dc24fa2	0.09487845
142	0x3c53b91c	0.0129225515
143	0x3ddb108c	0.106965154
144	0x3d9bfd09	0.07616622
145	0xbd88e1b9	-0.06683678
146	0x3d35b7f6	0.044364892
147	0x3dc85e80	0.097836494
148	0x3bb3888b	0.0054789237
149	0xbdbb1bfd	-0.09136198
150	0x3ec3431a	0.38137132
151	0x3d9527a6	0.07282953
152	0x3f91084a	1.1330655
153	0xbe436068	-0.19079745
154	0xbdf30cd1	-0.11867679
155	0xbe69e864	-0.22842556
156	0x3d9ee931	0.077593215
157	0x3d0ed76e	0.03487342
158	0xbd1aa641	-0.03775621
159	0x3e90e0ef	0.2829661
160	0xbdbe1226	-0.09280805
161	0x3e4e3e86	0.20141038
162	0x3d42b4ce	0.04753571
163	0xbe47ab22	-0.19498876
164	0xbb59de96	-0.0033244244
165	0xbdce010b	-0.10058793
166	0x3d91a1a7	0.07110911
167	0xbed298f3	-0.41132316
168	0xbd383ed9	-0.04498181
169	0x3e04feb9	0.12987794
170	0x3d9f7e3c	0.07787749
171	0x3e05b571	0.13057496
172	0xbd3a630e	-0.045504622
173	0x3d7f023f	0.062258
174	0x3dd127e7	0.10212689
175	0xbbe099d0	-0.0068542734
176	0xbe4ecfa2	-0.20196393
177	0x3e5060da	0.20349446
178	0xbdebb7e8	-0.11509687
179	0x3e2442da	0.16041127
180	0xbe1ef84d	-0.15524407
181	0xbe02c44d	-0.12770195
182	0x3e997559	0.29972342
183	0xbe8319f6	-0.25605744
184	0xbe59602b	-0.21228091
185	0xbed720c9	-0.420172
186	0x3ec3e8b4	0.38263476
187	0x3d71b437	0.059009757
188	0x3d602389	0.05472139
189	0xbe23ef3c	-0.1600923
190	0x3f8f1bea	1.1180394
191	0x3eca6b1f	0.39534852
192	0x3e312058	0.17297494
193	0x3f22408e	0.6337975
194	0xbe55d044	-0.20880228
195	0x3e3b3f24	0.18285805
196	0xbe9d65de	-0.3074178
197	0x3e839da1	0.257062
198	0xbef267ea	-0.47344905
199	0x3e2765b5	0.16347392
200	0xbb729a04	-0.003701807
201	0xbd5e712c	-0.054307148
202	0x3ee07fd2	0.4384752
203	0xbdda64bf	-0.10663747
204	0x3ea13737	0.31487438
205	0x3f075cec	0.5287616
206	0xbea5ed52	-0.32407624
207	0xbda06bca	-0.07833059
208	0x3e0b7f6a	0.13622823
209	0xbdf28fbb	-0.11843821
210	0xbe45e54f	-0.19325756
211	0x3e327a98	0.17429578
212	0xbee29d1d	-0.44260493
213	0x3e956e35	0.29185644
214	0xbe9194a7	-0.28433725
215	0x3e20af51	0.15691878
216	0xbe701736	-0.23446354
217	0x3e848dc4	0.2588941
218	0x3ee8d7b5	0.4547707
219	0xbe8ddbf8	-0.27706885
220	0x3e16498c	0.14676493
221	0x3e5cfb6c	0.21580285
222	0xba93a514	-0.0011264407
223	0x3e59b4f4	0.21260434
224	0xbe305e74	-0.17223531
225	0x3da0ce4e	0.078518495
226	0xbe379a75	-0.17930014
227	0x3ea1f20b	0.31629977
228	0x3f4c94f9	0.79914814
229	0x3c52ab16	0.012858173
230	0x3d7d160f	0.061788615
231	0xbe3627e3	-0.17788653
232	0x3df6c0ab	0.12048467
233	0xbe929892	-0.28632027
234	0xbd8dac6f	-0.06917655
235	0xbe8be07b	-0.27319703
236	0x3cc5c0a3	0.024139708
237	0x3e02fed0	0.12792516
238	0xbdeea12c	-0.11651835
239	0x3e5df230	0.21674418
240	0xbd1a6078	-0.037689656
241	0x3e89f046	0.26941127
242	0x3e6eee41	0.23333074
243	0xbd4282dc	-0.04748808
244	0xbe0ecd8f	-0.13945602
245	0x3e28b8b9	0.16476716
246	0x3d4772a7	0.048693325
247	0xbdef9e4f	-0.11700117
248	0xbd7b34a7	-0.06132951
249	0xbe756fe8	-0.2396847
250	0x3e2e1234	0.16999131
251	0xbe76bae7	-0.24094735
252	0xbc03d40d	-0.008046162
253	0xbe67edec	-0.22649354
254	0x3e5df2cf	0.21674655
255	0x3e2f0af9	0.1709403

demo_encoder.0.weight f4 [32, 8]
0	0xbee5d232	-0.4488693
1	0x3e00e0af	0.1258571
2	0xbe20e449	-0.15712084
3	0x3e530616	0.2060779
4	0xbe8d1781	-0.27556995
5	0x3ea7e219	0.32789686
6	0xbe3c6847	-0.18399154
7	0xbcf0744e	-0.029352333
8	0x3e98e97a	0.29865628
9	0x3c89962d	0.016795242
10	0x3e1cfd6c	0.15331048
11	0xbe7ab71b	-0.24483912
12	0xbdcc798c	-0.09984121
13	0x3ea2f4af	0.31827304
14	0xbdcff7ac	-0.101546615
15	0xbea46561	-0.32108596
16	0x3e32c74d	0.1745884
17	0x3d90683a	0.0705113
18	0xbea2e077	-0.31811878
19	0xbdc00ab4	-0.093770415
20	0x3d159ee7	0.036528494
21	0xbe85001f	-0.25976655
22	0xbddd6e09	-0.10812003
23	0xbf0107c1	-0.50402457
24	0x3dae339e	0.08505939
25	0xbdfe11f4	-0.12405768
26	0xbe2814f5	-0.16414244
27	0xbe70aa50	-0.23502469
28	0xbe7e9be0	-0.24864149
29	0x3e5e211e	0.2169232
30	0xbe32172c	-0.17391652
31	0xbe969006	-0.29406756
32	0x3edec6bc	0.43510997
33	0x3d49bec5	0.049254198
34	0x3e01d566	0.12679061
35	0xbe5331b5	-0.2062443
36	0xbd8f0ea3	-0.069852136
37	0xbddd641c	-0.1081011
38	0xbddd0e61	-0.10793758
39	0x3efc3006	0.4925539
40	0xbe7db84c	-0.24777335
41	0xbef754b0	-0.483068
42	0x3e3bc756	0.1833776
43	0xbd395e72	-0.045256086
44	0x3e9f53a7	0.3111851
45	0xbe3fed12	-0.18742779
46	0xbdbe06f8	-0.09278673
47	0xbeef966d	-0.46794453
48	0x3d51606c	0.051117346
49	0x3e970088	0.29492593
50	0x3b0e4113	0.0021706268
51	0xbe352be1	-0.1769252
52	0xbe490ab0	-0.19632983
53	0xbd2f518d	-0.042802382
54	0x3efb6b04	0.49105084
55	0xbe800499	-0.25003508
56	0x3edfcbf3	0.43710288
57	0x3e5cd335	0.21564944
58	0x3e900c41	0.2813435
59	0xbe2d1957	-0.16904198
60	0xbc24ec6e	-0.010066135
61	0xbe3aa95d	-0.1822867
62	0xbed4415e	-0.4145612
63	0x3ec8625f	0.3913755
64	0x3cbd073b	0.023074737
65	0x3e84a75d	0.25908938
66	0xbec12f32	-0.3773132
67	0xbe3a7626	-0.18209133
68	0xbf01e0e8	-0.50733805
69	0x3ef24eac	0.47325647
70	0xbe68d1f2	-0.22736338
71	0x3dfff4e7	0.12497883
72	0x3ea7dab6	0.3278405
73	0x3e956e19	0.2918556
74	0xbe07514d	-0.13214608
75	0x3db97dbf	0.09057187
76	0x3e94e6b3	0.2908226
77	0x3ebfce34	0.37462008
78	0xbeedc40c	-0.46438634
79	0xbe991ba4	-0.299039
80	0x3d4c0f8b	0.04981951
81	0xbd824a74	-0.06361857
82	0x3deeb908	0.11656386
83	0x3e4e9e31	0.20177533
84	0x3f163a53	0.58682746
85	0xbec8a9c5	-0.39192024
86	0xbe10b1ae	-0.1413028
87	0xbecb61e2	-0.39723116
88	0x3db29787	0.08720308
89	0x3ddff336	0.10935061
90	0x3ef529ce	0.47883457
91	0x3ef268e7	0.4734566
92	0xbf123126	-0.57106245
93	0x3f04a430	0.5181303
94	0x3e1bcb8e	0.15214369
95	0xbe101c60	-0.14073324
96	0xbe5d964a	-0.21639362
97	0x3eb03457	0.34414932
98	0xbd1f32d2	-0.038866825
99	0xbe446332	-0.19178465
100	0xbefcace1	-0.49350646
101	0xbe779556	-0.24178061
102	0xbd178eff	-0.037001606
103	0xbe008290	-0.12549806
104	0x3ec3faf2	0.38277394
105	0x3e67808c	0.2260763
106	0x3dbc7a89	0.09203059
107	0x3dc15251	0.09439529
108	0xbe51f794	-0.205046
109	0xbe97afde	-0.29626364
110	0x3e93e57c	0.2888602
111	0xbdc30863	-0.09523084
112	0x3c49a092	0.012306349
113	0x3e6e7976	0.23288521
114	0xbde6e019	-0.11273212
115	0x3edb87cd	0.42877045
116	0xbe4e4fb0	-0.20147586
117	0x3e4e84e5	0.20167883
118	0xbe965094	-0.2935835
119	0xbe800b9a	-0.2500885
120	0xbefa6dec	-0.4891199
121	0x3e4e7b2f	0.20164178
122	0x3dfc3d75	0.123164095
123	0x3e39816c	0.18115777
124	0xbe8e9299	-0.2784622
125	0x3eaaf321	0.33388618
126	0xbe789648	-0.24276078
127	0x3e017c64	0.12645108
128	0xbebf5e0e	-0.37376446
129	0x3e5a4023	0.21313529
130	0xbe30daf8	-0.1727103
131	0xbed09b07	-0.40743276
132	0x3e41ac6c	0.1891343
133	0xbedd51c0	-0.43226433
134	0xbe469598	-0.19393003
135	0x3f0a50a2	0.54029286
136	0x3eb6eb4a	0.35726386
137	0xbe4e609d	-0.20154043
138	0xbe1ba486	-0.1519948
139	0x3eb36c25	0.35043445
140	0xbe83532f	-0.25649402
141	0x3dde1a03	0.10844805
142	0x3e5b5183	0.21417813
143	0x3e0dbf54	0.13842517
144	0x3edfcb28	0.43709683
145	0x3e1ea4b5	0.15492518
146	0x3dec7f0a	0.11547668
147	0x3d7456f7	0.05965325
148	0xbdff3f84	-0.124632865
149	0xbdd50984	-0.104022056
150	0xbdc01717	-0.09379404
151	0x3db9040c	0.09033975
152	0xbe44840d	-0.19190998
153	0x3dc54b6e	0.09633528
154	0xbe2f90ea	-0.17145124
155	0x3ed0c7d4	0.40777457
156	0xbf09d330	-0.5383787
157	0x3efc15eb	0.49235472
158	0xbe03965f	-0.12850331
159	0x3e4aea02	0.1981583
160	0x3e800c36	0.25009316
161	0x3e4dba22	0.20090535
162	0x3e60ed26	0.21965465
163	0x3e18bc63	0.14915614
164	0xbe544701	-0.20730211
165	0xbefddfee	-0.49584907
166	0x3eca10a4	0.3946582
167	0x3e1d5b0f	0.15366767
168	0xbe22f74c	-0.15914649
169	0xbd9e5554	-0.07731119
170	0x3c849978	0.01618646
171	0xbd01d5c5	-0.031698007
172	0x3ea73c05	0.3266298
173	0xbc658702	-0.014009239
174	0x3da64873	0.08119287
175	0xbedffb31	-0.4374633
176	0x3e7da43d	0.24769683
177	0xbe812c9b	-0.25229344
178	0x3eaa2d41	0.3323765
179	0xbd930ac6	-0.07179789
180	0xbd9fdf19	-0.078062244
181	0xbe4674b4	-0.19380456
182	0x3cff5443	0.031168109
183	0xbdda9d18	-0.106744945
184	0x3eb8a571	0.36063722
185	0x3d470093	0.048584532
186	0xbe483975	-0.19553168
187	0xbe5bcf0b	-0.214657
188	0xbe70e42d	-0.23524542
189	0x3e14ecf8	0.14543521
190	0xbea522f3	-0.32253227
191	0x3ecff158	0.40613818
192	0xbea0fef6	-0.3144452
193	0xbedb193e	-0.42792696
194	0xbddf6569	-0.10908014
195	0x3e962ea5	0.29332462
196	0x3daded56	0.08492534
197	0x3eb8ab4d	0.36068192
198	0xbddee89c	-0.108842105
199	0xbd9c48c2	-0.07631065
200	0x3e6217e9	0.22079434
201	0x3e637d21	0.22215702
202	0xbd4cbf13	-0.04998691
203	0xbe2adde6	-0.1668621
204	0xbe1d008a	-0.15332237
205	0x3edb42e4	0.4282447
206	0x3f00d54a	0.50325453
207	0xbe829dc8	-0.25511003
208	0xbdade550	-0.084910035
209	0xbe2d5978	-0.16928661
210	0x3e27515d	0.16339631
211	0xbdf0d890	-0.11760056
212	0x3e7b1921	0.24521305
213	0x3d60ca55	0.05488046
214	0x3f1a88a4	0.6036475
215	0xbee0e1b8	-0.4392221
216	0x3d0fbae8	0.035090357
217	0xbe61998e	-0.22031233
218	0xbeb0c5c7	-0.34525892
219	0x3d3c1033	0.045913886
220	0x3c57ddcf	0.013175442
221	0xbda923f3	-0.0825881
222	0x3e8eb9fb	0.27876267
223	0xbdc91bed	-0.098197795
224	0x3eb9a283	0.362568
225	0x3e738986	0.2378293
226	0x3de2fb2d	0.11083064
227	0xbe7b1fac	-0.245238
228	0x3e147622	0.14498189
229	0xbe6f42c0	-0.23365307
230	0xbe9f7477	-0.31143543
231	0x3d8cf0a1	0.06881834
232	0xbe8a9a7b	-0.27070984
233	0xbc99edfe	-0.018790241
234	0x3ec21fbe	0.37914842
235	0xbdd92069	-0.10601885
236	0xbd62c23a	-0.05536101
237	0x3efcd03f	0.4937763
238	0x3d4e59d5	0.05037864
239	0xbdef025c	-0.11670372
240	0x3e10f17a	0.14154616
241	0xbd8da5f2	-0.06916417
242	0x3e653afb	0.2238578
243	0x3d301d0e	0.04299646
244	0xbe52b720	-0.20577669
245	0xbe0795bf	-0.13240717
246	0x3e960b47	0.2930548
247	0xbd737594	-0.059438303
248	0xbe4b2442	-0.1983805
249	0xbe5a9437	-0.21345602
250	0xbd588b49	-0.052867208
251	0x3e943e18	0.28953624
252	0x3efa44b5	0.48880544
253	0xbecbb308	-0.39785028
254	0xbea698b2	-0.32538372
255	0xbdd540cc	-0.1041275

demo_encoder.0.bias f4 [32]
0	0x3e2debec	0.16984528
1	0xbd9cda98	-0.07658881
2	0x3e3603df	0.17774914
3	0x3e817a41	0.25288585
4	0xbe4baa89	-0.19889273
5	0x3beeaa88	0.0072835125
6	0x3e94a815	0.29034486
7	0xbeb39d53	-0.35080966
8	0x3d7fe25d	0.062471736
9	0xbe99e0d8	-0.30054355
10	0x3e60942e	0.21931526
11	0x3da353b3	0.07974949
12	0xbe1ed144	-0.15509516
13	0x3e6b6262	0.22986749
14	0xbc9b7ca1	-0.018980326
15	0x3cfa5d5c	0.030562095
16	0xbd2e3d0a	-0.04253868
17	0x3e2cf6da	0.16891041
18	0x3da7182e	0.08158909
19	0x3e49ffe7	0.19726525
20	0x3a2d052d	0.00066001975
21	0x3ea8f0ef	0.32996318
22	0xbcee5ef2	-0.029098008
23	0xbe8e9c92	-0.2785383
24	0x3e9f4dbb	0.3111399
25	0x3ec77e6a	0.38963634
26	0x3e4a9b99	0.19785918
27	0xbe95df4d	-0.29271927
28	0x3d3bc004	0.045837417
29	0x3ecbad62	0.39780718
30	0x3e86e5e6	0.26347274
31	0x3cf0f846	0.029415261

demo_encoder.2.weight f4 [32, 32]
0	0xbe9836a0	-0.29729176
1	0x3da0864d	0.07838116
2	0xbe7dd556	-0.24788412
3	0x3daa8257	0.083256416
4	0x3e830d56	0.25596112
5	0x3d0ceebe	0.03440737
6	0x3e03ac1a	0.1285862
7	0x3dd766d2	0.10517658
8	0x3d5b65a5	0.053563733
9	0xbde91ac5	-0.11382059
10	0xbd421bc3	-0.047389757
11	0x3e012dfb	0.12615196
12	0xbe5be342	-0.2147341
13	0x3e402881	0.18765451
14	0xbd8f77cb	-0.070052706
15	0xbdc3a6c3	-0.09553292
16	0xbc2ccab9	-0.01054638
17	0xbce55d42	-0.02799857
18	0x3e647386	0.22309694
19	0xbe709749	-0.2349521
20	0x3dfbd241	0.12295962
21	0xbe37ecd3	-0.17961435
22	0x3e8d643f	0.27615544
23	0x3e19b105	0.15008934
24	0xbed1c4be	-0.40970415
25	0x3e10c3bf	0.14137171
26	0x3e0f453e	0.13991258
27	0x3da744c0	0.0816741
28	0x3e16059c	0.14650577
29	0xbe521b69	-0.20518269
30	0xbbbe4762	-0.0058068493
31	0xbda8a998	-0.082354724
32	0xbdd39745	-0.10331587
33	0x3e669f9b	0.22521822
34	0x3e696d2a	0.22795549
35	0x3da0ac14	0.07845321
36	0x3e07c21e	0.13257644
37	0xbde5429e	-0.11194347
38	0xbd22aeac	-0.03971736
39	0x3deca95c	0.1155574
40	0xbe9ad1b7	-0.30238125
41	0x3dbed0b2	0.09317149
42	0x3e4d5a97	0.20054089
43	0xbe4085c0	-0.18801022
44	0xbd9e1184	-0.077181846
45	0xbd01d077	-0.03169295
46	0xbdfc509d	-0.12320063
47	0x3e071bd1	0.13194205
48	0xbdd222ea	-0.102605656
49	0xbc8326a0	-0.016009629
50	0x3e1841d8	0.14868867
51	0xbe178db7	-0.14800154
52	0x3e59960b	0.21248643
53	0x3cc54f38	0.024085626
54	0x3daeb7af	0.085311286
55	0xbe08dd6a	-0.13365713
56	0xbe27a639	-0.16372003
57	0x3dd51435	0.10404245
58	0x3e3fcd5d	0.18730684
59	0x3cda1b16	0.026624244
60	0x3e166413	0.14686613
61	0x3e363cef	0.17796682
62	0xbc0c363a	-0.0085578505
63	0x3ceb97e5	0.028758952
64	0x3d12d1de	0.035844676
65	0x3e9b35ad	0.3031439
66	0x3e86619d	0.26246348
67	0x3d8d1ce7	0.06890278
68	0xbd51538c	-0.051105067
69	0x3e88a41f	0.26687714
70	0xbdc545b3	-0.09632435
71	0xbea3e0fe	-0.32007593
72	0xbda30c6c	-0.07961354
73	0xbd988d71	-0.07448853
74	0xbc14b2f5	-0.00907587
75	0xbea884db	-0.3291386
76	0x3d4636a6	0.04839196
77	0x3d54623b	0.051851492
78	0xbe88997c	-0.266796
79	0x3c79d637	0.015248827
80	0x3e750dee	0.23931095
81	0xbeb50ab6	-0.35359734
82	0xbe217bd0	-0.15769887
83	0xbeae07ab	-0.33990225
84	0xbe1a3d27	-0.1506239
85	0x3d9a7aa7	0.07542925
86	0xbda04836	-0.07826273
87	0xbe115f8a	-0.14196602
88	0xbe8ec7c0	-0.27886772
89	0xbdd2b42a	-0.1028827
90	0x3cfc7e35	0.030821899
91	0xbd95155e	-0.07279466
92	0x3e32fd37	0.17479406
93	0xbde52e53	-0.11190476
94	0xbe03c79c	-0.12869114
95	0xbe8538ea	-0.26019984
96	0xbd8fae0d	-0.070156194
97	0x3d48c657	0.049017277
98	0x3e7aed43	0.2450457
99	0x3dd4fd9a	0.10399933
100	0xbd3ba69c	-0.045813188
101	0x3d8057a7	0.06266718
102	0xbbca2e58	-0.0061700754
103	0x3d1ef7e4	0.038810626
104	0xbe8e17a2	-0.27752405
105	0xbe0f59c4	-0.13999087
106	0xbda684b2	-0.08130778
107	0xbe8efddc	-0.27928054
108	0xbe06b786	-0.13155946
109	0x3db7562c	0.08951983
110	0xbd6a3ac7	-0.05718496
111	0xbe0bf1e6	-0.13666496
112	0xbe82356a	-0.25431377
113	0xbea3b2e8	-0.31972432
114	0xbe386d38	-0.18010414
115	0x3d507b55	0.05089887
116	0x3cc2a353	0.02375952
117	0x3bb64303	0.0055621876
118	0xbdc3ebad	-0.09566436
119	0xbe90d9ff	-0.28291318
120	0xbe48affb	-0.19598381
121	0xbe08c668	-0.13356936
122	0xbd13c366	-0.03607502
123	0xbe0f5e6f	-0.14000867
124	0x3e15bee6	0.14623603
125	0xbe6270af	-0.22113298
126	0x3d618b08	0.05506423
127	0x3c69a6bc	0.014260944
128	0x3e4776a8	0.19478858
129	0x3d441513	0.04787166
130	0x3e79909c	0.2437157
131	0xbe0947f1	-0.1340635
132	0xbd21959e	-0.039449327
133	0x3ebd3191	0.3695188
134	0xbddf683e	-0.109085545
135	0xbe10a0eb	-0.14123885
136	0xbdcf0ec5	-0.10110239
137	0xbe28e163	-0.16492228
138	0x3ed23874	0.41058695
139	0x3e5c7493	0.21528845
140	0xbc191396	-0.009343049
141	0xbe55caef	-0.20878194
142	0x3d333bcf	0.04375821
143	0xbb519fae	-0.0031986046
144	0xbdd2842d	-0.10279117
145	0xbe4add9c	-0.198111
146	0xbde2611f	-0.11053681
147	0xbdc03488	-0.093850195
148	0xbe34863c	-0.17629331
149	0x3d826f68	0.06368905
150	0xbdcdc08e	-0.100464925
151	0xbe30745a	-0.17231885
152	0x3d1a9bc1	0.037746195
153	0xbe3e2bd1	-0.18571402
154	0xbe2c8715	-0.16848405
155	0x3df5730f	0.11984836
156	0x3dbc4682	0.09193136
157	0x3e0a5bd8	0.13511598
158	0xbe45f3d0	-0.19331288
159	0x3e98c829	0.2984021
160	0xbd316dfc	-0.04331778
161	0xbca588b3	-0.020206785
162	0xbd84fdb5	-0.06493703
163	0x3dda2723	0.10651996
164	0xbe1a8100	-0.15088272
165	0xbe35cb65	-0.1775337
166	0x3cdc6db5	0.026907781
167	0xbd94d598	-0.07267302
168	0xbe6a5a69	-0.22886051
169	0xbe34ea7f	-0.17667578
170	0xbd8fb264	-0.07016447
171	0xbe90d4bf	-0.28287312
172	0x3dca37ed	0.09873948
173	0xbdfb3c3e	-0.1226735
174	0xbe1f16d6	-0.15536055
175	0xbe33ba8f	-0.17551635
176	0xbe704970	-0.23465514
177	0xbd6d1bd8	-0.057887882
178	0x3c4a3a2f	0.012342974
179	0xbeb82361	-0.35964492
180	0xbd9e1c92	-0.07720293
181	0x3d1e9ea1	0.0387255
182	0xbd76daba	-0.060267188
183	0xbe6c2c95	-0.23063882
184	0x3dbe5cbb	0.09295031
185	0xbcda5517	-0.026651902
186	0x3ceadc6b	0.028669557
187	0x3dc4a8d3	0.09602513
188	0xbe182754	-0.14858752
189	0x3cb10636	0.021609407
190	0x3e266bde	0.16252086
191	0xbde9ddfc	-0.11419293
192	0x3e47df80	0.19518852
193	0xbca01f02	-0.019546036
194	0xbc0f855a	-0.008759821
195	0x3df51c21	0.11968256
196	0x3d04e1f9	0.032442067
197	0xbcbb94e1	-0.02289814
198	0x3d9ed8bd	0.07756183
199	0xbd93ad50	-0.07210791
200	0x3e0a8f4b	0.13531224
201	0x3e97910e	0.29602855
202	0xbe6ebe7e	-0.23314855
203	0x3e7962da	0.24354115
204	0xbe6ef806	-0.23336801
205	0xbd93dd9f	-0.07220005
206	0x3dc22c5a	0.09481116
207	0x3db3f6c5	0.08787302
208	0xbe2247f9	-0.15847768
209	0x3e14c9b2	0.14530066
210	0x3df23e9f	0.1182835
211	0x3e8cb56a	0.27482158
212	0xbe681369	-0.22663654
213	0xbc6e1676	-0.014531722
214	0xbd88148f	-0.06644546
215	0xbe10f4c4	-0.1415587
216	0xbdc1fe97	-0.09472387
217	0x3d6420cb	0.055695336
218	0xbe4cb830	-0.19992137
219	0x3e27b921	0.16379215
220	0x3d136c70	0.035992086
221	0xbd2666f7	-0.04062554
222	0xbd9aeeaf	-0.075650565
223	0x3d9af346	0.07565932
224	0x3e8f0e17	0.27940437
225	0x3e86ac25	0.2630321
226	0xbd91c603	-0.07117846
227	0x3e3e1de0	0.18566084
228	0x3e91f6ca	0.28508598
229	0xbe25dad4	-0.16196758
230	0xbd9023a0	-0.07038045
231	0x3dfcb05d	0.12338326
232	0x3cc794fe	0.024363037
233	0x3b8c3b29	0.0042795134
234	0xbec565c2	-0.38554198
235	0x3e2fc885	0.17166336
236	0x3e63a275	0.22229941
237	0xbe77909f	-0.24176262
238	0x3e07d733	0.13265686
239	0x3eb7c60e	0.3589329
240	0x3ebad416	0.36489934
241	0x3dc29872	0.09501733
242	0xbd12aa5c	-0.035807
243	0x3e9f154f	0.31070945
244	0xbd23485e	-0.039863937
245	0xbe5eb750	-0.21749616
246	0xbdd1a09b	-0.10235711
247	0x3c995918	0.018719241
248	0x3e97d663	0.29655752
249	0x3d846250	0.06464064
250	0xbe07f864	-0.13278347
251	0x3d216811	0.039405886
252	0x3d97b2b0	0.07407129
253	0x3eb78105	0.35840622
254	0x3d9656b2	0.073407546
255	0xbe3c1ede	-0.1837115

demo_encoder.2.bias f4 [32]
0	0xbd701b61	-0.05861986
1	0x3e6dc085	0.23217972
2	0xbb9fa883	-0.004872383
3	0xbe4292ed	-0.1900136
4	0x3dcb59cc	0.09929237
5	0xbe579d84	-0.21056181
6	0xbdb369df	-0.08760428
7	0x3e32a88e	0.17447111
8	0x3e3b011d	0.18262143
9	0x3e4ee559	0.20204677
10	0xbd3e844b	-0.046512883
11	0x3d44cd84	0.048047557
12	0xbe404135	-0.18774875
13	0x3e4c71a1	0.19965221
14	0xbc81eccf	-0.01585999
15	0x3d953262	0.072850004
16	0xbc460bd7	-0.012087784
17	0xbe4c76d1	-0.199672
18	0xbe1129f8	-0.14176166
19	0xbdf0c726	-0.117567345
20	0x3ce943b2	0.028474662
21	0x3e050b03	0.12992482
22	0xbe2c4f25	-0.16827066
23	0xbe033764	-0.12814099
24	0xbceb60b5	-0.028732637
25	0x3c71c8eb	0.014757375
26	0x3e69e618	0.2284168
27	0xbd8d19a3	-0.068896554
28	0xbd2d2b06	-0.04227736
29	0x3d5ab839	0.053398345
30	0xbde38080	-0.11108494
31	0x3e4267bf	0.18984888

gru.weight_ih_l0 f4 [96, 111]
0	0xbe2bfdee	-0.16796085
1	0xbd0c9b1c	-0.03432761
2	0x3e224330	0.15845942
3	0x3dc5b0d1	0.09652866
4	0xbeeff352	-0.46865326
5	0xbde9cf47	-0.11416488
6	0x3e52a575	0.2057093
7	0x3e0bac8e	0.13640043
8	0x3b88b9bd	0.0041725324
9	0xbe50eb84	-0.20402342
10	0x3e5de179	0.21668042
11	0xbe8f3320	-0.27968693
12	0xbd442817	-0.047889795
13	0x3d7e0e9c	0.06202565
14	0x3e5cf7a4	0.21578842
15	0x3e9115eb	0.28337035
16	0x3daf5bae	0.085624084
17	0x3e165237	0.146798
18	0xbc5d045f	-0.013489812
19	0x3eeb51cb	0.4596084
20	0xbe80dcc5	-0.25168434
21	0xbd900d03	-0.07033732
22	0xbda61e4f	-0.0811125
23	0xbd37e4a6	-0.04489579
24	0x3e1e5c59	0.15464915
25	0x3dc0de09	0.0941735
26	0x3dcc6e9f	0.09982037
27	0x3e190e71	0.14946915
28	0xbe08fbd2	-0.13377312
29	0xbdf95171	-0.12173737
30	0xbe3ebd9d	-0.18627019
31	0xbc27af30	-0.010234639
32	0x3e705ea8	0.23473608
33	0x3e585a31	0.21128155
34	0xbd5f8e06	-0.054578803
35	0x3de95b31	0.113943465
36	0x3e0f666b	0.14003913
37	0xbd8cc400	-0.068733215
38	0xbe4d9d91	-0.20079638
39	0xbd2aa29c	-0.041658983
40	0xbe96f966	-0.2948715
41	0xbe35fc2b	-0.17771976
42	0xbe1129f9	-0.14176168
43	0xbec1902d	-0.3780531
44	0xbe27f9ab	-0.16403835
45	0x3d270da6	0.0407845
46	0x3d745421	0.059650544
47	0xbc226b21	-0.009913237
48	0xbd2a73fd	-0.04161452
49	0xbe4d8b37	-0.20072637
50	0xbe389070	-0.18023849
51	0xbd276f5c	-0.040877685
52	0xbbace267	-0.0052760127
53	0xbe32ea0d	-0.17472096
54	0x3d2342fb	0.0398588
55	0x3d86ee7c	0.06588456
56	0xbe6b395d	-0.22971101
57	0xbe1987e6	-0.14993247
58	0xbdf2d5d5	-0.118571915
59	0x3e4749c6	0.19461736
60	0x3dcea197	0.100894146
61	0xbe7a88c2	-0.24466231
62	0xbdd27305	-0.102758445
63	0xbe21b06e	-0.15789959
64	0xbe6ada60	-0.22934866
65	0x3d86ea01	0.065876015
66	0x3da23e07	0.07921987
67	0xbdc710c5	-0.097199954
68	0xbd9893cf	-0.07450067
69	0x3de1a4fd	0.11017797
70	0x3d39f68f	0.045401152
71	0xbdd6824c	-0.10474071
72	0x3ca492ff	0.020089624
73	0x3db6366d	0.088971
74	0xbd866c4b	-0.06563624
75	0x3e2cd358	0.16877496
76	0xbe4d9805	-0.20077522
77	0xbaf78d2c	-0.0018886677
78	0x3defc329	0.11707146
79	0x3e555b7b	0.20835678
80	0x3d9ee27e	0.07758044
81	0xbdb41af6	-0.08794205
82	0x3dbc53e2	0.09195687
83	0xbce8cb34	-0.028417207
84	0xbe8de3f7	-0.27712986
85	0x3e01767b	0.12642853
86	0xbe071c5d	-0.13194413
87	0x3dfcee47	0.12350135
88	0xbe188090	-0.14892793
89	0xbeac7523	-0.33683118
90	0xbd4b848f	-0.049686965
91	0x3e779abc	0.2418012
92	0xbe8b77ab	-0.27239737
93	0xbed25b82	-0.4108544
94	0x3de2ba66	0.11070709
95	0xbe316eb3	-0.17327385
96	0x3c86ea65	0.01646919
97	0xbd3dbb44	-0.04632117
98	0xbdb02385	-0.08600525
99	0xbe16ec02	-0.14738467
100	0xbc355682	-0.011067988
101	0x3d17eec3	0.037092935
102	0x3e82f7e6	0.25579756
103	0x3e6f454c	0.23366278
104	0x3dc0a41d	0.09406302
105	0x3e14db3a	0.14536753
106	0xbe7e65db	-0.24843542
107	0xbc905bb8	-0.01762186
108	0x3dbf39c7	0.09337192
109	0x3a2e7a87	0.0006655831
110	0xbe989e59	-0.2980831
111	0x3e208853	0.15677004
112	0xbbf88345	-0.007584008
113	0xbd88110b	-0.06643876
114	0xbdf2887c	-0.118424386
115	0xbd9197eb	-0.07109054
116	0xbe05e719	-0.13076438
117	0x3cb6cad3	0.022313511
118	0xb9065b73	-0.00012813303
119	0xbe408d0e	-0.18803808
120	0xbca364c1	-0.019945504
121	0xbc880d56	-0.016607922
122	0xbdb1c24d	-0.08679638
123	0xbd815ea6	-0.06316881
124	0x3dece519	0.115671344
125	0x3e1d2981	0.15347864
126	0xbcc086b9	-0.02350174
127	0xbdb9073a	-0.090345815
128	0x3dcbb4d6	0.09946601
129	0x3e3a4457	0.18190132
130	0x3e66a519	0.22523917
131	0xbda09cbe	-0.07842396
132	0x3d9e0a76	0.07716839
133	0xbe183117	-0.14862476
134	0xbe076c0b	-0.13224809
135	0x3de599e8	0.11210996
136	0xbd00f18f	-0.03148037
137	0xbd91f5e3	-0.07126977
138	0xbe4cc10f	-0.19995521
139	0x3d9ff79f	0.07810902
140	0xbe4a3c3a	-0.19749537
141	0xbd83b2c9	-0.06430585
142	0xbd9445af	-0.072398536
143	0x3da85544	0.08219388
144	0xbde6a82a	-0.112625435
145	0x3e4b4ee0	0.19854307
146	0x3cd7772e	0.026301946
147	0xbd8b0af3	-0.06789198
148	0xbd19dc80	-0.0375638
149	0xbe191a1f	-0.1495137
150	0xbe5946ec	-0.21218461
151	0xbe26716f	-0.16254209
152	0x3cfd6dba	0.03093611
153	0xbd9935f0	-0.07480991
154	0xbe18c82c	-0.1492011
155	0x3d829a1e	0.06377052
156	0xbdfa68fa	-0.12227054
157	0x3e4b0b29	0.19828476
158	0x3e96598a	0.29365188
159	0x3e892043	0.26782426
160	0x3db53857	0.088486366
161	0x3da0eb43	0.078573726
162	0xbdc73514	-0.09726921
163	0x3c805432	0.015665147
164	0x3de7925e	0.11307214
165	0x3d271864	0.040794745
166	0x3e55eed4	0.20891887
167	0x3e28a56f	0.16469358
168	0x3df71cb9	0.12066025
169	0x3e2d9bb7	0.16953932
170	0xbd2dc445	-0.042423505
171	0x3cc9d1aa	0.024636108
172	0x3de3abce	0.111167535
173	0xbe01f49f	-0.12690972
174	0x3d50eef0	0.05100912
175	0x3e177c15	0.14793427
176	0x3d40ffdb	0.047119003
177	0xbbc08f26	-0.0058764396
178	0x3d79c3f9	0.06097791
179	0x3e5b52c2	0.21418288
180	0xbd1a23df	-0.037631866
181	0xbd883754	-0.06651178
182	0xbd9ae6d3	-0.075635575
183	0xbe235b9d	-0.15952916
184	0xbe0235b8	-0.12715805
185	0xbd709b6b	-0.058741968
186	0x3e87e60b	0.26542696
187	0x3db9b045	0.09066824
188	0xbe0a0a72	-0.13480547
189	0x3dd6b818	0.10484332
190	0xbdb05a1a	-0.086109355
191	0x3bb57466	0.0055375574
192	0x3cb79b7d	0.02241301
193	0xbdbdd555	-0.092692055
194	0xbdba570b	-0.090986334
195	0x3d397d6f	0.04528564
196	0xbd40d35e	-0.047076575
197	0xbd14a8c5	-0.036293764
198	0xbe9f1291	-0.31068853
199	0xbe14b28c	-0.14521235
200	0xbd9d9886	-0.07695107
201	0x3c8ae9c0	0.016957164
202	0x3dba243e	0.09088944
203	0x3d51309d	0.051071752
204	0xbe68860f	-0.2270739
205	0x3db71aa4	0.08940628
206	0x3de32baa	0.11092313
207	0xbd916a64	-0.071003705
208	0x3d9bcf04	0.076078445
209	0x3e57d748	0.21078217
210	0x3dc9ccd3	0.0985352
211	0x3e3cd1ac	0.18439358
212	0xbd0a7f62	-0.033812888
213	0xbd3b0f66	-0.045668982
214	0xbd9c08b9	-0.07618851
215	0x3e3e08da	0.18558064
216	0xbd5297d5	-0.05141433
217	0x3d436393	0.047702383
218	0x3e8cdf36	0.27514046
219	0x3d4c6a02	0.049905784
220	0xbddefcfc	-0.10888097
221	0xbe2c2139	-0.16809548
222	0xbda6aa8e	-0.081379995
223	0x3e1b6726	0.15176067
224	0xbe2fba8a	-0.17161003
225	0xbd640065	-0.05566444
226	0x3efab7e9	0.48968437
227	0xbe789112	-0.2427409
228	0xbcfd58fd	-0.030926222
229	0x3d76dc38	0.06026861
230	0xbe0cd395	-0.13752587
231	0xbddf79b9	-0.10911889
232	0xbdf75976	-0.1207761
233	0x3d4e05a5	0.05029835
234	0x3e1ef538	0.15523231
235	0x3dedefcd	0.11618004
236	0x3e27f207	0.1640092
237	0xbe46137a	-0.19343367
238	0x3d0a8b66	0.033824347
239	0xbca38761	-0.019962015
240	0xbe2ee30f	-0.17078803
241	0x3e543666	0.20723876
242	0x3ea7abed	0.32748356
243	0xbcc3f353	-0.023919737
244	0x3e10adf6	0.14128861
245	0x3e31b1c1	0.17352964
246	0x3e09af53	0.13445787
247	0x3d6fbb74	0.05852838
248	0xbb73196a	-0.0037094005
249	0x3d2befd6	0.041976772
250	0xbcd0e524	-0.025499888
251	0x3d52d94c	0.05147676
252	0x3e694a28	0.22782195
253	0x3e2909f3	0.16507702
254	0xbe2fba67	-0.1716095
255	0xbd8de6a2	-0.06928755

gru.weight_hh_l0 f4 [96, 32]
0	0xbdb109e0	-0.08644462
1	0xbe09bc50	-0.13450742
2	0x3ddb7158	0.10714978
3	0xbd6e5f11	-0.05819613
4	0xbde23c7f	-0.11046695
5	0xbc4b1f58	-0.01239761
6	0x3be0652e	0.006847999
7	0xbce73495	-0.028223315
8	0x3d321673	0.04347844
9	0xbbb380e4	-0.0054780114
10	0x3c7d884b	0.015474389
11	0xbda37ee7	-0.07983189
12	0x3e1638c6	0.14670095
13	0xbdeafa3a	-0.11473508
14	0xbcef8316	-0.029237311
15	0xbd3a7977	-0.045525994
16	0xbd7be62b	-0.061498802
17	0xbe13695e	-0.14395663
18	0xbdc7e0fd	-0.0975971
19	0xbe3f3353	-0.18671922
20	0x3c13fe2d	0.009032768
21	0x3d4b8135	0.04968377
22	0x3e09d03a	0.13458338
23	0x3e0768e9	0.13223614
24	0x3d23a394	0.039950922
25	0xbd9ef567	-0.077616505
26	0x3e83121e	0.2559976
27	0x3df0a1f1	0.11749638
28	0x3dc72070	0.09722984
29	0xbcbfbe50	-0.023406178
30	0x3e46e990	0.19425035
31	0xbde77d97	-0.11303251
32	0xbe0d8593	-0.13820486
33	0xbbe25c0d	-0.006907946
34	0x3d5f9430	0.054584682
35	0xbd63166e	-0.055441312
36	0x3e27b06e	0.16375896
37	0xbdb09238	-0.08621639
38	0x3db8f7fc	0.09031674
39	0xbdb82fc6	-0.08993487
40	0xbda2423d	-0.0792279
41	0x3ccf2d19	0.025290059
42	0x3d8d24ae	0.06891762
43	0xbe13f2bc	-0.14448065
44	0x3d7cae35	0.061689574
45	0xbd07321b	-0.03300677
46	0xbcd7711d	-0.026299054
47	0x3d9da4a7	0.076974206
48	0x3b3c6f0b	0.002875271
49	0x3bdf5c15	0.006816397
50	0xbe23ca82	-0.1599522
51	0xbb8baa9c	-0.0042622816
52	0xbdaf229d	-0.08551524
53	0x3e4cf280	0.20014381
54	0x3e029662	0.12752679
55	0xbd9e02ee	-0.077154025
56	0xbda0b554	-0.078470856
57	0xbe51d44e	-0.20491144
58	0xbdd58e26	-0.10427503
59	0xbd743b7d	-0.059627045
60	0xbc39b795	-0.011335273
61	0xbe552d58	-0.20818079
62	0x3e23948e	0.15974638
63	0xbe092a58	-0.13395059
64	0xbe38d257	-0.18048988
65	0xbe099c2e	-0.13438484
66	0x3b9b44fa	0.0047384473
67	0x3c242cd6	0.010020455
68	0x3d8912c0	0.066930294
69	0x3db70be6	0.08937816
70	0x3c9b2f35	0.018943409
71	0x3e3fdb9f	0.18736123
72	0xbe5e59c8	-0.21713936
73	0x3c1019b0	0.008795187
74	0xbd48bce7	-0.049008276
75	0xbe497db6	-0.19676861
76	0x3e01592f	0.12631677
77	0xbddf37ec	-0.10899338
78	0xbd7b1d4e	-0.061307244
79	0xbe2bdbf4	-0.16783124
80	0xbde92de1	-0.11385704
81	0x3d96216a	0.07330592
82	0x3cf2c011	0.0296326
83	0x3cdb81f5	0.026795367
84	0x3de5ae5b	0.11214896
85	0x3de4a4ff	0.11164283
86	0xbdac84c4	-0.084237605
87	0xbe0ceecf	-0.13762973
88	0xbdfc2e96	-0.12313573
89	0x3e82514b	0.25452647
90	0xbde2c0f0	-0.11071956
91	0x3d16c6ee	0.036810808
92	0x39ba2ddb	0.0003551085
93	0xbd64b05a	-0.055832244
94	0xbd9a56b8	-0.075360715
95	0xbe083a02	-0.13303378
96	0xbd8306b0	-0.0639776
97	0xbe8b5b7d	-0.27218238
98	0x3c240d5f	0.010012954
99	0x3d4ff2c5	0.050768632
100	0x3e8317db	0.25604138
101	0xbdf97134	-0.12179795
102	0xbd303a7a	-0.043024518
103	0xbd4ae583	-0.049535286
104	0xbd617a5b	-0.055048328
105	0xbe5f6dbc	-0.21819204
106	0x3d866bb0	0.065635085
107	0xbd5274bc	-0.051380858
108	0x3e2f0ea5	0.1709543
109	0xbe995576	-0.29948014
110	0xbddbc809	-0.10731513
111	0x3c69c799	0.014268779
112	0x3c638cc7	0.013888544
113	0x3e00ccce	0.12578127
114	0xbdfca5e8	-0.123363316
115	0xbd08ec0e	-0.033428244
116	0xbde2a7b7	-0.11067145
117	0xbd2e840d	-0.042606402
118	0x3c99b113	0.018761193
119	0x3c367f42	0.011138739
120	0x3db30ba8	0.08742458
121	0x3ce3ad7b	0.027792683
122	0x3e25ed44	0.16203791
123	0xbd7685bf	-0.060186144
124	0xbeb25d1a	-0.34836656
125	0xbe206739	-0.15664376
126	0xbdd443a9	-0.10364468
127	0xbe50ac76	-0.20378289
128	0xbe353219	-0.17694892
129	0x3dfaf874	0.1225442
130	0x3e0e567b	0.13900177
131	0x3da35b6d	0.079764225
132	0xbd90e270	-0.070744395
133	0x3d89b117	0.0672323
134	0x3d4a40dc	0.04937826
135	0xbea39449	-0.3194907
136	0xbd98328b	-0.07431515
137	0xbe85a483	-0.26102075
138	0x3d769ddf	0.06020915
139	0xbd25a9a2	-0.040444978
140	0x3e07b002	0.13250735
141	0xbd5e3bc5	-0.05425622
142	0x3c9b154c	0.018931054
143	0x3da0f40a	0.07859047
144	0xbd60f64e	-0.054922394
145	0xbe68a1e6	-0.2271801
146	0x3da068d9	0.07832498
147	0xbd6ab706	-0.05730345
148	0xbe3ea3ff	-0.18617247
149	0xbe1d4401	-0.15357973
150	0x3dc131bd	0.09433315
151	0x3e3dc3b8	0.18531692
152	0x3d8338f7	0.064073496
153	0xbd67e277	-0.056612458
154	0xbd829654	-0.06376329
155	0xbad31675	-0.0016104715
156	0x380cdb6d	3.3582957e-05
157	0x3db30c91	0.08742631
158	0xba2d4f6e	-0.0006611262
159	0xbe49fa42	-0.19724372
160	0xbe0f8174	-0.14014226
161	0xbd907b09	-0.07054717
162	0xbe1837e9	-0.14865078
163	0xbcb80e77	-0.022467835
164	0x399737bd	0.00028842493
165	0xbd9f4e15	-0.07778565
166	0x3e065269	0.13117374
167	0x3d3da63e	0.04630112
168	0x3cbfc9a5	0.023411581
169	0xbce51c99	-0.027967738
170	0x3dac4c67	0.0841301
171	0xbdcc2903	-0.0996876
172	0x3d6a8414	0.057254866
173	0xbe054eca	-0.13018337
174	0xbca54b91	-0.020177634
175	0x3da8022d	0.0820354
176	0x3e85df3d	0.2614688
177	0x3e4f1fbe	0.20226952
178	0xbd8c4d3f	-0.06850671
179	0xbcaa78b5	-0.02080951
180	0x3d9157de	0.070968375
181	0xbe3f7655	-0.18697484
182	0x3d414c2b	0.04719178
183	0xbdd8f9f5	-0.105945505
184	0xbcd25690	-0.025676042
185	0x3e4f84df	0.2026553
186	0xbe0b76c0	-0.13619518
187	0x3d8ff791	0.070296414
188	0x3c39b967	0.011335707
189	0xbe1eaf7b	-0.15496628
190	0x3df323be	0.11872052
191	0xbda75ea8	-0.08172351
192	0x3c783009	0.015148171
193	0xbe23218d	-0.15930767
194	0xbe8ed8a0	-0.27899647
195	0x3d81168a	0.06303127
196	0x3e1fc671	0.15603043
197	0xbe8c8cb2	-0.27451092
198	0xbd286723	-0.041113984
199	0xbe8545a4	-0.26029694
200	0x3de43dc9	0.11144597
201	0xbe6b5099	-0.22979964
202	0xbc65aa74	-0.01401769
203	0xbb48b430	-0.0030624978
204	0x3dae2f3d	0.08505104
205	0x3d7dd84d	0.06197386
206	0xbddc9c63	-0.10772016
207	0x3e4150ec	0.18878525
208	0xbd373e33	-0.044737052
209	0x3e70aec9	0.23504175
210	0xbe19038c	-0.1494276
211	0x3d4b953f	0.04970288
212	0xbd3e91b9	-0.04652569
213	0x3d48021e	0.048830144
214	0x3e446128	0.19177687
215	0x3d922c09	0.07137305
216	0xbd396375	-0.045260865
217	0x3da82635	0.082104124
218	0x3d054171	0.032533113
219	0xbe0395c4	-0.128501
220	0xbe28cd03	-0.16484456
221	0x3da4138a	0.08011539
222	0xbd80910e	-0.06277667
223	0x3e1b5379	0.15168561
224	0xbb32323d	-0.002719059
225	0x3da785c8	0.081798136
226	0x3e26b46d	0.16279764
227	0x3d303e69	0.04302827
228	0x3dbfc33c	0.0936341
229	0xbdba0d9d	-0.09084628
230	0x3decb671	0.115582354
231	0xbe36e577	-0.17860971
232	0xbdd045a9	-0.101695366
233	0xbdc46222	-0.0958903
234	0x3e295a18	0.16538274
235	0x3e501a37	0.203225
236	0x3dc5d813	0.096603535
237	0xbdeb7817	-0.11497515
238	0xbdaadcc7	-0.08342891
239	0x3e7948a3	0.24344115
240	0x3dac5754	0.08415094
241	0xbdd66ac9	-0.104695864
242	0x3e201503	0.15633015
243	0xbe2fe593	-0.1717742
244	0x3e079d0d	0.13243504
245	0xbd894b49	-0.06703813
246	0x3e3fcfce	0.18731615
247	0xbda00568	-0.07813531
248	0x3e55477e	0.20828053
249	0x3db47fc0	0.08813429
250	0xbdcb31eb	-0.099216305
251	0x3c1b318b	0.009472261
252	0x3e449203	0.19196324
253	0xbe3630ce	-0.17792055
254	0x3e002793	0.12515096
255	0xbdea024e	-0.11426221

gru.bias_ih_l0 f4 [96]
0	0x3e1c11bb	0.15241139
1	0x3bc47558	0.005995434
2	0x3e07c065	0.13256986
3	0x3e46eb40	0.19425678
4	0xbe14eeef	-0.14544271
5	0xbd93773c	-0.072004765
6	0x3e9ab811	0.30218557
7	0x3c5510a3	0.013004455
8	0x3da71cc6	0.08159785
9	0x3e06bb43	0.13157372
10	0xbdf72b25	-0.12068776
11	0xbc13618b	-0.008995424
12	0x3d34212b	0.043976944
13	0x3d153e02	0.03643609
14	0x3c3c13f0	0.011479363
15	0xbe3a1d82	-0.18175319
16	0x3d35932c	0.044329807
17	0x3d068a14	0.032846525
18	0xbcfb1847	-0.030651225
19	0x3cf051f5	0.029335955
20	0xbd6bde2d	-0.05758493
21	0x3dd4c23e	0.10388611
22	0x3cc2992a	0.023754675
23	0xbe1dc7f0	-0.15408301
24	0xbdbad6e4	-0.091230184
25	0xbd5bed7f	-0.05369329
26	0xbc0191f6	-0.007908335
27	0xbdcf66af	-0.10127007
28	0x3d6f5d1f	0.058438417
29	0x3e0d1d2f	0.13780664
30	0xbd95c30c	-0.07312593
31	0x3e135bec	0.14390534
32	0x3e812abd	0.2522792
33	0x3dc1cd54	0.09462991
34	0x3b9bf4ce	0.0047594076
35	0xbd27baa7	-0.04094949
36	0xbcbed7a1	-0.02329618
37	0xbe436750	-0.1908238
38	0x3db33850	0.08750975
39	0x3e004973	0.12528019
40	0x3cb76fed	0.022392238
41	0x3dd74971	0.10512055
42	0x3cac7303	0.021050936
43	0xbcb0d47f	-0.021585701
44	0xbd560c12	-0.052257605
45	0x3cf14258	0.02945058
46	0xbdb08145	-0.08618406
47	0xb9b812cb	-0.00035109217
48	0x3d989334	0.07449952
49	0xbe398a7c	-0.18119234
50	0x397dc721	0.00024202142
51	0xbd9469cf	-0.07246744
52	0xbdc7ff33	-0.09765472
53	0xbc6bd607	-0.01439429
54	0x3e3adebe	0.18249032
55	0xbdb8814d	-0.09009037
56	0x3e8ab4ab	0.27090964
57	0x3e561870	0.2090776
58	0x3e8b0586	0.27152652
59	0xbdb77836	-0.08958475
60	0xbd09c844	-0.033638254
61	0xbc720a5b	-0.014772977
62	0x3d35034f	0.04419261
63	0xbdb70b6f	-0.08937728
64	0xbbe8aa63	-0.00710039
65	0xbe7484b3	-0.23878746
66	0xbe39587c	-0.1810016
67	0x3d8004fe	0.06250952
68	0xbdd90c20	-0.10598016
69	0x3ac51c4b	0.0015038339
70	0xbc88c15f	-0.016693769
71	0x3df74946	0.12074523
72	0x3d6ea608	0.05826381
73	0x3d4d7669	0.050161753
74	0xbe21b8c3	-0.15793137
75	0xbe6035d5	-0.21895535
76	0xbcb1e75d	-0.021716768
77	0x3d99fb78	0.07518667
78	0xbd8e3012	-0.069427624
79	0x3ce3efb3	0.027824258
80	0x3d79173e	0.06081318
81	0x3dba70ea	0.09103568
82	0x3da100ae	0.07861458
83	0xbd9a93d9	-0.07547731
84	0xbceaeee2	-0.028678361
85	0x3df780f8	0.12085146
86	0x3dfd7c58	0.12377232
87	0xbdbb8552	-0.09156288
88	0xbe820729	-0.25396088
89	0xbe342485	-0.17592056
90	0x3dba7f41	0.09106303
91	0x3d56d380	0.052447796
92	0x3d18860d	0.037237216
93	0xbdc83def	-0.09777438
94	0x3ddbda5c	0.10735008
95	0xbdb1a812	-0.08674635

gru.bias_hh_l0 f4 [96]
0	0x3cd4fb45	0.02599872
1	0x3cc808c8	0.02441825
2	0xbcfe2544	-0.031023629
3	0x3dd09a14	0.10185638
4	0xbde54bd5	-0.111961044
5	0x3e23340e	0.15937826
6	0x3dad0c27	0.084495835
7	0xbd88ca72	-0.066792384
8	0x3dd03974	0.10167208
9	0x3e337a5f	0.1752715
10	0xbddcc36d	-0.10779462
11	0x3decadcd	0.11556587
12	0x3e13c360	0.14429998
13	0x3d8aa9c1	0.06770659
14	0x3e0deacc	0.13859099
15	0xbe5a512c	-0.21320027
16	0x3c2aa3b3	0.0104150055
17	0x3dcf969c	0.10136148
18	0xbe30042b	-0.1718909
19	0xbde4251a	-0.11139889
20	0xbe65e946	-0.22452268
21	0xbc5384d1	-0.012910084
22	0xbda58b6c	-0.08083233
23	0xbd05b963	-0.0326475
24	0x3e096568	0.1341759
25	0x3e2898bf	0.16464518
26	0x3e1c6967	0.15274583
27	0x3bd75984	0.0065719504
28	0xbdac5ffb	-0.08416744
29	0x3d2554d7	0.040364113
30	0x3e20fb44	0.1572085
31	0xbdc8280c	-0.09773263
32	0x3e76a772	0.24087313
33	0x3bb9d71d	0.0056713955
34	0x3df2c229	0.11853439
35	0x3b3914a6	0.0028241067
36	0x3dc5c8a3	0.09657409
37	0xbc93436e	-0.017976489
38	0xbdd2b985	-0.10289291
39	0xbe0cb79d	-0.13741918
40	0x3e67285a	0.22573987
41	0x3dcd5dfa	0.1002769
42	0x3e75a327	0.23988019
43	0x3cd7afe1	0.026328983
44	0x3dc9888d	0.09840498
45	0x3c46f6c5	0.012143795
46	0x3dba58ef	0.09098994
47	0x3d2fd646	0.042928956
48	0xbe45b608	-0.1930772
49	0xbe3ddd13	-0.18541364
50	0x3cc305f0	0.023806542
51	0x3e66733d	0.22504897
52	0xb9e884fd	-0.00044349572
53	0xbcebaac1	-0.028767945
54	0xbdae9874	-0.08525172
55	0xbd6d717f	-0.057969566
56	0x3e820bef	0.2539973
57	0x3dc385e9	0.09547026
58	0x3d6e81e0	0.058229327
59	0xbdfe4bca	-0.12416799
60	0xbda24556	-0.07923381
61	0xbc6366ad	-0.01387946
62	0x3d2236bf	0.03960299
63	0x3e0042e5	0.12525518
64	0x3d8a46a2	0.067517534
65	0xbe158585	-0.14601715
66	0xbe15aa88	-0.14615834
67	0x3d4bcc25	0.049755234
68	0x3db0efdb	0.08639499
69	0x3dd12e2e	0.10213886
70	0xb99c4b0f	-0.00029810562
71	0x3d6bce3c	0.057569727
72	0xbc9454b7	-0.018106801
73	0x3d2b7a5b	0.041864734
74	0x3d89a7ac	0.06721434
75	0xbc17aa5c	-0.009256925
76	0x3e562893	0.20913915
77	0xbe2d9c8c	-0.16954249
78	0xbddef68c	-0.10886869
79	0x3e111c00	0.14170837
80	0x3cbc010d	0.02294972
81	0x3da5f952	0.08104195
82	0x3e018dfc	0.12651819
83	0x3dfb8127	0.12280493
84	0x3e096c03	0.1342011
85	0xbdb2c785	-0.087294616
86	0x3dbfe863	0.09370496
87	0xbe2d6abd	-0.16935249
88	0xbe95fab0	-0.29292822
89	0x3e325efb	0.17419045
90	0x3d93462d	0.07191119
91	0x3e59ba86	0.2126256
92	0xbd9ef4c4	-0.07761529
93	0xbcd92a37	-0.026509387
94	0xbdb01cb4	-0.08599225
95	0xbe51b921	-0.20480777

output_layer.weight f4 [2, 32]
0	0xbe4d14b4	-0.20027429
1	0x3e76c67a	0.2409915
2	0x3daf4509	0.08558089
3	0x3e82eb25	0.25570026
4	0x3e44ec10	0.19230676
5	0xbe8c5d4b	-0.27414927
6	0x3de01631	0.10941733
7	0x3cf03ddd	0.029326374
8	0xbe3b83a9	-0.18311943
9	0xbe080195	-0.13281853
10	0x3e4b3e99	0.19848098
11	0xbe7f5a91	-0.24936892
12	0x3e01f75f	0.12692021
13	0x3e410871	0.18850876
14	0xbdc0705d	-0.093964316
15	0xbe2b73ee	-0.16743442
16	0xbe7ae277	-0.24500452
17	0x3e7632e8	0.24042857
18	0xbe2883fc	-0.16456598
19	0x3ca0269e	0.019549664
20	0xbe49d054	-0.19708377
21	0xbe3de7b4	-0.18545419
22	0x3e7a670e	0.24453375
23	0xbe6e902b	-0.23297183
24	0x3e522b2d	0.20524283
25	0x3e7aaca0	0.24479914
26	0x3e1efbde	0.15525767
27	0x3e720cda	0.23637715
28	0x3dd4ddd5	0.103938736
29	0xbea65344	-0.32485402
30	0x3e6f5d2d	0.23375387
31	0xbdecfde2	-0.11571862
32	0x3e0fe230	0.14051127
33	0xbdaf0a07	-0.085468344
34	0xbe82420e	-0.2544102
35	0xbdb690b1	-0.089143164
36	0xbdf57f06	-0.119871184
37	0x3d23007a	0.039795376
38	0xbe45922f	-0.19294046
39	0xbe0181af	-0.12647127
40	0x3e1bbe6c	0.15209359
41	0x3e96848e	0.29398006
42	0xbd8128d5	-0.06306616
43	0x3e5ec7d3	0.21755914
44	0xbd0c07d1	-0.03418714
45	0xbe01c6e4	-0.12673527
46	0x3e77949f	0.24177788
47	0x3da2234b	0.07916888
48	0x3e318ef0	0.17339683
49	0xbe813e35	-0.25242773
50	0x3d4fa38d	0.050693084
51	0x3e5c7c4b	0.21531789
52	0x3ddc6a80	0.10762501
53	0x3ddaa2f4	0.10675612
54	0xbd56df8e	-0.052459292
55	0x3e3d613e	0.18494126
56	0xbc2383ec	-0.009980183
57	0xbe7ff197	-0.24994503
58	0xbe10f8d8	-0.14157426
59	0xbdee18c3	-0.11625817
60	0xbdc9507a	-0.09829803
61	0x3e8a73ee	0.27041572
62	0xbd264334	-0.040591434
63	0x3b3fcad7	0.002926519

output_layer.bias f4 [2]
0	0xbbdb3040	-0.0066891015
1	0xbe05a2b4	-0.13050348
