ehr_ipnets/split_2/checkpoint.pt (torch, 70947 bytes, 12 tensors)

single_channel_interp.kernel f4 [37]
00000000: 6179 febe 63b8 57be 4b96 133f 5b54 c93e
00000010: 41b0 c33d bb15 35bf aff5 b2bd b9dc 893f
00000020: ac7d 08bf d701 4e3e 2630 b7bd a76c 36bb
00000030: 0b3a 65be 2e85 d2be 60f9 80be cdb6 8cbe
00000040: 1362 46bc 9f16 d3be aed4 613e d7df 44bc
00000050: fd94 483a 75bf cdbd f3d4 edbe 8bae 77bd
00000060: e5f0 23bf fb23 81be bd7d 44bc 68ba 00bf
00000070: 8753 213c 8e5d 713e 8d01 e23d 6d95 833e
00000080: 7f96 9a3f 96a4 bb3e 1582 2b3f dddf ae3b
00000090: 5bf1 3c3e
-0.4970198 -0.21066432 0.57651204 0.3932217 0.09555102 -0.70736283 -0.08738267 1.0770484
-0.5331676 0.2011789 -0.089447305 -0.0027835758 -0.22385423 -0.41117233 -0.25190258 -0.27483216
-0.012108344 -0.41228196 0.22053787 -0.012016258 0.00076515955 -0.10046283 -0.4645153 -0.06046919
-0.6403945 -0.25222763 -0.011992869 -0.50284433 0.009846575 0.23570845 0.11035452 0.2569994
1.2077178 0.36649007 0.66995364 0.005336745 0.18451445

cross_channel_interp.cross_channel_interp f4 [37, 37]
00000000: 9ce0 8f3f ad00 b9bd f890 20be ffbb 523d
00000010: d051 d3bc add7 debb 07b2 8ebc f435 10be
00000020: bb8a 17bd 4dc9 e9bd c9c0 25bd a440 2a3d
00000030: 75a8 8ebd dee4 0d3d 5086 83bd 627f eb3d
00000040: 8609 a93b 4934 a83a 7196 a83d 2458 acbb
00000050: 9ace c93d 9dbe 7bbe 84dd 0c3d 43b0 023d
00000060: 6aae 343d e7d1 183d b971 35be 572e 7fbd
00000070: 14b9 da3d 3095 c1bc 7282 c03c 1983 cabd
00000080: 92a3 b0bd 5372 8cbd 299e 04be a6dd 30bd
00000090: 8371 163e 2a39 0cbe b3aa 6d3f b6e7 9a3a
000000a0: 1c37 7c3e e525 6bbe 9117 ab3e 6906 a53e
000000b0: 5f00 433e 8a38 593e 17e1 7ebe 5268 2c3e
000000c0: 897d 30be 9ebe 2c3e 8b63 a3be cbb2 16bd
000000d0: ce25 a43d d322 b23e edef bd3e 62c6 06be
000000e0: c626 263e 6ae7 803e 20c1 f2bd 3d43 063e
000000f0: b3d1 6dbd 1f32 0ebd ad78 8dbd 162f a53d
00000100: 8236 b43e ea8d 9b3d 6b90 1abe 3600 30be
00000110: 1bdc 8dbe ab9e f93c 9516 003d fcf6 5ebe
00000120: 1e02 333e d314 27bc ad98 d2bc 8381 933d
00000130: abd6 5e3f 0282 483f a76c 61bd aa19 f3bb
00000140: 62e9 3f3e 7f00 0a3e 0fb3 cb3d f9be 0d3e
00000150: e758 e13d 8bad 0abe b708 c83d f1a3 90bd
00000160: 72ec ebbd ae4d 323e ea97 383e 7bc4 fb3d
00000170: 5370 5cbd 9f28 a63e 174e 4b3e faa6 a03e
00000180: d2cb 3a3e b236 38be ce50 783e 9ac6 35bd
00000190: 562b 843d cea3 c63d 50a4 7b3e f853 7abe
000001a0: 5fa8 363e eefc 2ebe c689 a03e cd69 c4bd
000001b0: f5c3 78be 1a8c 683e 659b 56bb 5dfe 86bd
000001c0: 2ac6 1a3e d51b 0a3f a524 703f 22ca 80bd
000001d0: 69a2 ee3a b6f7 4d3e ef76 fd3d 70fc fd3d
000001e0: ced5 823e 2d28 bb3d edac 13be 5454 033e
000001f0: 087a d6bd a48a 73be 1985 163e 8fd8 4f3e
00000200: 156f 633e 2330 c9bc 1718 983e 5ef2 873e
00000210: 256c b93e 41b5 0f3e 72a5 d3bd 58df fe3d
00000220: b0d1 27bd 6afe e93d 27e0 1c3e 403c 823e
00000230: b99d 34be b501 553e 253a 50be b79e 803e
00000240: 1b2d e9bd c258 89be 89ad 363e eaa0 413d
00000250: c321 e73e e876 80be 5b1b ca3e 894b 7bbc
00000260: 8225 9c3f cced b8be 0b01 cdbe f4f9 febe
00000270: ec8b 443d c40e 47bd 6241 05bf b2ce ff3e
00000280: 2d2d 1abe 3256 a93e 94a3 29bd d557 2dbe
00000290: d05b e3bc 131a d7be d386 c43e de28 11bf
000002a0: 2251 8fbe dc7d 3f3c 4a7e 633e 5132 773d
000002b0: 300c d8bc 227f 5e3e 8b97 863e c184 5a3d
000002c0: 905f c5be 53f7 dd3e 31db 613e 55c6 dd3e
000002d0: 40f6 54bd 5a54 34be 3eb3 a93e f659 d4be
000002e0: 49c2 263e e703 5fbe 12c1 ad3d c093 ddbd
000002f0: 21c5 23be 00aa 2cbe 7b9c 933f 488d 203e
00000300: ac76 483e 0d15 3d3f 19d2 67bc 191e bb3e
00000310: 6a3a 38be cf87 943e aa85 1dbf 8495 bf3d
00000320: e5f6 cabe 5765 a93e 38a5 903e b5c4 813d
00000330: 72e1 803c c651 a43e d0ce 22be f092 09bf
00000340: 34b8 463d 651c 2ebe b435 28be 62f6 2c3e
00000350: c6ee 82be 5fd0 9fbd d3b1 353e 58b7 15be
00000360: 0991 d8bd 9621 89be a1b6 913e 2990 83be
00000370: 8d73 483e 4906 d3be e36f 4abe 5c7c 913e
00000380: 5632 8fbd 1736 6a3e f09f 92be 7ba2 b73e
00000390: 428f 733f 4892 ef3d 545d 9d3e 1e9b 5dbc
000003a0: 83e8 813e 0215 28be 69f4 5c3d 461d 85be
000003b0: 19d5 b3be a140 4b3e 35d7 363e 5653 a53e
000003c0: baa5 60be 77b5 323e e7fb e43e 3b29 97bd
000003d0: 7cb4 f13c 015d 93bd 0216 47be 7f58 a3be
000003e0: edee 083d 6cd7 94be 4bc9 143e d8ea 02be
000003f0: fc97 d93d 2d7e 80be eea9 cb3c 3810 9a3c
1.124042 -0.09033332 -0.15680301 0.05144882 -0.025795847 -0.006800613 -0.017418874 -0.14083081
-0.036997538 -0.11415348 -0.040467057 0.041565552 -0.069657244 0.034642093 -0.064221025 0.11498906
0.005158606 0.0012832965 0.082318194 -0.0052595306 0.09853859 -0.24584432 0.03439094 0.031906378
0.044111647 0.037309553 -0.17719163 -0.062300052 0.10679832 -0.023630708 0.023499701 -0.09888286
-0.086249486 -0.06857743 -0.12950958 -0.04318013 0.14691739 -0.13693681 0.9283859 0.0011818323
0.24630398 -0.22963674 0.33416417 0.32231453 0.1904311 0.21212974 -0.24890552 0.1683667
-0.17235388 0.1686959 -0.31911883 -0.036791604 0.08015023 0.34792194 0.3709711 -0.13161615
0.16225728 0.25176555 -0.11853242 0.13111587 -0.058061313 -0.034715768 -0.06907783 0.080656216
0.35197836 0.07595427 -0.15094154 -0.1718758 -0.2770699 0.030471167 0.031271536 -0.21773905
0.17481276 -0.010197836 -0.025707567 0.07202437 0.8704631 0.78323376 -0.05503526 -0.007418831
0.18741372 0.13476752 0.09946262 0.13842382 0.11003285 -0.13542764 0.09767287 -0.07062519
-0.11519708 0.17412445 0.180267 0.12293335 -0.05381806 0.32452866 0.19854008 0.31377393
0.18241814 -0.17989615 0.24249575 -0.044378854 0.06453578 0.09699212 0.24574399 -0.24446094
0.17837666 -0.17088673 0.31355113 -0.095904924 -0.24293502 0.22709695 -0.003274643 -0.06591485
0.15114656 0.5394872 0.93805915 -0.06288554 0.0018206361 0.20114025 0.123762004 0.12401664
0.25553745 0.09138522 -0.14421435 0.12825137 -0.10472494 -0.23783356 0.1469921 0.20297454
0.22210343 -0.024559086 0.2970588 0.265521 0.3621532 0.14033987 -0.103342906 0.12444943
-0.040971458 0.11425479 0.15319882 0.25436592 -0.17638291 0.20801432 -0.2033468 0.2512109
-0.11385556 -0.2682553 0.17839636 0.0472726 0.45142946 -0.25090718 0.39473996 -0.015337833
1.2198946 -0.36118925 -0.40039858 -0.49800074 0.047985002 -0.048598066 -0.5205289 0.49962384
-0.15056296 0.33073574 -0.041415766 -0.16928037 -0.02775374 -0.4201208 0.38384113 -0.56702983
-0.27991587 0.011687722 0.22216144 0.06035072 -0.026372999 0.21728185 0.26287493 0.05334926
-0.3854947 0.43352756 0.22056271 0.43315378 -0.051992655 -0.17610303 0.33144563 -0.41474885
0.16285051 -0.21778832 0.08484091 -0.10819197 -0.15993167 -0.16861725 1.1532129 0.15678895
0.1957652 0.73860246 -0.014149212 0.365464 -0.17991033 0.29009864 -0.6153208 0.0935469
-0.3964149 0.3308513 0.28251052 0.06336347 0.0157325 0.32093638 -0.15899205 -0.53739834
0.048515514 -0.17003019 -0.16426736 0.16890863 -0.25572795 -0.078034155 0.17743616 -0.14620721
-0.10574538 -0.26783437 0.28459647 -0.25695923 0.19575329 -0.41215733 -0.19769244 0.2841519
-0.06992023 0.22872196 -0.28637648 0.3586615 0.9514047 0.11697823 0.30735266 -0.013525752
0.25372705 -0.16414264 0.053944025 -0.25998896 -0.35123518 0.19848873 0.17855532 0.32290143
-0.2193822 0.17452036 0.44723436 -0.07380911 0.029505007 -0.071954735 -0.19441989 -0.31903455
0.033430982 -0.29070604 0.14529912 -0.12784898 0.10624692 -0.25096264 0.024861302 0.018806562

demo_encoder.0.weight f4 [32, 8]
00000000: c74d 493e fb3a 913b 4e16 20be ae38 74be
00000010: cc33 28be 33f2 2bbe 38db ba3e 0d88 ed3e
00000020: 53dc f43e 3985 e03e d76e 8c3e 58ea 4b3e
00000030: d988 303e 22e0 7c3e 9316 32bd a03c 27be
00000040: bf99 05bf 21fb 833d 3579 5f3e 4078 94bc
00000050: 4847 14bf 549a 213e 846f 963d 06b9 bf3e
00000060: 5a1c 0c3e c5b0 863e 781b c1bd bf12 d0be
00000070: 99db b83d 74a7 783e fbce b8bd 9443 4cbe
00000080: 4e1b a1be 01fd d63e d3d6 d2bd 0669 413e
00000090: a03d 87be 26ce 253f dea2 f53b 6b03 9abe
000000a0: 1360 9dbd 307b fb3c 0d8c 05bf 0e58 86be
000000b0: 8f09 ad3e bc19 57be 7cb6 06be a539 4c3d
000000c0: e7eb b73e f1c9 8bbd 4050 993c 8965 17be
000000d0: 1e9f b4be 88cb c7be d967 783e cb73 58be
000000e0: 305f 0a3e 5342 24be 1f20 2e3e 6566 863e
000000f0: 5db5 333c 5364 fa3e b0c0 993d a5df fabd
00000100: 5371 02bf 5ca0 ecbe c124 a73d 481e 7d3e
00000110: ea65 b43d bc19 78bd c559 e3bd b086 32be
00000120: fafb c13e 20d6 11be 9512 733e 4b9a 81be
00000130: fa3b debd 0317 ed3d c283 d43e 6ebe 94bd
00000140: 99b6 04bf e8b8 8cbd 2a67 56be c373 9a3e
00000150: 9283 07be 6703 913e 4a5d e9be 9dee af3e
00000160: 1e5b 65be 1f97 173e 6462 59bd 693d 82be
00000170: 7d45 273e e6ce 923e 5d82 c2bd 0d3c bbbe
00000180: ce5a 6bbe 6f0a ec3b af7c 723e 8cd4 9ebd
00000190: afbe dcbd 8b13 7d3e 544f a6be 8893 a5be
000001a0: 8000 5f3d 4da3 59be 3440 b13e 4723 1d3e
000001b0: 5b5b 8a3b 729c 8b3e 95ae e73d af3d b23e
000001c0: cc31 883e b38e 50be c0ec 4f3e 7c31 d33d
000001d0: e332 3cbd 66d9 a2be f72e b0be 30f8 fc3e
000001e0: 38fb d83e 8a91 a43d 270b 2fbe 0532 99bd
000001f0: 276d 183e 041a d5bc d17c 17be f382 a13e
00000200: e34f 20be c5c2 1a3c f2a9 47be e056 a8be
00000210: 4b4d 9d3e 59e6 823e 9ef1 8abe 474d 0ebe
00000220: dd07 563e 9977 223d 2a3c 933e 695a 29be
00000230: 558b e9be 4f23 50bd e733 d6be 1ad9 eabe
00000240: 96ac cc3e 4909 c8bd 4d92 0f3e ae63 b43d
00000250: 6d71 833a ed9c 83bd 23c0 243e a473 083e
00000260: 5d91 dbbe 403e 7d3d b736 ad3e 157b c8be
00000270: f77f ba3e 20a3 cdbd f2b1 f7bd 815a c43d
00000280: 0150 02be 7d5d f1be 2bda 963e c468 3e3e
00000290: a813 6ebe 7585 6dbe 2103 073f d8f7 323e
000002a0: cb5b 90bd 252b b4bd 85fb b0be e344 d83e
000002b0: 8bfe bcbe dde6 f73e d7a5 5ebd e2e5 073e
000002c0: 1023 19be 2e2f 8c3e 6267 2ebe 4132 63be
000002d0: ced6 8bbe 0a75 ed3e ca6f ed3e 8946 f4be
000002e0: ae45 443e 877b dbbe 6168 3a3e 93cf 8b3e
000002f0: 82ba 463e 7222 873e 6bcf 2cbd eb36 fdbe
00000300: d0ae fb3d e8c2 793e 68bb 58bc 9edf b83d
00000310: bbb4 633e b88a d53e 9889 8b3e 3d6b 86be
00000320: ec68 45bd 434b 23be 3eaf 73be 98b1 31bc
00000330: bf0a e23d 2641 103e 2ca3 6abe a153 843e
00000340: 85f1 cfbe cad7 09be 27cc 62bc 9eca 9b3d
00000350: 4ec5 06bf b317 913e 68d2 9abe 076a 9f3e
00000360: cca5 963e dbbf 8fbd 4569 a7be b278 86be
00000370: 21cf 8f3e 9f83 99bd 0e14 a53e d2f3 adbe
00000380: 7f2e 10be f223 9fbe ff2e 7c3e e1cc 66be
00000390: 5f7c 3d3e c36e d3be 1ac2 9c3e 126f f1be
000003a0: c866 6e3e c66c 623e 2801 2ebe e42d 383e
000003b0: 8f38 e2bd 8c7c 04bf 0793 313e 0d0d 803e
000003c0: 3beb c83e f321 21be 8e03 18be bbf6 fabd
000003d0: 10a3 003e 3585 ef3e 4fc0 a43d 7297 3cbf
000003e0: 15df 54bd 9e8a 3d3e ec46 31be 1b52 513e
000003f0: cd15 a43e 30df 03bf 371b 9a3e 11b2 563e
0.19658576 0.00443208 -0.15633509 -0.23849747 -0.16426009 -0.1679161 0.36495376 0.4639286
0.47824344 0.4385164 0.27428314 0.19913614 0.17239703 0.24694875 -0.04347856 -0.1633172
-0.5218772 0.064443834 0.2182358 -0.018123746 -0.57921267 0.15781528 0.07345489 0.3744585
0.1368269 0.2630674 -0.094290674 -0.40639302 0.0902626 0.24282628 -0.090238534 -0.19947654
-0.31466144 0.41989902 -0.10294881 0.1888772 -0.26414204 0.6476768 0.007496222 -0.30080733
-0.0768434 0.030698389 -0.52166826 -0.26239055 0.33796355 -0.2100591 -0.1315555 0.04985966
0.35922167 -0.06825627 0.018715024 -0.14784826 -0.35277647 -0.3902247 0.24258365 -0.21137922
0.13512874 -0.16040926 0.1700444 0.26249996 0.010968533 0.48904666 0.07507455 -0.12249688
-0.5095417 -0.46216094 0.08161307 0.24718583 0.08808501 -0.060571417 -0.111011066 -0.17434192
0.37887555 -0.14241838 0.23737557 -0.2531303 -0.10851283 0.11576655 0.41506773 -0.07262884
-0.5184112 -0.068712056 -0.20937791 0.30166444 -0.13233784 0.28322908 -0.45578986 0.34361735
-0.2239804 0.14803742 -0.05307235 -0.25437477 0.16335101 0.28673476 -0.09497521 -0.36569253
-0.22983858 0.007203392 0.23680376 -0.07755384 -0.107785575 0.24714486 -0.32482398 -0.3233912
0.054443836 -0.212537 0.34619296 0.15345488 0.004222316 0.27267796 0.11312596 0.34812686
0.26600492 -0.20366935 0.20305157 0.10312173 -0.045946967 -0.31806487 -0.3441083 0.49408102
0.42379165 0.08035572 -0.17094098 -0.074802436 0.14885388 -0.026013382 -0.14793707 0.3154522
-0.15655474 0.009445851 -0.19498423 -0.3287878 0.30723032 0.25566366 -0.27137464 -0.13896666
0.20901437 0.03966484 0.2875684 -0.16538395 -0.45614114 -0.050814923 -0.41836473 -0.4586876
0.39975423 -0.09767396 0.14020653 0.08808075 0.001002831 -0.064264156 0.1608892 0.13325363
-0.4288434 0.061826944 0.33830807 -0.39156404 0.36425754 -0.10040879 -0.12094487 0.09587575
-0.12725832 -0.47141638 0.29463324 0.18594652 -0.23249686 -0.23195441 0.5273915 0.17477357
-0.07048758 -0.08797292 -0.34566894 0.42240056 -0.3691295 0.48418322 -0.054357376 0.13271287
-0.14954782 0.27379745 -0.17031625 -0.22187139 -0.2731232 0.46378356 0.4637435 -0.47710064
0.19167206 -0.4286768 0.1820388 0.27306804 0.19407085 0.26393467 -0.042189997 -0.49455962
0.12289202 0.24390757 -0.013228275 0.090270266 0.22236912 0.41707397 0.27253413 -0.2625369
-0.048195764 -0.15946679 -0.23797318 -0.010845564 0.11037206 0.14087352 -0.22913808 0.25845054
-0.40613952 -0.13461223 -0.013842619 0.076070055 -0.52644813 0.28338394 -0.30238652 0.3113558
0.29423368 -0.070190154 -0.32697502 -0.26263958 0.28087714 -0.07495808 0.32241863 -0.33975083
-0.14080237 -0.31082112 0.24627303 -0.22539093 0.18504475 -0.41295442 0.30616838 -0.47155052
0.23281395 0.22111806 -0.16992629 0.17986256 -0.11045944 -0.51752543 0.17341243 0.25009957
0.39241967 -0.15735607 -0.14845106 -0.12254091 0.12562203 0.46781316 0.080444925 -0.7366859
-0.05197056 0.1850991 -0.17312211 0.20441477 0.32047883 -0.5151243 0.30098888 0.20966364

demo_encoder.0.bias f4 [32]
00000000: 005b ee3e 4c13 87be 43a1 97be e010 7cbe
00000010: bd0b ad3e 9c02 46be e6c4 663e d00a 0abe
00000020: a03a a0bd 8bf9 ab3e a6e9 b33e 1154 833e
00000030: f07c a43e cfc6 b43e e163 003e 0296 d3be
00000040: 61f2 44be 2e0c bfbe f1fc 033d 7a9d 22be
00000050: cd14 36be 79d9 613c 976d 7a3e 1889 c03e
00000060: cb80 d03e 9df2 a3be 8b78 b53e c6a1 aebd
00000070: 5eda b5bd b638 4c3d de26 4c3e 0aa7 213e
0.46553802 -0.2638191 -0.2961522 -0.24615812 0.33798018 -0.19336933 0.22536048 -0.13480687
-0.07823682 0.33588824 0.35139197 0.25650075 0.3212657 0.3530793 0.12538101 -0.41325384
-0.19233085 -0.3731398 0.032223646 -0.15880385 -0.17781372 0.01378476 0.24455868 0.37604594
0.4072326 -0.32021037 0.3544353 -0.085269496 -0.08879541 0.04985877 0.19936702 0.15786377

demo_encoder.2.weight f4 [32, 32]
00000000: f908 a5bd 0bc7 653e b83d 8bbd fb24 3bbd
00000010: 4ee0 483c 7097 383e 06eb 80bd a157 0a3e
00000020: e6b1 b3bd 2539 c1bd 5726 6cbc b61f 8ebd
00000030: 278d 9bbd b9ad 463d c254 a93d 53fa 58bd
00000040: 0450 2e3e b964 c0bd 6c53 523d b5fb 1bbc
00000050: 5fd8 bebe 5d55 4b3e b53f 9e3d 7808 183e
00000060: 69b0 a73d bba5 293e 8184 5ebd a128 7a3d
00000070: 040e 60be be1c 40be 9b8b 813e 861d 94be
00000080: 99b5 57be 5282 87bd 1bae ec3d 532c f5bd
00000090: 2a66 1f3e 424e bb3e 09e3 81be 3aa6 4c3e
000000a0: 2d43 8e3d 313a 23be 50fb 0f3e 2bdd d93d
000000b0: e1c4 2dbd ffc5 1c3e 42a3 0cbd 7a72 04bf
000000c0: de21 7e3e e0a7 f63e 3507 50be 9546 a8bc
000000d0: 6942 e1bc 9ae0 df3e f502 68bd 87a2 b83d
000000e0: 3347 143e 9815 c7bd 5c46 db3c d7e8 ba3e
000000f0: 6001 b0bd 74d3 f9bd f019 973e 9286 43be
00000100: 5c5f 733d ced4 0c3e 3506 433e 2a4a 0f3e
00000110: 5cd8 00be 0941 953e fadf 2b3e 182f cc3d
00000120: 8d43 113e 567e 213d 0e7f 34bc f01a 3f3d
00000130: 2b61 8e3e f556 ad3d 81e0 8fbe dd23 30be
00000140: 89b1 333e 91d0 973e bb51 dd3d 44dd 3b3e
00000150: 1f31 a73d e9c6 d83d ecba 3a3e af83 1bbe
00000160: 2bab 9dbc 709d 033d 34bf 6a3e da9e 393e
00000170: 6d87 25be e914 29be 6178 a53e 917d 76be
00000180: 094f 08be 733a 7a3e ba0b c2be 2d81 8f3e
00000190: 2e0e 7a3e 7fe2 40be 0073 b83e bedb a23e
000001a0: 9a0b fcbd a4df 363e 6c76 46bc ff4c 53bd
000001b0: aa0e 07be cd37 bc3c d3d3 50bc 991e 1b3e
000001c0: c8f2 88be 92b8 0abe 4351 0c3e ba40 febe
000001d0: e561 b7bd d484 c73d fbb9 2b3e 3bed 133e
000001e0: 4d57 c43d eff7 84bd 9262 c8bd 8ba0 eebd
000001f0: 3ac0 b23d fb96 a7b8 8a65 923e 81c8 7cbe
00000200: a7c4 8dbe 08c1 46bd b5ca 7ebe 3711 99be
00000210: 2639 e7bc 35ea 12bc a59e 67bd e049 f83d
00000220: d9fe 813d 85dc 29be 5d78 35be 98a8 24be
00000230: 3fe4 06bd a49f 8c3d 807c 43bd 6ecd abbe
00000240: 9784 493d 4365 083f 622e bfbb 8b31 173e
00000250: da17 8bbe 2a6d 763e 82c2 9fbc 09fa 9d3e
00000260: 6005 ee39 7f9c de3d 9c30 66bc b059 a63d
00000270: ebb9 22be a81c 94be 35e5 c53e eabe 933c
00000280: 4d71 82be e52c 95bd 6477 8e3c 2692 843d
00000290: d922 323d 519e 0f3e a195 8cbe c355 793d
000002a0: 91f7 59be 445e 3fbe 9213 253d 0bdd af3c
000002b0: 1e56 c5bd a2fa 16be f405 013e 9944 0b3e
000002c0: a0c6 cd3d 93da 43be cd46 9a3c f711 1cbe
000002d0: 5594 a6be ed30 5bbe 7207 14bd 0f9f 98bd
000002e0: de01 29bd 8cf1 c93d 9e07 fcbd 3304 063d
000002f0: b03c 00be 2df7 363c 6e0d d23d c925 873d
00000300: 80c3 f6bd fd1b 78be ab4a 9abd 741e 1bbe
00000310: fe8d 8ebd 86b7 863e 2f36 283e 8a20 073d
00000320: 141a d4bd 25ef 463e 313c 6ebe 0742 39be
00000330: f89d a8bc d367 e23d 0468 7fbe a1f5 d2be
00000340: 37fb abbd aba5 843e a4e8 083e 1c0e 463e
00000350: bafe 013e 1f86 213e d6ab d33d 12c2 a4be
00000360: 7bb3 5bbe a27d 373d 799d d0bd 3574 563e
00000370: 5d33 373e da64 97bd 15b6 ae3d 2cf5 33be
00000380: 1232 8cbb cb8c 6a3e 8620 10be 63af a43e
00000390: e857 2d3d a73a 54bc 13a0 7e3e daf7 4abe
000003a0: c4d4 0d3d 4403 e53d 35e9 50be a5bb f63d
000003b0: df80 2c3e 7aa9 99bd a3ea aabc 0236 5f3e
000003c0: 9382 743e 3284 9abe d604 2a3c 2858 4a3e
000003d0: 8093 543e 7881 42be 36a6 ba3c 0d0e f4bd
000003e0: b481 423e 1cc3 5cbd 166f a9be edd7 243e
000003f0: f06c 9b3c d4db 9d3e cf34 8a3d e3e6 433e
-0.08058352 0.2243921 -0.06798881 -0.045689564 0.01226051 0.18026519 -0.06294827 0.1350999
-0.08774166 -0.094347276 -0.014413438 -0.06939642 -0.07595282 0.04850552 0.082681194 -0.052973103
0.17022711 -0.09394211 0.05134909 -0.009520461 -0.37274453 0.19856782 0.07726995 0.1484698
0.081879444 0.16567127 -0.054325584 0.061073903 -0.21880347 -0.18760964 0.25301823 -0.28928775
-0.21065368 -0.066166535 0.115566455 -0.11971345 0.15566316 0.36583143 -0.25368527 0.19985285
0.069464065 -0.15940167 0.14060712 0.106378876 -0.042424086 0.15309905 -0.034335382 -0.5173718
0.24817607 0.48174953 -0.2031525 -0.020541469 -0.027497487 0.43726045 -0.056643445 0.09015375
0.14480285 -0.097209156 0.026766948 0.36505768 -0.08594012 -0.121985346 0.29511976 -0.19094303
0.059417114 0.13753054 0.19045337 0.13993135 -0.12582535 0.2915118 0.16784659 0.0996992
0.14185925 0.039427124 -0.01101662 0.04665655 0.27808508 0.08463851 -0.2810097 -0.17201181
0.17548193 0.2965131 0.108066045 0.18346125 0.08163666 0.10584814 0.18235368 -0.15186952
-0.019246658 0.032132566 0.229245 0.18127003 -0.16164942 -0.16511883 0.32318404 -0.24071337
-0.133114 0.24436359 -0.37899572 0.2802824 0.24419472 -0.18836401 0.36025238 0.31808275
-0.123069 0.1785875 -0.012113195 -0.0515871 -0.13189188 0.022975827 -0.012745815 0.15148391
-0.26747727 -0.1354697 0.13702874 -0.49658757 -0.08954219 0.09742132 0.16770165 0.14445965
0.09586964 -0.06492602 -0.09784426 -0.11651715 0.087280706 -7.991303e-05 0.28593093 -0.24685861
-0.27689096 -0.048523933 -0.24882014 -0.29895946 -0.028225493 -0.008966972 -0.05654778 0.121234655
0.063474365 -0.16588028 -0.17721696 -0.16079938 -0.032932516 0.068663865 -0.047726154 -0.33555168
0.049198713 0.53279513 -0.0058343867 0.14764993 -0.27166635 0.2406508 -0.019501928 0.30854824
0.00045398902 0.10869693 -0.014049675 0.08122575 -0.15891235 -0.28928113 0.38651434 0.01803537
-0.25477067 -0.072839536 0.017390914 0.06473188 0.043490265 0.14025237 -0.27457908 0.060872804
-0.21285845 -0.18688303 0.040301867 0.021467706 -0.09635566 -0.14744046 0.12599927 0.13600387
0.1004765 -0.19126348 0.018832589 -0.15241228 -0.32535043 -0.21405382 -0.036139913 -0.07452213
-0.041261546 0.098605245 -0.1230614 0.03271885 -0.1252315 0.01116733 0.10256468 0.06599004
-0.120490074 -0.24229427 -0.07533773 -0.15148336 -0.069606766 0.26311892 0.1642692 0.032990016
-0.103565365 0.19427164 -0.23265149 -0.18091594 -0.020583138 0.11054959 -0.24942023 -0.41203025
-0.08397525 0.25907645 0.13369995 0.1934132 0.12694827 0.1577382 0.103355095 -0.32179314
-0.21455185 0.044797547 -0.101862855 0.20942767 0.17890687 -0.07392283 0.08530823 -0.17573994
-0.00427843 0.22905271 -0.14074907 0.3216506 0.042320162 -0.012953437 0.24865751 -0.1982111
0.034626737 0.111822635 -0.20401461 0.12047509 0.16846035 -0.07503028 -0.020863837 0.21797946
0.23877935 -0.30178982 0.01037713 0.19760191 0.20759392 -0.18994701 0.022784334 -0.119167425
0.1899479 -0.05389701 -0.33092564 0.16097994 0.018972844 0.30831778 0.06748354 0.19131045

demo_encoder.2.bias f4 [32]
00000000: 4a26 a0bd 6d3b 0ebd 8238 20be d6c6 f7bd
00000010: c3f1 673d 0999 91bc 4287 cebd a64c a33d
00000020: a65c a43c 4577 1a3e 1d04 a43d fc40 f33d
00000030: fbcf 4abc 5819 943d 85c5 273e e97e 1cbd
00000040: 27d9 903e 68b5 ab3d 8116 ddbc 4e2c a23d
00000050: 9220 e7bd bd02 30be 51da e5bd ae78 613d
00000060: 4524 453e 2705 b2bd be11 2a3e f046 81bc
00000070: fc8c a4bd 209b 18be 8a99 2bbe 1a07 7a3d
-0.07819803 -0.03472464 -0.15646556 -0.12098472 0.056627046 -0.017773168 -0.10084392 0.07973604
0.02006371 0.1508456 0.08008597 0.11877629 -0.012378688 0.072313964 0.16383941 -0.03820697
0.28290674 0.0838421 -0.02698827 0.07918607 -0.11285509 -0.17188545 -0.11223281 0.05504673
0.19252117 -0.08692389 0.1660833 -0.015780896 -0.08034703 -0.14902925 -0.16757789 0.06104193

gru.weight_ih_l0 f4 [96, 111]
00000000: b50f a63c 0de8 c73d df41 5d3e 9b60 fe3d
00000010: 384d fcbc c989 c2bd 174a 513d f6f0 613e
00000020: 735a bb3c ec10 0fbe e2a5 4f3d 0f9a 6d3e
00000030: 3486 b5bd 318c bf3e 9eae 963a bee6 6b3e
00000040: 0567 e8bc 3b8e 0a3d 5184 62be f76e e03c
00000050: 712e 7f3c 930c eebc 3aaa 6f3b 8774 ccbd
00000060: 5072 7d3e a686 cc3d b630 4ebe 8fcc df3d
00000070: 0646 97be aaa7 afbc 0910 54be bd8c 113d
00000080: 9d76 25be aa9a 9f3c b3b8 573d cfb9 91bd
00000090: 61e9 19be 8973 993d ed18 2ebe 14af f1bd
000000a0: 7332 02be 2fd8 ac3d d5b3 e83b 653c 4cbd
000000b0: cd25 81be 203f 583e 18ae c23d c31f 0a3e
000000c0: b7fd 783e 2b0d b83d 2c91 323e 68a5 993e
000000d0: bcfc e53d c9da c03e 839d 6a3e 75e0 dc3d
000000e0: d04e 453c b1cb 023d b3e2 93bd 362e a13d
000000f0: d93b a2bd c2e0 b3bd 5432 113d f929 893e
00000100: 3d44 833d cd34 ecbc cee8 343e 56e3 06be
00000110: 4477 73bd d4c5 b33d 0171 f2bd 7e47 463d
00000120: c4f5 573d 75f3 403d cb33 3fbe a4c5 253e
00000130: 24aa 30bd f6bc 6b3d a653 6cbc 0e20 1a3e
00000140: abd3 c93c 5aef f2bd bc16 a73d ac1f bbbd
00000150: 0257 853d 5148 39be 8772 a63e 3441 9b3e
00000160: 5510 9e3e 40f9 38be aac9 093d f7f2 613d
00000170: 67bc d9be a3d9 873d 562d 833e b343 943c
00000180: 639a a9bc d4c7 0bbe 7b61 fdbd 2c84 30be
00000190: 838f b5bc a7ef eb3d 5179 1ebe d342 9b3d
000001a0: d689 b1bd de3f da3c 085a c5bc b6f9 403e
000001b0: c7b6 9dbe f2ef 563e e62c 1c3c fa9a 28be
000001c0: adff 34bd 97e6 173e 380d e13d 1a35 213d
000001d0: 2c42 9f3d 1d41 2a3d b974 41bd 621d 68be
000001e0: 192b 0c3b 5cf4 55bc 5df8 853e 067c 54be
000001f0: 9535 d7be cc27 393d 3039 0fbe e5e5 fdbc
00000200: 4d64 a6bd e423 a93e dc4c 8dbd 1c68 a2bc
00000210: beee 49bc 5755 06be 68b9 433e 8b10 5c3e
00000220: beaf 2abd 84e8 43bd 5c2b 743e 37db 00be
00000230: 09d8 163d f7fd 073d ce8a afb9 7deb 9f3e
00000240: 79d9 d7bd c260 893c 4f39 1b3e e225 5e3e
00000250: 5507 683e fe5f cebd 4180 a7be 6913 5bbe
00000260: 8e01 c2be 5a1b 2bbe f18c a43b d582 023e
00000270: 6cff 5bbe 0664 453d e333 9abe e398 2b3e
00000280: 89a8 6fbd b6b4 33bc 6854 5cbd 26a7 c7bc
00000290: 35d1 acbc 53cd 5a3d e16e febd 75d6 fbbd
000002a0: c4c7 9cbd a198 e8bd d759 053e 75b6 50bd
000002b0: 800f 0dbd 6896 83bd 7e82 9abb 888d 4fbd
000002c0: 4d20 c33d da4d b83d 603a 4bbe b60f 153e
000002d0: 7a8f 3f3e 21bb 6fbe d5a0 8abe 0d32 abbd
000002e0: eb72 61be 8144 ddbb fed1 03be 16c6 88bc
000002f0: 1308 58bd 2106 27be f120 00bd 0c5d 113e
00000300: 080b 21bd 0803 89bd 751b 9bbe 58cd 4cbd
00000310: 09e5 8fbb 4cce 713e 3048 863e 8ff6 9a3c
00000320: 816f 33be bd30 6d3d 9e1e be3e 9a8b 0fbe
00000330: 2bcb 113e 25fe e53d 6fda cdbd 3105 02be
00000340: 2b73 293e 9c68 973d a718 8d3d 3825 b1bc
00000350: d9db d03c eff1 943d 8eb3 97bc 4609 5dbe
00000360: 60d7 553e e52b abbd 0d46 fb3d 3624 1b3a
00000370: 9720 eb3c a7f1 97be 2589 153d 9aff 8e3d
00000380: 1035 e8bb 4d5b 24be 0a8c 23be d494 fabc
00000390: 07c8 983c 6111 b23b f793 82be 5187 8abd
000003a0: 4342 82be 77d9 c33c 1a38 21be 8745 193e
000003b0: 7252 9fbd b41b 66be 9534 993d 3460 d3bd
000003c0: 243f 163d f659 a03d a890 073d c372 213e
000003d0: 8915 2dbd 435f 94be ee83 bc3d d92e 803e
000003e0: e925 943d f852 a1bd 5ad4 4abe 0e9b 943c
000003f0: 573a 8fbd e216 3d3e 0e7f df3d 1ecd f6bb
0.020271162 0.09761057 0.21607159 0.1242077 -0.03079854 -0.09498937 0.05109605 0.22064576
0.022870278 -0.13971299 0.050695308 0.232033 -0.08863488 0.37411645 0.0011496132 0.2303724
-0.028369436 0.033827048 -0.22120787 0.027396662 0.015575037 -0.02905873 0.0036569969 -0.09983163
0.24750638 0.0998662 -0.20135769 0.10927688 -0.2954561 -0.021442253 -0.20709242 0.03553461
-0.16158529 0.01948293 0.052666377 -0.07115518 -0.15030433 0.0749274 -0.17001696 -0.118009716
-0.12714557 0.08439671 0.007101516 -0.049862284 -0.25224152 0.2111783 0.09505862 0.13488679
0.24315535 0.089868866 0.17438191 0.30009007 0.11229846 0.3766692 0.22911648 0.10784999
0.012042716 0.031932537 -0.07220974 0.07870142 -0.07921571 -0.087831035 0.035448387 0.26789835
0.064095 -0.028833771 0.17666933 -0.1317266 -0.059439912 0.08777967 -0.1183796 0.048408024
0.052724615 0.04710718 -0.18672101 0.16188675 -0.04313101 0.057553254 -0.01442424 0.1505129
0.024637064 -0.11862059 0.08158633 -0.091369 0.06510736 -0.18093993 0.32509252 0.30323184
0.30871835 -0.18063831 0.033639587 0.05516335 -0.42526552 0.06633308 0.25620526 0.018098688
-0.0207035 -0.13650447 -0.123721085 -0.1723792 -0.022163158 0.115203194 -0.15475966 0.07581105
-0.08668868 0.026641782 -0.024090782 0.18845257 -0.3080351 0.2098997 0.009532189 -0.16465369
-0.044189144 0.14834057 0.109888494 0.039357282 0.07776293 0.041566003 -0.047230456 -0.22667459
0.0021387993 -0.013058748 0.2616605 -0.20750436 -0.42033067 0.04520397 -0.13986659 -0.030993411
-0.081245996 0.33035195 -0.068994254 -0.019825034 -0.012324987 -0.13118492 0.19113696 0.21490686
-0.041671507 -0.047829166 0.23844665 -0.12583624 0.03682712 0.033201184 -0.0003348202 0.3123435
-0.105395265 0.01676977 0.1515858 0.21694139 0.22659047 -0.10076903 -0.32715037 -0.21394123
-0.3789181 -0.16709653 0.0050216843 0.12745221 -0.21484154 0.048191093 -0.3011771 0.1675754
-0.058510337 -0.010968378 -0.053791434 -0.024371695 -0.021095851 0.05341847 -0.12423492 -0.12296764
-0.0765529 -0.11357237 0.13022552 -0.050955255 -0.03443861 -0.06425172 -0.004715263 -0.050672084
0.09527645 0.08999224 -0.19846487 0.14556774 0.18707076 -0.23411228 -0.2707583 -0.08359156
-0.22016494 -0.006752551 -0.12873074 -0.016696017 -0.052742075 -0.16310932 -0.031281415 0.14195651
-0.03931716 -0.06690031 -0.30294386 -0.05000052 -0.004391317 0.23613852 0.2622695 0.018916396
-0.17523004 0.05790781 0.37132734 -0.14018098 0.14237659 0.11230115 -0.100514285 -0.12697293
0.1654784 0.073929995 0.06889468 -0.021624193 0.025495457 0.07272708 -0.018518236 -0.21585569
0.2088294 -0.083579816 0.122692205 0.00059181766 0.028702063 -0.29676554 0.036507744 0.06982346
-0.0070864037 -0.16050453 -0.1597139 -0.030588545 0.018650068 0.0054342006 -0.25503513 -0.06764091
-0.2544118 0.023907406 -0.15744057 0.14967929 -0.07779397 -0.22471505 0.07480732 -0.10321084
0.03668131 0.07829659 0.03309694 0.15766434 -0.042256866 -0.2897893 0.09204851 0.25035742
0.07233793 -0.07877153 -0.19807568 0.018140342 -0.06993549 0.1846576 0.10912906 -0.007531776

gru.weight_hh_l0 f4 [96, 32]
00000000: 15b8 243e 382f 85bd 5939 8ebd 29e7 bdbd
00000010: 0a3c 01bd 7a42 40be 220b 853c cb1b a03b
00000020: 7204 9bbd 27fe 3f3e fb27 d3bd 87f3 6d3e
00000030: 98cc 063e 703d a43d 7fb8 ed3d 9b1a 1e3e
00000040: 7e17 e9bd e16f 46bd ae28 3ebb c855 163e
00000050: 825f 2bbd b8bb 2fbe 4b3e d6bd 7682 453e
00000060: a351 573e 5f9e 193e 3487 d1bd 8ea3 76be
00000070: 7391 703c de67 0f3d deb0 1a3e 26b7 693e
00000080: 8b94 bebc dc78 673d 58a7 473e f8eb e8bd
00000090: d296 17be 5e9e f93d f9f6 e8bd 4ad2 3b3e
000000a0: aedc 2abc 0ede 173d 03ad 773d 82bd 0a3c
000000b0: 9bac 2e3c 2c5d 4b3d cd7c 0f3e 441e 7f3e
000000c0: 4cd6 183e 307f dc3d 673a 7fbe 2ce8 a53d
000000d0: 1614 203e 8003 ff3b a5f2 2fbe de15 f0bc
000000e0: fe71 693d df1e 4c3e 1c51 ee3d 05b5 98be
000000f0: 9cae a93d 07d7 09be a9c2 79bd 369c a2bc
00000100: ebf9 ad3d 344d 473d 7ab5 d4bd 93f7 df3d
00000110: 09a9 443e aa31 623d d8cf 6d3e 9713 b4bd
00000120: b2c7 6ebe c6b1 67bd a7b2 ca3c f4d8 563e
00000130: a280 783e 4b98 a23e f739 e1bd 1047 973d
00000140: c368 b13c d343 203e 8e92 e1bd a9fb e13c
00000150: ed97 f8bd 409e 86be 7d83 b23d a3f8 133e
00000160: e81c a23d 50de 973e 13c6 9f3b 614c e13d
00000170: 62bd 3bbd ac73 83be ae7f 363c 669b 313c
00000180: 4d9b 3f3d 7c1f 663d 3da4 503c 67e8 87bc
00000190: 10b5 e8bd 66ed 8abd 3d44 87bd 03f3 9abd
000001a0: b864 5b3e 338d 8a3d 8dcf 7f3d 254d fd3d
000001b0: 7e6c 60be dfa0 493e a7b3 093d 2443 a4bc
000001c0: fde2 7abd 3508 7d3e 35ec 4a3c 3ba2 043d
000001d0: ff5d a63d 0a5a f3bd a79c cd3d eede 1bbc
000001e0: d7cd d93d 1b8c e2bd dfc8 02be 0beb fa3d
000001f0: e4d5 f13d 73b9 a9bd e651 8fbd 9ba7 b03d
00000200: 1489 3e3d 0c6e b9bd a609 0f3d 9d69 633d
00000210: ff5e 523d e7c7 3f3e 68af fd3a 622e 053e
00000220: 5e75 d5bd caa1 73bd 1a27 8bbe e4e4 04be
00000230: 8036 2f3d 849f 9e3d c427 7cbd a159 dabd
00000240: e0d1 233e f648 b03b 7a3e 5dbe b12a 073e
00000250: 9721 85bd 6509 f53b e61d 24be 3d10 0ebe
00000260: 4dcf d1ba 9777 c9bd 5da7 e4b9 9d08 c03d
00000270: 79c1 703e 32e9 a13e fa0b 4dbe 9ddd 843d
00000280: 973c 893c a707 eabd 60b8 7d3d cb6c 0ebe
00000290: b002 033e b938 973d a9de 873d a5b6 4fbc
000002a0: 59be f3bd ea61 a73d e730 33be e6b1 37be
000002b0: 2d7f 013d 199e 443e d295 293d 578f 3dbd
000002c0: 4adc 5f3e 6326 f8bc e848 903d 97ff f2bc
000002d0: 073b 2a3e 7fdc b2bd e8d6 20be 1530 903c
000002e0: fcc5 8e3c 01fa 453e ecaf 7dbe d9a6 1bbd
000002f0: b6ae c43d b153 70bd e9c0 80bd fcda 32bd
00000300: 31a8 263e 87d4 a63d 9b66 5c3e 87dd 13bd
00000310: 4edc 703e e98d 45bc 151d bebd d1c1 143e
00000320: 9f76 67bc feea 493e b65e 33bb 40de 083e
00000330: 755d 57bd 60d7 8cbd 917e f7bc 1fd8 c43d
00000340: 8bb3 c03c 2dad 2fbe e1f5 bcbe 5869 7fbd
00000350: d319 d73d 2b0b a2bd e199 703e 50bc 913d
00000360: 56a3 0bbd beb4 73bd 6750 b8bc e006 3a3d
00000370: 6942 943d 2e8d 12bd c3a1 45be 713b 1a3d
00000380: 88ff e6bc d81a 63be cd4a a3bc 8b95 9a3d
00000390: b9f2 a7bd 7421 15be 587b fbbd f3a2 6c3d
000003a0: cf20 433e a11a 973c 3fb1 d3be 58bb 14be
000003b0: 406a 63be dad8 a13d bb2b 47be daa7 e83d
000003c0: 495e 0b3e ce1b 19be 5c0c 1f3e 795a 11bc
000003d0: 30c5 433e 7f77 25bd 7ec2 a63e 6de0 8d3d
000003e0: 6c9f 31be 70ae 57bd 1d85 b93e 308a 653d
000003f0: c819 b4bb 2d12 7b3e 4a27 a4be 8f64 85be
0.16085847 -0.06503147 -0.06944532 -0.09272606 -0.0315514 -0.18775359 0.01624066 0.0048861257
-0.07569207 0.18749295 -0.1031036 0.2323743 0.13163984 0.08019531 0.116074555 0.15439837
-0.11381434 -0.04844654 -0.0029015946 0.1468116 -0.04183913 -0.17161453 -0.104611 0.19288048
0.21027236 0.1500182 -0.10230866 -0.24085829 0.014683115 0.035011165 0.15106532 0.22823772
-0.02326419 0.056511745 0.1949743 -0.113731325 -0.14803627 0.12188409 -0.11375231 0.18341938
-0.010428591 0.037077002 0.06046773 0.008468034 0.01066127 0.049649402 0.14012451 0.24913889
0.14925498 0.107664466 -0.24924622 0.08100924 0.15632662 0.0077823997 -0.17182405 -0.029307302
0.056993477 0.19933651 0.11636564 -0.29825607 0.08285257 -0.13460933 -0.060976658 -0.019849878
0.08494934 0.04865761 -0.103861764 0.10935893 0.19205107 0.055223145 0.23223817 -0.08792799
-0.23318365 -0.056566022 0.024743391 0.20981199 0.2426782 0.31756815 -0.10997384 0.07386601
0.0216564 0.15650873 -0.11014281 0.027585821 -0.121383525 -0.2629261 0.08716486 0.14450316
0.0791567 0.29661798 0.004875907 0.11000896 -0.045834906 -0.25674188 0.01113884 0.0108402725
0.046778966 0.05618237 0.01273447 -0.01659031 -0.1136266 -0.067835614 -0.06604812 -0.07565882
0.2142514 0.06765213 0.062453795 0.1236823 -0.21916386 0.19690274 0.033618595 -0.020051546
-0.06125163 0.24710162 0.012385418 0.032381278 0.08123397 -0.11882408 0.10039645 -0.0095136
0.10634964 -0.11061879 -0.12771939 0.12251862 0.118083745 -0.08287325 -0.06998043 0.08625718
0.046517447 -0.09054193 0.03492131 0.055520643 0.051360127 0.187286 0.0019354643 0.13005975
-0.10422777 -0.059480466 -0.2717827 -0.1297794 0.042776585 0.07745269 -0.06156136 -0.106616266
0.1599803 0.0053797914 -0.21605864 0.13199879 -0.065005474 0.0074779266 -0.1602703 -0.13873382
-0.0016007215 -0.09837263 -0.00043612244 0.09376643 0.23511304 0.31623226 -0.200241 0.06487582
0.016752524 -0.11427241 0.06194341 -0.13908689 0.12793994 0.07383866 0.06634266 -0.012677823
-0.1190154 0.081729725 -0.17499124 -0.17938957 0.031615425 0.19200934 0.041402645 -0.046279278
0.21861377 -0.030291742 0.07045156 -0.02966289 0.1662408 -0.087334625 -0.1570698 0.017601052
0.01742839 0.1933365 -0.2477414 -0.038000915 0.09603636 -0.058673564 -0.06286795 -0.04366587
0.16275097 0.08146005 0.21523516 -0.036099937 0.2352154 -0.01205776 -0.09282891 0.1452706
-0.014127403 0.19718549 -0.0027369685 0.13366032 -0.052579362 -0.06877017 -0.030211719 0.09611534
0.023523113 -0.17155905 -0.3690634 -0.062356323 0.105029725 -0.07912286 0.234962 0.07115996
-0.034091316 -0.05949854 -0.022499276 0.045416713 0.07239229 -0.03577917 -0.19299988 0.037654344
-0.028198019 -0.22178209 -0.019933129 0.07548054 -0.082005925 -0.14563543 -0.12279385 0.057772588
0.19055484 0.018445315 -0.41346166 -0.14524591 -0.222085 0.07902689 -0.19450276 0.1136014
0.13610186 -0.14952013 0.15532058 -0.008871668 0.1911819 -0.040397163 0.3257026 0.069275714
-0.17345971 -0.05265659 0.3623437 0.05603999 -0.0054962374 0.24518652 -0.32061225 -0.26053283

gru.bias_ih_l0 f4 [96]
00000000: da18 edbd abf7 bb3d a381 93bd 52ab 10bc
00000010: e87c f1bd c5ff e53d b910 1e3e 9339 c03e
00000020: 510b 203e 259e 303e df45 0cbd 196d 60bd
00000030: e43a 913c a0d2 99bd 03a7 02be 1e5a 59bd
00000040: d3f4 cabd f69f 813e 55e0 82bd 1c16 ebbd
00000050: 05f8 fe3d 8ffa e53d 96f6 ac3d a24b 253e
00000060: 8f0a f7bd b033 b6bd dbb3 65bd 1df2 7bbb
00000070: 8562 353e be0a 2e3e fb13 983d 99fd 07be
00000080: 6e21 713e fd0f 17bc e1a5 ce3b ba5d 433d
00000090: 8a47 283d 1384 373e c9d3 f23d 66f0 0f3e
000000a0: a741 203e 1a09 133d d7ca 01bd bcec a53d
000000b0: 0c57 b33d efa7 073e 7f92 373e ee26 8f3c
000000c0: 5762 75bd 2105 143c 4735 3d3e 3486 74bb
000000d0: c4d0 403e 91ae ba3d d8e3 3b3d 8b89 5abd
000000e0: 5840 b13b 855e 1d3e dbd8 92bd cc41 9ebd
000000f0: acb5 723d da89 543e 2918 833d 11a8 e53c
00000100: d215 36be cc6e b2bd ac4a 013c 851f dc3b
00000110: 69d8 b93d 7c83 f63c d68c df3d 3e9c 98be
00000120: 8539 e33d 8e79 a23d 00da ee3d 9a94 9d3d
00000130: 964f 623d 25bb a93c e3b4 2dbe 0435 2a3d
00000140: e351 cebd 7c77 febd ad92 133e a20d 8dbc
00000150: 8463 cb3d 978e 143e d73a 8bbd 52c6 fcbc
00000160: 5cc5 a6bd f6d4 0abe e140 1cbe d9da ecbc
00000170: be0b 1ebd 8b36 0abb 3967 60bd aec5 1bbe
-0.11577006 0.09178098 -0.072024606 -0.008829908 -0.11791402 0.11230425 0.15436067 0.37543926
0.15629317 0.17247827 -0.03424632 -0.054791544 0.017728277 -0.07510877 -0.12759022 -0.053064458
-0.09909978 0.25317353 -0.06390444 -0.114788264 0.1244965 0.11229431 0.0844547 0.16142133
-0.12062561 -0.08896577 -0.056079727 -0.0038443871 0.17713363 0.16996285 0.07425686 -0.13280334
0.23547909 -0.0092201205 0.0063063954 0.047696806 0.04108385 0.17921476 0.11856801 0.14056548
0.15650044 0.03589735 -0.031687584 0.08101794 0.08756837 0.13247655 0.17926978 0.017474618
-0.059908237 0.009034426 0.18477355 -0.0037311437 0.18829638 0.09115327 0.045871586 -0.053353827
0.0054092817 0.15368088 -0.07170268 -0.077273935 0.059255287 0.20755711 0.064010926 0.028034242
-0.17781761 -0.08712539 0.007891338 0.0067176246 0.0907448 0.030091994 0.10915534 -0.29806703
0.11094955 0.07933341 0.11662674 0.07694359 0.05525168 0.02071912 -0.16963534 0.041554466
-0.100742124 -0.124251336 0.14411421 -0.017218415 0.099310905 0.14507519 -0.06798332 -0.030856285
-0.08143112 -0.135578 -0.15259124 -0.028912948 -0.038585417 -0.002108964 -0.05478594 -0.15212128

gru.bias_hh_l0 f4 [96]
00000000: 4d84 f43d 297f f73d af01 ac3c e105 69bd
00000010: 1c0f a13d 4346 0abe b07a 003e 2048 0d3e
00000020: aac9 41bd e230 03bc 15be cfbc 4eeb 4bbd
00000030: 6e99 bbbd 4567 0fbe a0d9 0e3e 08d9 543d
00000040: 2723 a63d 81ad bc3d 179b bf3a 0978 1c3e
00000050: 2118 0a3d 029c ca3d fd75 593d e3d5 ef3d
00000060: d7fc dd3d 65a1 213e 7c95 ed3b 53f5 04bd
00000070: b6c2 aabd 3ad1 da3d 29dd 133e 79b5 143e
00000080: 8f55 8b3e 5f88 e53b 9fd4 7cbd d86a d3bb
00000090: 57e1 e1bc 86f7 94bd ffe4 553e 3a20 c5bc
000000a0: 4b15 133e 9834 9d3d 1672 213e 7b14 ff3d
000000b0: badb e33b fc55 a23d 7016 483d 01bf db3d
000000c0: 2c57 683d de50 4f3e a5d1 76bc 8b3b 303e
000000d0: 9cde 0a3e 65ba f2bb 091f e13d fc69 db3d
000000e0: d7e2 95bd 3d20 5e3e 3b31 5d3d dd2c de3d
000000f0: 353f 7a3e b51f a73e 6cae 9abd cd3d 6b3d
00000100: 5c06 17be 27bd 94ba 940f fdbd 11bd 193e
00000110: 6494 b1bd 9053 103e 95ea b13d 87b3 5abe
00000120: d036 82be 6ddc c43d 63d8 8b3c 97e1 d03b
00000130: 477c 513d 13f0 df3d e66b a33c ae3f d23d
00000140: b844 a13c 6e2d b4bd af27 633b eed2 e1bd
00000150: 2125 613c b42e e1bd a99b f73d b08d 773d
00000160: 0d96 b83d 7d25 14be 6bbf df3a 19f8 28be
00000170: 4979 3f3e bcda e53b abc4 21be e679 41bd
0.11939297 0.12084801 0.020996897 -0.056890372 0.0786421 -0.13503365 0.12546802 0.13797045
-0.047311462 -0.00800726 -0.025359193 -0.04978495 -0.09160124 -0.14004238 0.13950205 0.05196479
0.081121735 0.09212781 0.0014618364 0.15280165 0.033714417 0.098930374 0.053091038 0.117107175
0.10839241 0.15784223 0.007250486 -0.032460522 -0.083379194 0.10684438 0.14439835 0.14522351
0.27213714 0.007004782 -0.06172621 -0.0064519458 -0.02757327 -0.07273774 0.20888136 -0.024063218
0.14363591 0.07676047 0.15766177 0.12455078 0.0069536837 0.079265565 0.048849523 0.107297905
0.05672376 0.20245692 -0.015064632 0.17210214 0.13561481 -0.007407474 0.109922476 0.10713574
-0.07318657 0.21691985 0.054002028 0.10848401 0.24438174 0.32641378 -0.075527996 0.057431985
-0.1474852 -0.0011347876 -0.12356487 0.1501353 -0.086708814 0.14094377 0.08687321 -0.21357547
-0.25432444 0.096123554 0.017070955 0.0063745487 0.05114391 0.109344624 0.01994891 0.10266052
0.019686088 -0.087977275 0.0034661104 -0.1102656 0.013741762 -0.10995236 0.12090237 0.060437858
0.09012995 -0.14467426 0.0017070597 -0.16500892 0.1869861 0.0070146006 -0.15797679 -0.047235392

output_layer.weight f4 [2, 32]
00000000: 6bb3 debd 9f4e 51bd 91bd 9fbd 3bb5 71be
00000010: 59ce 293e be3f 623e 95b2 4e3e 58f4 61bc
00000020: 0735 81be 0550 5f3e 5286 a8be 94c2 793e
00000030: ceb4 503d 1c0f 8a3e 7110 07be 9c4f 563e
00000040: 8032 90bd c085 91bd a7eb 8bbe 1977 2cbe
00000050: 3f57 4fbe 8b49 05be d0a4 3a3e 85e7 743e
00000060: e8d2 293c 5ee0 7c3d 4027 5a3e fd58 bebd
00000070: 2444 903e 0f99 793d 4711 34be 7e13 57be
00000080: eb71 fb3d 08cd b0bd 1581 4b3e 42f5 8f3e
00000090: 90ab 9ebe 4262 03be 6d8a 1bbe 041b 8f3e
000000a0: 086d 073e d604 45be 348a b53d 44a4 823c
000000b0: 101c 84be 3614 9ebc 81b0 9d3e 8ff7 1ebe
000000c0: 53f8 e53d cb16 843e 5d7a cb3d ea55 793e
000000d0: d218 4b3e 556b 8d3e 29a9 bfbd 0a5f a1be
000000e0: 9e6a abbe d63c 4cbe 420b 94be 2795 9e3e
000000f0: 2a8a 7fbd 3390 84be bcf0 833e 38f9 ec3d
-0.10874065 -0.05110037 -0.07799829 -0.2360429 0.16582622 0.22094628 0.20185311 -0.013791166
-0.2523577 0.21807869 -0.32914978 0.24390632 0.05095368 0.26964653 -0.13189866 0.20928806
-0.07040882 -0.07105589 -0.27328226 -0.16842307 -0.20248125 -0.13016336 0.18226933 0.23916443
0.010365225 0.06173741 0.21304035 -0.09294317 0.28176987 0.060936984 -0.17584716 -0.2100353
0.122775875 -0.086328566 0.1987346 0.28116804 -0.30990267 -0.12830451 -0.15189524 0.279503
0.13225186 -0.19240126 0.08864251 0.015947469 -0.2580266 -0.019296747 0.30798724 -0.15524124
0.11229005 0.2579864 0.09935448 0.2434918 0.19833687 0.2762095 -0.093584366 -0.31517822
-0.3347978 -0.19945082 -0.2891484 0.3097317 -0.062387623 -0.25891265 0.25769603 0.11570972

output_layer.bias f4 [2]
00000000: eea1 cc3c 33ad 16bd
0.024979558 -0.03678627
